Assets/Models/AgentBehavior.onnx (onnx, 566922 bytes, 17 tensors)

discrete_act_size_vector f4 [1, 2]
00000000: 0000 0041 0000 0041
8.0 8.0

network_body.observation_encoder.processors.0.normalizer.running_mean f4 [8]
00000000: 1733 59c3 0000 0000 b07f bfbe da48 54c3
00000010: 0000 0000 dc34 223e f047 9dc0 0000 0000
-217.19957 0.0 -0.37402105 -212.28458 0.0 0.15840477 -4.9150314 0.0

network_body._body_endoder.seq_layers.0.weight f4 [256, 8]
00000000: 58f3 12bf 09f3 a6be 36b2 f5b9 542a 9f3e
00000010: c3a7 b83e ddc2 9bbe 372e 32bd 0ce9 d0be
00000020: f6ca 82bd 5a3d 4cbe 3ac9 bfbd 6216 1d3e
00000030: 48f6 6f3e 03aa 603d 7c6d 8f3c 77e6 13bf
00000040: 2164 8dbe db00 5abd 1959 f83c 5607 f43d
00000050: c02b 5c3b c962 373d 74df 923e c622 d6be
00000060: dfc3 9fbe a86d 09bf f001 1fbf 6def bbbe
00000070: 3d8f a4be a958 bd3e 0e7a b33d fd2f d7be
00000080: 7bf8 cc3e 2a3a 87be c656 be3e d051 b33d
00000090: 979c 35be 4268 0b3f e3e8 33bf 77ae 42be
000000a0: c57b 013f 96e7 a1be 1320 273d 249b a93e
000000b0: 513e c43d de3b 963e 870f 873e 5df6 93bd
000000c0: c58b 373e 93ca 003f 751a 81bd f06d ac3e
000000d0: cc7e 463c 0d05 f9be 4d24 d43d dbcb eebe
000000e0: ce21 0bbf ab8c 443e 41d3 a83d 6dca a23d
000000f0: b318 9cbe fca1 e73b d401 99be 2b4e f0be
00000100: 1062 61bd acde 90be 8919 dfbe 8f35 f7bc
00000110: 3061 1d3e 37c7 8dbf 8483 bf3e d2eb 623e
00000120: 951d ab3e a9ed 28bd 10c4 833d e78f 11be
00000130: f389 fb3d ae43 843e 1572 20bd dd66 e7bd
00000140: e016 36be 4d07 2a3e ca7b e23d 94b1 47be
00000150: a9ed b2be e3a1 f73e 32f1 dabd 4d00 913e
00000160: 91b5 273f 8f7d 7e3e 8b63 4ebe 6b53 b93d
00000170: 92cd c23e 79f2 843e 09f8 c8be 392e b63d
00000180: fd15 59bf 9219 56be 4782 36be 82a3 03bf
00000190: 918f b8be be63 823e 2743 1dbf 93f5 44be
000001a0: 8513 84bf ff13 1fbf 6d0b 863e b3e0 643f
000001b0: 029c 683e 2edf b43d 2b8b b9bd 75e8 b53d
000001c0: 5962 383e 3833 c83e 535e ccbe 0bcb 8b3d
000001d0: 5600 993d ba1c 80bf a06c 1fbe b1aa 29be
000001e0: 8d58 993e 79bb cbbe c9da f93c c26c 773d
000001f0: ceee d2be 3fed e9be 27e0 16be fb29 21be
00000200: d146 393f 8f2a cfbe a8b2 eabe ff6b f7bd
00000210: 22fb 0b3c c951 7f3f 3c3a cf3e 92bf 91be
00000220: bb35 be3e 9ed0 37be 3305 9a3e 4562 90be
00000230: 7c89 633e 0b70 cabe a93c 5fbe 0852 173e
00000240: 6271 983e 3c66 9cbe f749 2f3e a451 283f
00000250: 578d ab3e 6705 67bf 95e8 f4be a512 793d
00000260: 4006 8b3e f551 cb3e 7b3e db3b ee76 d2bd
00000270: a4ec 15bf 3167 40bf 4291 c43e c448 2f3f
00000280: 783b 43bf 273d 2b3e 6941 b53e ece5 b93c
00000290: 479d 39bf 1833 d93d 1264 e03e 878d babe
000002a0: bb4e 503e 269f acbe 694a cdbe 38a9 143e
000002b0: c5d3 69bd aa5e cc3e 103a 2ebd 8534 02be
000002c0: 461c a03e aca0 54bd 470d 963e 9ca4 61be
000002d0: 66f2 963d b674 783f 8bc8 9e3c dc22 853e
000002e0: f13b f83e 76a2 2a3e dd05 b4bd 5e86 d53e
000002f0: a2f7 cf3e 85f6 093e db6f 98bd b9d7 ba3e
00000300: 0861 98bc 3c66 aebe 85e3 1ebe 8f90 cbbe
00000310: ce1d e33b e248 fe3e 4b4b 753e 4809 23bd
00000320: 3afe 8fbe b37b a7bd 7d5c e3bd 1d0f 38bf
00000330: 3608 f5be f705 fcbe 52ed 5d3e 8942 24be
00000340: 9f3a b83e 6fa5 adbc 3185 a3be e22f 1abf
00000350: 1320 33bf d975 113e c81d 7c3f 3fb3 ca3e
00000360: 4d53 e53e e48f 12be 4587 3fbf bcd7 92bd
00000370: 4bb8 95be 1a6a a1be 2dd0 5abe b060 ba3e
00000380: 785a 933e 4ba6 06bf e4a8 96bc 8d94 9c3d
00000390: 4f9a 0d3d 7b97 3dbf d741 b33c 9fca adbe
000003a0: 995b f0bd 8f50 bebd f1ea 083f cae5 a8be
000003b0: 41a2 28bf 0022 ce3e 841f 1a3f ba2a 76bf
000003c0: fd3c 123f f319 423c c093 d93c cfba 103f
000003d0: 5e59 ca3e a542 9c3e d18f 37bf 5895 c93e
000003e0: 6bbf 08bf b36f 60be 08a4 5e3e b552 243e
000003f0: 1dda c83d d921 f03e f7e4 2d3e e6a8 6ebd
-0.57402563 -0.32607296 -0.0004686282 0.3108698 0.36065492 -0.30422106 -0.043501105 -0.408028
-0.06386368 -0.19945279 -0.09364553 0.1534057 0.23433793 0.054849636 0.01750826 -0.57773536
-0.27615455 -0.053223472 0.030315923 0.11915462 0.0033595413 0.044771943 0.28686106 -0.41823405
-0.31204125 -0.5368295 -0.6211233 -0.36706105 -0.32140532 0.36981705 0.087635145 -0.420288
0.40033326 -0.26411563 0.37175578 0.08755839 -0.17735516 0.5445596 -0.7027723 -0.19011866
0.5057948 -0.31622 0.040802073 0.33126175 0.095821984 0.2934255 0.26379034 -0.072247244
0.17924412 0.50309104 -0.063038744 0.33677626 0.012115192 -0.48636666 0.10358486 -0.46639904
-0.54348457 0.19194286 0.082434185 0.07948766 -0.30487594 0.0070688706 -0.29884207 -0.46934637
-0.05502516 -0.28294885 -0.4357417 -0.030176906 0.15369105 -1.107642 0.37405026 0.22160271
0.33421007 -0.041242275 0.0643388 -0.1421505 0.12282171 0.25832886 -0.039171297 -0.112989165
-0.17782164 0.16604348 0.11058767 -0.19501334 -0.34946945 0.48365697 -0.106905356 0.28320542
0.65511423 0.24852584 -0.2015516 0.09049114 0.38047463 0.25966242 -0.39251736 0.08895535
-0.84799176 -0.20908192 -0.17823134 -0.5142137 -0.36047032 0.25466722 -0.6143059 -0.19234304
-1.0318457 -0.62139887 0.26180592 0.89405364 0.22715762 0.08831631 -0.09059747 0.08882228
0.18006267 0.39101577 -0.39915714 0.06825837 0.07470767 -1.0008767 -0.15568781 -0.1656902
0.2995037 -0.39791468 0.030499833 0.060406454 -0.4119782 -0.45688817 -0.14733945 -0.1573867
0.7237368 -0.40462157 -0.4583943 -0.120811455 0.008543761 0.9973417 0.40474117 -0.2846647
0.37150368 -0.17950675 0.30082092 -0.28199974 0.22220415 -0.39538607 -0.21800484 0.14777386
0.29774004 -0.3054675 0.17118059 0.65749574 0.3350627 -0.9024262 -0.47833696 0.060808796
0.27153206 0.39710966 0.006690798 -0.1027659 -0.5856421 -0.7515746 0.38392073 0.68470407
-0.7626262 0.16722547 0.35401466 0.022692643 -0.7250561 0.106054485 0.43826348 -0.36436102
0.20342533 -0.3371517 -0.40095833 0.14517677 -0.057086725 0.39915973 -0.04253584 -0.12715347
0.3127157 -0.05191104 0.29307005 -0.2203545 0.073704526 0.97053087 0.019382736 0.26003158
0.48483232 0.16663536 -0.08790181 0.41704077 0.40618616 0.13472946 -0.0744321 0.36492708
-0.018600956 -0.34062374 -0.1551648 -0.39758727 0.006931043 0.4966498 0.23954503 -0.039803773
-0.28123647 -0.08177891 -0.11101625 -0.7189806 -0.47857827 -0.492233 0.21672562 -0.16041006
0.35982224 -0.021197049 -0.31937554 -0.60229313 -0.69970816 0.14205112 0.9848294 0.3958988
0.44790116 -0.14312702 -0.7481578 -0.07170054 -0.29242167 -0.31526262 -0.21368475 0.36401892
0.2877996 -0.5259749 -0.01839108 0.07645521 0.03457099 -0.74059266 0.02188198 -0.3394365
-0.11736221 -0.09292709 0.5348349 -0.32987815 -0.6587258 0.40260315 0.6020434 -0.96158946
0.5712431 0.011847007 0.02655971 0.5653505 0.39521307 0.30519596 -0.7170382 0.39371753
-0.5341708 -0.2191761 0.2174226 0.16047175 0.09807227 0.46900824 0.16981874 -0.058266543

network_body._body_endoder.seq_layers.0.bias f4 [256]
00000000: 2707 9d3d 86ea 523d 73e8 1bbd 9ebb 8f3d
00000010: 0c35 aa3d 3c01 203d 5a37 b33d 023f 5bbd
00000020: ef96 9a3d 303e a0bd ab24 283d 9c20 af3c
00000030: dcad 4d3d f484 82bd 6455 9a3d 2b07 a73d
00000040: 8ef1 5e3d c651 e1bc 20f3 8f3d 4529 323d
00000050: bf77 5a3d f57d e1bc defe 933d c2a5 0abb
00000060: 1c9d 243d 2191 133d 53a7 643d 352f 923d
00000070: c28a 5f3d 54fb 523d 1552 313d 5d7a ea3d
00000080: c666 8e3d 7f2c 943d a6a3 8fbb 3c1f a53c
00000090: 4413 69bd 2330 ab3d 6b01 323d 413f 2e3d
000000a0: 0045 b23d 7738 8e3d 2b98 893d 8988 66bd
000000b0: 564d 933d 77d3 ec3c 7c72 6c3d 1fc8 353d
000000c0: 91ba 38bc a3bb e8ba 2951 47bd 6e43 3f3d
000000d0: 2f9d 15ba de30 9d3d 81e2 25bd a075 4c3d
000000e0: 5544 ab3d 5476 bd3d 65c5 3fbd 53c4 893d
000000f0: ff53 8e3d 7583 943d 197a 7d3d e0e9 483d
00000100: bb36 2d3d ab1e 4abd d1ea b63d e225 2d3d
00000110: f9a2 a3bc 34b3 8e3c 9aca cd3d 3441 8cbc
00000120: 0473 8c3d 1a12 893d 52ab d2bc 89cf acbd
00000130: ff84 b13c 4ba6 023d a288 eebb 3b65 a13c
00000140: 473a 813d 06e1 883d 1614 b03d 212b c63c
00000150: 02a7 353d 7f71 b33d 35f0 533d d759 2c3d
00000160: 2511 b53d 33e6 7f3d d45f 2b3d 318d b5bc
00000170: 282d ba3c c8ea afbc a0f6 743d c5f1 86bd
00000180: df91 73bc 547f a83d e36a 893b e73a 403d
00000190: 38f7 803d cd65 7cbd ebc4 68bd 19a3 7c3d
000001a0: 4817 2d3c b29a 5dbd 7b85 a43d 5f9a 823d
000001b0: 11b1 b03c e1b8 413d 3c47 cd3c 0ef8 533d
000001c0: 66de c03d e0be a23c 0e54 8ebd 7ddf 16bd
000001d0: c32c 363c 72db 5e3d dd62 453d 67e1 073d
000001e0: e0de 8a3d 65df 023d f5ef 3cbd 492d 083d
000001f0: d5ad fc3c 1028 103d 80f7 46bd bcc9 2f3d
00000200: abfc a43d 8a69 b43c f2d7 c93d 3772 b7bc
00000210: 1078 8537 75c3 9f3d 7d3e 31bd 508c adbc
00000220: 6e1a a43d f786 323d 97c0 8cbc 7cc5 503d
00000230: a78d 243d 1eee d33c 1696 8f3d 84cb 76bb
00000240: 6106 4b3d 5e11 173d 2af4 823d 4f34 35bd
00000250: 5e77 6c3d ec04 b73d f613 54bd 2312 843d
00000260: 4932 4b3d 338a 853d acb0 9c3d 44a2 6bbd
00000270: 50b4 903d 0af3 363d 8a4f 86bd 021d 223c
00000280: 78fb b83a 5719 983d cdb8 303d f490 87bd
00000290: 00ad b23d 30a7 683d 4e67 973d 0752 3b3d
000002a0: 8486 a83d dfa1 65bd 7fad 3cbd 8e63 653d
000002b0: 3e62 20bd 527d 13bc aecd 483c c1d9 443d
000002c0: c768 5a3d aaf3 223a 134d 593d e97f 003b
000002d0: 66f6 9dbd 6118 443d 1b5e b93d 4a45 973d
000002e0: 87e1 973d 3e8c 163d cf7d b83d b3ca e9bb
000002f0: 3613 3f3d 4793 b43d dc59 323d 49d6 873d
00000300: d096 dabc a1f7 8d3d c8ed babd f77e 5a3d
00000310: bd36 673d 50e4 9ebc daca 993d dc72 c33c
00000320: fb01 aa3d cdc3 073d 34d7 403d e8d5 76bd
00000330: b793 95bc f49f 633d ecbb 783d 7963 16bd
00000340: 62f1 473d c0cb 6b3d 5c0d 2a3d ca3e c0bd
00000350: 97d7 6a3c c222 713d 0f1b 603d 63de 593d
00000360: e6a8 323d 28c1 8c3c 1716 5ebc 55de 1c3d
00000370: a336 713d 106a 793d 6662 d83c 92ca 47bd
00000380: d039 e33d 2421 413d 810f 0f3d d217 ae3d
00000390: e55c 813d 60ca 093d a70f b3bc cd04 7e3d
000003a0: 489b 7abd 23b8 e53c 56c2 07bd e3b9 c13a
000003b0: d7c5 873c 9f0b 673d a8d4 883d 62b0 aabd
000003c0: 4702 943d 072a 733d f650 883d 8b61 6d3d
000003d0: 782b 9d3d 840a 673d b14b 9f3d ec08 f43c
000003e0: aa69 993d 8328 8e3d fa23 783d 059a 883d
000003f0: 8ae8 a23d 558c b0bd f600 5dbd 8bb1 4b3d
0.0766738 0.05149319 -0.038063478 0.07018207 0.08310899 0.039063677 0.08750792 -0.053526886
0.075483195 -0.07824361 0.041050594 0.021377854 0.050214633 -0.06373015 0.07535818 0.08155664
0.054429583 -0.027504813 0.07028794 0.04349639 0.053336855 -0.027525881 0.072263464 -0.0021155928
0.040188894 0.036027078 0.055823635 0.0713791 0.05457569 0.051509216 0.04329117 0.1144912
0.06953196 0.072350495 -0.004383522 0.020156495 -0.05690314 0.08358791 0.043458384 0.042540792
0.08704567 0.069443636 0.06718477 -0.056282554 0.07192485 0.028909428 0.05772637 0.044380303
-0.01127495 -0.0017756115 -0.048661385 0.046695165 -0.0005707321 0.07675336 -0.040499214 0.049916863
0.08362643 0.09251085 -0.04681911 0.06726899 0.06949615 0.07251636 0.06188402 0.049051166
0.042288523 -0.049345654 0.089315064 0.042272456 -0.019975172 0.017419435 0.10048409 -0.017120935
0.06857875 0.06692906 -0.025716458 -0.08438022 0.021669863 0.03189687 -0.0072794715 0.01970159
0.06309944 0.06683545 0.08597581 0.024190487 0.044348724 0.08761882 0.05174275 0.042077865
0.08841161 0.062475394 0.041839436 -0.022162052 0.02272661 -0.021474257 0.059805512 -0.06589083
-0.014866321 0.08227411 0.00419365 0.046931174 0.06297153 -0.061620522 -0.05682842 0.06167898
0.010564633 -0.054102607 0.08033272 0.063771 0.021568807 0.047295455 0.025058381 0.051750235
0.09417419 0.019866407 -0.06949626 -0.03683423 0.01111907 0.054408498 0.048189986 0.033173945
0.06780791 0.031951327 -0.04612728 0.033246312 0.030844608 0.035194457 -0.04857588 0.042917
0.08056005 0.022022981 0.098556414 -0.02239333 1.5910744e-05 0.07800952 -0.043272484 -0.02118507
0.080128536 0.043585744 -0.017181678 0.050969586 0.040174153 0.025870379 0.070110485 -0.0037657926
0.04956663 0.036881797 0.06394227 -0.04423934 0.057731025 0.08936486 -0.05177685 0.06448772
0.049608503 0.065205 0.07650885 -0.057527795 0.07065642 0.044665374 -0.065581396 0.009894611
0.001411303 0.07426708 0.04314499 -0.066194445 0.087244034 0.056800067 0.07392751 0.045732524
0.08228782 -0.056062575 -0.046063896 0.056003146 -0.03915619 -0.009002047 0.012256069 0.04805923
0.05332258 0.00062161183 0.05305202 0.001960749 -0.077130124 0.047874812 0.09051152 0.07386263
0.07416063 0.03675484 0.09008371 -0.0071347593 0.04664918 0.088171534 0.043542728 0.066326685
-0.026683241 0.06931997 -0.091273844 0.05334374 0.056448687 -0.019395977 0.07509394 0.02385848
0.08301159 0.033145715 0.047080234 -0.06026259 -0.018258912 0.055572465 0.06072609 -0.03671596
0.048814185 0.057567358 0.041516647 -0.09386976 0.014333627 0.05887104 0.054713305 0.0531906
0.043618105 0.017181948 -0.013555071 0.03829797 0.058889996 0.060892165 0.026414108 -0.04877717
0.11095011 0.047150746 0.034926895 0.08500637 0.06316546 0.033640265 -0.02185805 0.062016297
-0.061183244 0.028041905 -0.033144318 0.001478013 0.01657383 0.056407567 0.06681186 -0.083344236
0.07226997 0.059366252 0.06656067 0.057954352 0.07674307 0.056406513 0.07778109 0.02978941
0.07490857 0.06941321 0.060581185 0.06670002 0.079545096 -0.08620516 -0.053955995 0.049729865

network_body._body_endoder.seq_layers.2.weight f4 [256, 256]
00000000: fe95 f03c bb00 f93d 9291 03be c5f3 d4bd
00000010: 7c4c 94bb 9207 9ebd c995 6bbd e5fa 463d
00000020: 8e72 473d 4c5c 9c3d 3c1a c3bd 4c8d 8b3c
00000030: 6ba1 03be 56c6 b53d 20f7 8fbc c771 1d3d
00000040: b96f 09bc c704 1dbe be66 ebbb 0652 5fbd
00000050: 19fb febc 3e37 02be 93fe 503d 9fd7 56bc
00000060: a345 88bd 8d9b 6b3c 1e2c ab3d 8dda 283b
00000070: d40c 503d 137c aa3d 429d dfbc f1fb ed3d
00000080: fd4e ba3d 5405 3abb 0dce a2bd cf6d 24bd
00000090: 17a6 b23d 284f c73d bde1 67bd 5fe0 b63c
000000a0: 72ae dc3c ea42 c5bd 80be a13d dbd1 0b3e
000000b0: 2336 07be 460b b0bc 2826 993c a3eb e2bd
000000c0: 47c5 c8bd 8743 59bd 0e9f 38bd c8fb 493c
000000d0: cd01 8a3c 8851 903c 7543 61bd 2f47 21bd
000000e0: 3930 25bd cd1b 543b 7daf 14be 8b74 ac3c
000000f0: 3b4a bcbc aad3 193d 83c8 183d d13c 94bd
00000100: 2ed5 be3d c682 8d3b 15c1 3dbc 086e e23c
00000110: 41d0 503d 7604 6ebc 9bda 05bc a133 a83c
00000120: a427 c8bb 0aec c23c 0f00 f03d c2e1 b1bd
00000130: 3c17 6ebc e179 133e 2ae0 91bb 1f3e d6bd
00000140: e6cd a63d 689b e6bc 922b e03d bc27 443c
00000150: 926f f5bc d0a4 dd3c a9a4 8a3c 747b 9cbd
00000160: 21b7 1c3d 931b 9fbc 13f6 b0bd de47 853d
00000170: e463 c73d 20ea e73c ec3e 5bbd 4e0d 1c3d
00000180: 2bf4 cc3c af1b d33a 8e58 cd3d d98d 3fbd
00000190: 6b73 b73b a617 09bd 1fff ff3c a56e b0bd
000001a0: 528a 38bb 56a5 213d 5596 19bc 4c3a 9abd
000001b0: 94c9 183d 4349 8e3d 0972 033e c064 623c
000001c0: 5cd6 243d cb4a b13c 101b 29bd 0b29 ca3c
000001d0: 90ce 91bd 800c 623d b1c7 853c 0993 77bd
000001e0: cf02 94bd a8de 0b3d c8db c63c 0134 c83d
000001f0: db0a dfbc 7a0a b83d ded0 623d 50d5 15bd
00000200: f180 30bd 6908 913d 2a16 73bd e3bc 88bc
00000210: 3aa8 52bc b910 3d3c 6b91 bcbc 9481 863d
00000220: 42b3 09bd 977e 77bc 7091 c1b9 308f ab3d
00000230: 2746 39bd 990e f1bc 69ec 943d 0265 53bd
00000240: 5cad f73b 3d96 aa3d fd27 ff3d faa6 d7bc
00000250: 1061 20bd 9b7b 25bd e2f4 ffbc a022 93bd
00000260: 439d 01be 20b1 993d 9be5 c9bd 2a45 d2bd
00000270: 295b cabd 3cf8 193d 718f a4bd 760a fe3c
00000280: ac6d c5bd cf55 003a 489f 653d 9cc9 b2bc
00000290: 3b76 fdbb 3f64 8f3d 48f4 42bd 4724 a0bd
000002a0: 7dcf e63c 3329 853d 4f86 0a3d fd3c c33d
000002b0: 7d46 e93c 34cf 91bb 382b 6f3d f424 29bd
000002c0: 694b 0cbb 8043 983d 7842 90bc 4443 943d
000002d0: a759 48bc 34c7 9cbc e956 73bd 6970 fa3c
000002e0: a5e1 153e 0daa 723d 70c7 21bd 5436 33bd
000002f0: 98b7 3ebd 3bfa a63d dc87 21bd 82c0 373d
00000300: 4d20 733d 5d34 07bd dd13 85bc cb22 953c
00000310: 2739 0b3e 53cb c4bd 00c9 f4bd 231a 373d
00000320: 1381 e4bb 24d7 313a d1f7 1ebd a067 383d
00000330: 51a6 17bc cbba a0bd 9bd0 ffbd 884f c5bd
00000340: 8a7e 14bd 9974 023d d986 57bd 090d ca3d
00000350: 71a6 9b3d 14e5 283c 3ad4 73bd 04a2 bd3d
00000360: 746f cf3d 148a acbc a4b8 e3bd cc67 a9bd
00000370: c25f 913c 162b 5cbd 35c9 3a3d eb25 60bd
00000380: a65e aebc 6b34 923d 23db 9bbd 4cbf abbd
00000390: 1470 10bd bc64 6a3d 9f91 11be fd2a 7fbd
000003a0: a10d eb3b 0613 a5bd 411f 093d 87e1 d8bd
000003b0: 9779 233d f3c4 e83d e119 d63c 031c 53bd
000003c0: b0a9 83bd 8a8f 1bbd bfaa 74bd 2c35 883d
000003d0: 9cb2 06bd 6323 053d 1c65 abbd 69ab 8c3d
000003e0: ad5a 0f3d e66f 2cbe fdc0 a53b adc4 a13c
000003f0: 9b41 fb3b c554 00be 0347 823d 24ab c0bd
0.029368397 0.121583425 -0.128485 -0.10398058 -0.004525719 -0.07716288 -0.057515893 0.048579115
0.048693232 0.07634792 -0.09526488 0.017035149 -0.12854545 0.0887572 -0.017573893 0.038438585
-0.008388453 -0.15333854 -0.0071838787 -0.054521583 -0.031125592 -0.12716386 0.05102403 -0.0131129315
-0.06653907 0.014380348 0.08358024 0.0025765032 0.050793484 0.083244465 -0.027296666 0.1162032
0.09097097 -0.0028384523 -0.07949457 -0.040143784 0.087230854 0.09731895 -0.056611765 0.022323785
0.02693865 -0.096319035 0.07897663 0.13654272 -0.13204245 -0.02148975 0.018694952 -0.110801004
-0.09803253 -0.053042915 -0.04507356 0.012328096 0.016846562 0.017617002 -0.054995973 -0.039374527
-0.04032919 0.0032365203 -0.14520068 0.021051666 -0.022984615 0.037555374 0.037300598 -0.07238162
0.093180045 0.004318568 -0.011581679 0.027640358 0.050979856 -0.014527431 -0.008169795 0.020532431
-0.006108241 0.023794193 0.11718761 -0.08685638 -0.014531907 0.14401962 -0.0044517713 -0.104610674
0.08144741 -0.028150275 0.109458104 0.011972364 -0.029960427 0.027056128 0.01692422 -0.07640734
0.038260583 -0.019422328 -0.08640685 0.06507848 0.097358495 0.028309882 -0.053526804 0.038098626
0.025018772 0.0016106273 0.10026656 -0.046766136 0.0055984757 -0.03346982 0.03124958 -0.08614854
-0.0028158617 0.039464317 -0.009374221 -0.075306505 0.037301615 0.06947567 0.1283647 0.013817966
0.04024349 0.02164211 -0.041285574 0.024677774 -0.07119477 0.055187702 0.016330572 -0.060442958
-0.07227098 0.03414789 0.024274722 0.09775544 -0.027226856 0.08986373 0.055374973 -0.036580384
-0.043091718 0.07081682 -0.05934731 -0.01669163 -0.012857491 0.0115396315 -0.02301856 0.06567684
-0.03361822 -0.015105865 -0.00036920188 0.0837692 -0.045232918 -0.029425906 0.07271654 -0.05161
0.007558508 0.08329437 0.12458799 -0.026324738 -0.039155066 -0.040401082 -0.031244699 -0.071843386
-0.12657647 0.07504487 -0.09858247 -0.10267098 -0.09880669 0.03759025 -0.08035172 0.031010848
-0.09640059 0.0004895599 0.056060106 -0.02182465 -0.0077350414 0.07001542 -0.047596246 -0.07819419
0.02817511 0.06501999 0.033819493 0.09533117 0.028475994 -0.0044497494 0.058390826 -0.041295007
-0.0021407253 0.074347496 -0.01760982 0.072393924 -0.012228406 -0.019137956 -0.059409056 0.03057118
0.14636858 0.059244204 -0.03949684 -0.043752983 -0.046561807 0.081531964 -0.039436206 0.044861324
0.059356976 -0.033008922 -0.016244823 0.018205067 0.1359602 -0.096090935 -0.119524 0.04470266
-0.0069733947 0.00067840726 -0.038810555 0.0450207 -0.0092559615 -0.07848128 -0.1249096 -0.0963431
-0.03625349 0.031849477 -0.052618835 0.098657675 0.076001056 0.010308523 -0.059528567 0.09259418
0.1012868 -0.021061935 -0.11119202 -0.08271751 0.017745856 -0.053752027 0.045602042 -0.05472366
-0.021285366 0.07138904 -0.076101564 -0.08386096 -0.035263136 0.057224974 -0.14215706 -0.062296856
0.0071732556 -0.08060269 0.03347707 -0.10589891 0.03991088 0.1136569 0.026135387 -0.051540386
-0.0642885 -0.037978686 -0.05973315 0.06650767 -0.03288518 0.03250445 -0.083688945 0.068686314
0.034998585 -0.16839561 0.0050584064 0.019747103 0.007667733 -0.12532337 0.06361201 -0.094076425

network_body._body_endoder.seq_layers.2.bias f4 [256]
00000000: b34d 1a3d 1969 4e3d 7541 d83c f6ed 87bd
00000010: 01f4 603d 1791 2dbd 1afd 2f3d 1179 353d
00000020: b463 373c 3442 943d 2a9d 48bd de9c 4b3d
00000030: 7297 c73c 7a10 d8bc 3844 a6bd a025 e8bb
00000040: da22 2bbd 4e82 693d 2939 aa3b 8a37 403d
00000050: 848c 1e3d 7ce1 2d3d 91fa 063d b1f8 463c
00000060: a1aa bdbd 4487 2d3d ec3e 00bc 05d8 7bbd
00000070: 9288 2fbd c3a5 3cbd 3cb7 08bd 8b7c 003d
00000080: ae69 34bd 8c3e 3a3b 0ed9 253d 3970 75bd
00000090: 05bc e23c 11a2 9bbd 668c 9bbd e561 2d3d
000000a0: 1058 60bd b416 c23c 351b ab3b ebba 8cbd
000000b0: 3ef7 c6bb 0bf8 6d3d 7708 8bbc d0e5 70bc
000000c0: 9a09 6d3d ebd7 e33c cc0b 083d 9bfe 2c3c
000000d0: 3090 5dbd dc07 073d bf79 1d3d edbd e93b
000000e0: 2d34 c2bc 80da a1bd 11a0 373d 73ca 0abd
000000f0: 04a2 b3bd 9998 4b3d 09f3 613d 3915 403d
00000100: 8586 8abd 89fc 1e3d b55f e73c 1f9d 4e3a
00000110: 18e5 d5bc 5413 f13c c8e0 6a3c 93e4 273d
00000120: 1598 463d e752 c3bd 9ac8 1c3d 6702 863d
00000130: fbe6 e6bc 3061 d1bb b505 443d 0ee9 c2bd
00000140: aed9 573c 9f1d 423d 8512 68bc 7909 2d3d
00000150: 063d 3f3d c358 a93c da5b 89bd f950 22bc
00000160: 132f fc39 39ca 383d d970 d5bd 9a96 383d
00000170: 413f ea3c 6ea4 3d3d 9154 aebd eb01 e1bc
00000180: 6096 8abc 1cea 043d c97d 413d 20cd 7bbd
00000190: cab0 b73c b86e 9bbd ff8b 53bd 83ce 033d
000001a0: f660 8fbd dc6d 2c3d 314a 88bd 2695 f8bc
000001b0: 98fe 4e3d 9f24 413c 012f cebd 7f74 66bd
000001c0: 2805 403d 6131 233d eea1 87bd 89b4 a1bd
000001d0: 8505 3c3d 7772 93bd 39f5 343d 67a5 7b3d
000001e0: 6de1 16bc 5f46 3e3d 1336 55bd 4167 c1bb
000001f0: 34d4 10bd a399 5a3d ff6d 8dbd 017b a43c
00000200: bc51 543d bd2e 5e3d 07a9 373d f624 8cbd
00000210: 592d 943c d6aa 5d3d 362b ba3b 5665 96bd
00000220: b25e 5c3d d32f c43c 84c7 263d d676 6c3b
00000230: 3089 663d 59f8 013d 82f0 363d b747 89bd
00000240: 4eae 623d 2c1a 373c 64c1 043d b7d4 5c3d
00000250: fa6a 9dbd 6e69 573c 1758 913c f8ae 3abd
00000260: a627 febb 389f 003c a45e 343d bdbb debc
00000270: 26d2 ccbc 47b7 103c 82c3 5f3d 9d92 fe3c
00000280: 8157 2f3d 711f 1dbd f5cd 9bbd e206 1b3d
00000290: caf4 8bbd 7185 223d a349 bfbc b1b9 3b3d
000002a0: 63d7 3d3d 7480 463d 3e96 473d c535 bebc
000002b0: f550 58bd 8962 d6bd 9139 41bd 70f7 eb3b
000002c0: 5089 cfbc 3a70 3a39 d6a0 4d3d 85d4 2c3d
000002d0: 7d04 093d 65f6 243d dfd6 9bbd e474 2a3d
000002e0: 834e 8fbc 9f79 413d 66ab 753b 6943 aabc
000002f0: a6c9 4b3d 13bf 1a3d 9341 3d3d 0633 6cbd
00000300: d06b 373d 176e 323d 12b4 d23c 3ee2 5c3d
00000310: 15cc e53c fcf7 553c a096 373d 1264 48bd
00000320: 2240 653d 5d50 133d ac14 96bd 023c 5dbd
00000330: f559 333d c45d d73c 7ad4 83bd ce54 da3c
00000340: 68d5 0e3d aa25 1e3d ed55 023d ca33 1abd
00000350: e071 303d f8d8 443d 4212 17bc 9b0a c3bd
00000360: 2f0e 193c 7430 88bd ff8a 4bbd b370 0d3d
00000370: 9ddb 8fbd da41 b8bd a5db 173d f408 1b3b
00000380: 4f79 23bd b7e3 97bd a3d4 5a3d 89bc 643b
00000390: 53f3 413d eeda 6a3c bc29 d53c ce75 babd
000003a0: a761 b33b 1be3 52bd 4518 3c3d edb3 a6bc
000003b0: 7aa3 cb3c b666 553d e081 153d 2e5a 943d
000003c0: 7517 9cbd f925 1c3d 4560 5f3c 7ee7 c9bc
000003d0: 22dc b33c c8db aabd c8f2 87bd cf32 b4bb
000003e0: 4232 97bc c19f 5e3d d53f 8abd ec8f 3a3d
000003f0: db9d 89bd ef11 483d 25e3 e93c 3e7b 593d
0.037671756 0.050393198 0.0263984 -0.06637184 0.0549202 -0.042374697 0.042965986 0.04430491
0.011193205 0.0723919 -0.04897801 0.049710147 0.024364207 -0.026375044 -0.081184804 -0.0070845634
-0.041781284 0.057009034 0.0051948023 0.046927966 0.038708225 0.042451367 0.032953802 0.012144254
-0.092610605 0.042365327 -0.007827502 -0.06148531 -0.042854853 -0.04605652 -0.03337787 0.031368773
-0.044046097 0.0028418628 0.040490203 -0.059921477 0.027677545 -0.07599271 -0.07595138 0.042329688
-0.054771483 0.023692466 0.005221749 -0.06871589 -0.006071954 0.05809788 -0.01697181 -0.014703229
0.057870485 0.027812919 0.033214375 0.01055875 -0.054092586 0.03296648 0.038446184 0.0071332366
-0.02370652 -0.07903004 0.044830386 -0.033884477 -0.087711364 0.049706075 0.055163417 0.04689524
-0.06763939 0.038815055 0.028243879 0.0007881689 -0.026110217 0.029428162 0.014335819 0.04098947
0.04848488 -0.09537297 0.038277246 0.06543427 -0.028186312 -0.0063897595 0.047857005 -0.09517108
0.0131744575 0.04739153 -0.014164572 0.042245362 0.046689056 0.020672208 -0.067069724 -0.009907001
0.0004810026 0.04511473 -0.104219146 0.0450655 0.028594615 0.04629939 -0.085122235 -0.027466735
-0.016917408 0.032449827 0.0472391 -0.06147492 0.022423167 -0.07589477 -0.051647183 0.032179367
-0.07000916 0.042096958 -0.06654776 -0.030344557 0.05053577 0.011788516 -0.10067559 -0.056263443
0.046879917 0.039842013 -0.066226825 -0.078957625 0.0459037 -0.07199567 0.044179175 0.061437037
-0.009209019 0.04645383 -0.052053522 -0.0059022014 -0.035358623 0.053369176 -0.06905746 0.020078184
0.05183576 0.05424379 0.04483893 -0.06842987 0.01808803 0.054118 0.0056814207 -0.07343547
0.053801246 0.023948586 0.040717617 0.0036081574 0.056283176 0.031730983 0.04466296 -0.06703132
0.05534201 0.011175673 0.032410994 0.0539138 -0.0768642 0.013147695 0.0177422 -0.04557702
-0.0077561913 0.007850461 0.04403557 -0.02718913 -0.02500255 0.008832759 0.05462981 0.03107577
0.04280806 -0.038360063 -0.076076426 0.03784836 -0.06833799 0.03967804 -0.023350542 0.045831386
0.046347987 0.048462346 0.048727266 -0.023218999 -0.05281158 -0.10468013 -0.04717404 0.0072011277
-0.02533403 0.0001778015 0.050202213 0.042194862 0.033451546 0.040274043 -0.07609343 0.04161538
-0.017493492 0.047235128 0.0037486195 -0.020784097 0.049752854 0.03777988 0.046205115 -0.057665847
0.044780552 0.04356202 0.02572063 0.0539267 0.028051415 0.013059612 0.04482138 -0.04892356
0.055969365 0.035965312 -0.073281616 -0.054012306 0.04378696 0.026289828 -0.06437011 0.026651766
0.03487149 0.038610138 0.031820226 -0.037647046 0.04307735 0.04805848 -0.009220662 -0.09523507
0.009341761 -0.06649867 -0.049693104 0.034531306 -0.0702431 -0.08996935 0.037074704 0.002365646
-0.03991061 -0.0741648 0.053425442 0.0034902415 0.047351193 0.0143344235 0.026020877 -0.09104501
0.0054742876 -0.051486116 0.045921583 -0.020349467 0.024858225 0.052099906 0.03650081 0.07243763
-0.076216616 0.03812215 0.013633792 -0.024646517 0.021955553 -0.08342701 -0.06638104 -0.005499221
-0.018456582 0.054351572 -0.06750456 0.04554741 -0.06719562 0.048845228 0.028550694 0.05309605

network_body._body_endoder.seq_layers.4.weight f4 [256, 256]
00000000: 564c 493c a0a5 593c 2562 ce3d b08a 38bd
00000010: 5489 c1bb 10f6 ec3c e052 523c 728d 55bd
00000020: 8738 ad3c c355 01bd bccb 883b 11b7 3b3d
00000030: 9e18 283d 889e f13c 08e5 c43c 49f7 f23d
00000040: cf32 c13d 61a4 ccbd 2753 01be 57da c7bd
00000050: 3aee 7d3c d12f 2fbc 3857 ae3d 0cee ec3c
00000060: a8c9 f8bc 47dc c7bc 0b14 01bc e65b 303d
00000070: 7488 59bd 3d5e 03bb 81e6 16bc 5b54 d4bd
00000080: 6b19 8bbd af52 263d e58f e9bc dd2e 7ebd
00000090: 085f 963c c730 40ba 9a7d 873d 99a3 b1bd
000000a0: 6f62 8bbd f9a3 b5bd d8a8 273e 0e83 df3c
000000b0: 0645 273c 11ee 80bd a6cd d23d cd6f 86bd
000000c0: 1282 0e3d feb0 813c b66e 5dbd e2c2 fe3c
000000d0: 8774 61bc 1791 253e f870 47bc c129 8c3d
000000e0: 7835 0b3d fb5d 933c 9b91 86bc a0cd 9ebc
000000f0: 0b56 5fbb c8a4 273b db13 b5bc 39a9 a5bd
00000100: c36d f7bc 54f9 32bd 719f 993d 4a17 833d
00000110: bf5c a43d e741 06be 6eb2 c9bd 9796 7b3c
00000120: 6391 253d d75b 59ba 46c4 21be d0ac a1bd
00000130: a594 bcbc 7032 cdbc 7250 53bd e5e5 563b
00000140: 11a7 a7bc a625 a1bd a355 903d c7e3 b6bd
00000150: 363e 453d c730 ad3b d877 bfbb b827 a53d
00000160: d050 34bd c63d c73b 2dc7 8fbd 12fc 46bc
00000170: b6b7 fa3c 6623 193d 4532 42bc ab77 f2bc
00000180: db15 dabd ced7 a9bc 73bf ee3c f105 bfbd
00000190: c9a4 87bd a895 133c 89cc 8b3d 2b5f 00be
000001a0: 4c79 55ba 76a5 b4bd 6aa0 e83d 2ef9 3dbd
000001b0: f8ee 59bd bf30 92bd 30fa afbb c243 db3d
000001c0: e6c5 95bd 0a9f fd3c 5dd3 2abd dbc3 f1bd
000001d0: df48 31bc cb14 053d 79d2 dcbc b817 c1bb
000001e0: dc23 de3d 3896 a6bd c03d 94bd adf0 ac3c
000001f0: 03a6 8e3c 480b e2bc 2c87 343c faea d33c
00000200: da8d 75bc e261 9e3c 9426 a73c 3d8e ea3c
00000210: 846b fab8 df7c 063e dd9e 54bd e0c7 8bbc
00000220: 214c 4d3c eb34 af3d f6e0 e7bd addf a7bd
00000230: be45 15be 15d6 6a3b b22a 943c 5a8b cdbc
00000240: 031c 80bd 9e49 a5bb 9002 92bd f1bd 43bc
00000250: 807d 313d 344e 4b3d 6aa7 cc3d a020 9d3d
00000260: 5694 3abd 4b31 443a d8b8 a83d d498 e8bd
00000270: 9bb3 7e3d c0d9 a6bd d1ff d5bb 909d af3c
00000280: c9ec 49bd 4504 44bd ca76 e9bc e73b c9bb
00000290: e2c1 37bd 077e 88bb af0c 43bd a3a5 223d
000002a0: 5d2a 8b3d c279 453c eaf3 a1bd 82bb ccbd
000002b0: 92a3 49bd e623 53bd ea65 14bd 0f36 523c
000002c0: c252 fa3a b587 9a3d 3508 8e3d e039 d4bd
000002d0: 430f 2d3d 2356 f73c 2d05 bb3d d444 5c39
000002e0: ccea b8bc 3d42 913c 2510 173d bc8a bfbd
000002f0: 7146 713c aa16 a2bd 9b9a 27bb 2b0f cf3d
00000300: 4772 ffbd ae49 b03d bb81 9dbd 4ba2 953c
00000310: 9995 3abd 49fe 45be 0bb1 3abc 8e85 1ebd
00000320: 7793 0abd fa82 7b3d fdb2 d73d 2bb2 ab3d
00000330: 1b53 103d d2a1 8ebd e9b0 25bd d1a9 7e3d
00000340: dd71 2b3d b7ed f93d 21d2 0fbd 7253 3abc
00000350: 7a24 0fbb 7e0c 373d 0c1b 893d e995 48ba
00000360: 8071 093d 3cbe 953b 903e b63b 52ad bebd
00000370: 2574 943d 66ca a33c 5832 63ba 8822 afbc
00000380: 6e2b 1d3e 3ce3 d13c ea77 03bd e87c 763d
00000390: f8f7 8ebc 0d43 8dbc 7e40 e4bd 8719 79bd
000003a0: e18e ffbc f6e1 31bd 9437 f3bb 3ab9 e93d
000003b0: 135a fcbc 3859 47bd 7a07 06bd c223 dabc
000003c0: b952 e5bc 9dce ffbd e7f4 2bbd 3d61 8e3d
000003d0: c6b1 a33d 01c7 01bd 3da5 b83c f585 2ebd
000003e0: d84b 343d a64d b2bd 4071 3e3d 6b86 0ebb
000003f0: 2b82 c33c 2c88 acbd d34b 89bb 520d fbbd
0.012286266 0.013284117 0.10077313 -0.045054138 -0.0059062634 0.028925925 0.012837142 -0.052136846
0.021145118 -0.03157593 0.0041746777 0.045828883 0.0410391 0.029494539 0.024034992 0.11863572
0.09433519 -0.0999229 -0.12629376 -0.09758442 0.015498692 -0.010692553 0.085127294 0.028922103
-0.030369595 -0.024397029 -0.007878314 0.04305639 -0.053108647 -0.0020045184 -0.00921023 -0.10367652
-0.067919575 0.040606197 -0.028510997 -0.06205641 0.018355861 -0.0007331487 0.066157535 -0.08673782
-0.06805884 -0.08869166 0.16373003 0.027284171 0.010209328 -0.062954076 0.102931306 -0.06564293
0.034792013 0.015831467 -0.05406066 0.031098787 -0.013760692 0.16168629 -0.01217293 0.068439014
0.03398654 0.01798915 -0.016426852 -0.019385159 -0.0034078385 0.0025580395 -0.022104194 -0.08088917
-0.030203706 -0.04369481 0.07501114 0.064009264 0.080255024 -0.13111077 -0.09848486 0.015355728
0.040421855 -0.0008291578 -0.15797529 -0.078942895 -0.023020098 -0.025048465 -0.05159039 0.0032790836
-0.020465406 -0.07868509 0.07047584 -0.08930164 0.048155032 0.0052853557 -0.005843144 0.080642164
-0.04402238 0.006080362 -0.07020412 -0.012145059 0.030605178 0.037387274 -0.0118528055 -0.029598078
-0.106487 -0.020732787 0.029144024 -0.09327305 -0.06623227 0.009007849 0.06826121 -0.12536304
-0.000814338 -0.08820622 0.113587216 -0.046380214 -0.053206414 -0.07138204 -0.005370401 0.10706283
-0.07313137 0.030959625 -0.041705478 -0.118049346 -0.0108205965 0.032490533 -0.02695583 -0.00589272
0.108466834 -0.08134121 -0.072383404 0.021110857 0.017413145 -0.02759327 0.011018556 0.025868881
-0.014987433 0.019333784 0.020404138 0.028632278 -0.00011940955 0.13133572 -0.051909316 -0.017063081
0.012530358 0.08555015 -0.11322205 -0.0819696 -0.14577386 0.003583317 0.018086765 -0.025090862
-0.06255343 -0.0050441762 -0.07129395 -0.011947141 0.043332577 0.049635127 0.09992869 0.07672238
-0.04555162 0.0007484152 0.08238381 -0.11357275 0.062183004 -0.08147001 -0.00653074 0.021437436
-0.04929808 -0.047855634 -0.028499026 -0.006141174 -0.044862635 -0.0041654143 -0.047619518 0.039708745
0.067951895 0.012052955 -0.07907851 -0.09996702 -0.04922826 -0.051547907 -0.036230005 0.012830271
0.001909815 0.07545415 0.06935159 -0.10362601 0.042250883 0.03019244 0.091318466 0.00021006475
-0.022572897 0.01773178 0.03688063 -0.09352633 0.014726267 -0.07914479 -0.002557433 0.10110315
-0.124729685 0.08607803 -0.0769076 0.018265864 -0.045552824 -0.19335283 -0.011394749 -0.038701586
-0.03383204 0.061404206 0.10532186 0.08383592 0.035235506 -0.069644585 -0.040451918 0.06217367
0.041856635 0.12203544 -0.035112504 -0.011372434 -0.002184181 0.044689648 0.06694612 -0.0007651733
0.033555508 0.004569797 0.0055616572 -0.09310402 0.07248715 0.019993972 -0.00086668646 -0.02137877
0.15348598 0.02562105 -0.03209678 0.060177714 -0.017452225 -0.017243886 -0.111451134 -0.06081536
-0.03119606 -0.043428384 -0.007422397 0.11412282 -0.03080467 -0.04866907 -0.032721974 -0.026628379
-0.027993547 -0.1249058 -0.041981604 0.069521405 0.07992892 -0.031683926 0.02253973 -0.04260822
0.044017643 -0.087062165 0.046494722 -0.00217476 0.02386578 -0.0842441 -0.004189947 -0.122584

network_body._body_endoder.seq_layers.4.bias f4 [256]
00000000: 3b51 02bd ce7c e13c 6c8a 163d 882a d03b
00000010: 8360 7ebd 27b3 e73c 9f88 69bc 3674 f63c
00000020: 5b06 1d3d 286c c33c 614b 2f3d 00a7 953a
00000030: 2f71 233c 3537 aabc 7d8d a0bb 757f 81bd
00000040: 2089 13bc 99cc 30bd 4199 113d e9ab f83c
00000050: fcb6 1f3b c309 233d ff2b a73c bbeb c43c
00000060: d670 80bc 1208 72bd ac0c 7c3c f785 cb3c
00000070: 7559 163d d4b1 443d 6c0d 55bd b6e9 6a3c
00000080: 97e2 a13c 1ff6 003d 43cd b63c f688 02bc
00000090: 3d25 ff3c 7cb5 c93c b3b0 58bd d955 4ebd
000000a0: ea9e 913c 42cb c83c 0f7a 293d 44f8 aa3c
000000b0: 3e70 f83c 87d7 38bd 15b0 cebc 400b 29bd
000000c0: e4d3 90bc 43fb 13bc 8133 55bd 1e0c 94bd
000000d0: c20b ca3c c87a ca3c aeaa 023d 705b a23b
000000e0: eb83 a0bd dd09 f03c 5aa0 f23c 3081 09bd
000000f0: 5066 e73c e7d0 9b3c 04f3 423d 57a2 b7bc
00000100: d621 e93b 3f3d 1e3d b495 c83c 33d3 683c
00000110: 6922 283d 61d2 ae3c 523c 073d 4a86 3fbd
00000120: 2e6b 253d 5501 fe3c 491b 5dbd 63ca cfbc
00000130: 9b1d b43c d208 0c3d 0e1d 003d 4f33 033d
00000140: db5a c6bc f353 373d 4e84 36bb 2927 2abd
00000150: 23f1 d03c 302f d63c cb1f a3bc ea8f e7bb
00000160: f379 2d3c 2d93 2d3c 50bd d63c af27 6abd
00000170: 7d8a de3c 6b81 fdbb 7458 68bd 7fda 713c
00000180: 0553 ac3b 2c3c 223d 1750 893b cf82 e83c
00000190: 1d72 0e3c da3d e3bc 060b d33c a546 a73c
000001a0: ce87 0bbc 5d72 20bd 0836 c33c e9d5 19bd
000001b0: 124e 76bc 810b 2e3c 8d93 cabc 5095 2f3b
000001c0: de43 19bd ac50 f43c ba60 27bd cfce 48bc
000001d0: 39d5 113c 102f ff3c cdc6 28bd 41cb 88bc
000001e0: 476b 80bd 3e53 09bb dd4f 4dbd 3b64 063d
000001f0: 7bf0 16bd 4111 1bbd 4471 5f3d 24f4 32bd
00000200: 0150 b0bc 1ad5 6fbd 1963 e2bc 9a43 ffbc
00000210: 33f7 3cbd 9b11 953b e4d5 83bd 19d2 013d
00000220: a3e6 90bd 4288 81bd bef1 5cbd 44a2 c5bb
00000230: dc39 023c 6a53 093d 634e 89bd 0c9b cb3c
00000240: ce36 15bd b4b3 24bd dc5f ebbc 4f8d 9b3c
00000250: 6114 433b 515c 16bd 59d7 5bbd 808a d83c
00000260: 5c54 4cbd 945c 4ebd 3517 163d b009 71bd
00000270: 1349 023d 2275 36bc 03f5 6fbd 1355 043d
00000280: c757 c83c b28c 81bc 22de d13c 5a8c d93c
00000290: 1536 053d f208 dbbb eed1 a53c 9807 2f3d
000002a0: 854a 78bd 9097 54bd 80f5 95bd 72c6 5bbd
000002b0: 125f d2bc ee8c 843c 3c27 1a3c a1d0 db3c
000002c0: 20e0 023d 32a2 c33c d00b c43a 41f8 14bd
000002d0: 9cee f93c 07a4 d83c 7038 ca3c dc50 003b
000002e0: 6351 40bd 84ca 5dbd e6e3 fa3c 43d9 1a3d
000002f0: 781a 143d ce67 75bd 1c3e 8dbd 0e2c ca3c
00000300: 8652 5bbd cb28 c7bc 471c 953c 1ac8 a63c
00000310: 751c aabb 26fe 3f3d a284 ba3c f50b b43b
00000320: 651f c63c c0c9 2abb c713 13bc 769e 70bd
00000330: 7e7c 0fbd 7638 5dba 5734 19bc d2cb 2fbd
00000340: ed9b e93b a522 c63c f6b1 91bc 0ec4 14bd
00000350: d309 0ebd 3c5b 22bd 8c12 1bbd 5814 9e3c
00000360: 5d59 f93c 7abb 23bd 96fb 003d 5404 a53c
00000370: e2b7 0d3d 65e9 d13c 19d3 5bbd 6ee0 bf3c
00000380: 972c c43c 570a 4ebd 98a9 5e3d 11df 1bbd
00000390: 4416 35bd b400 a33c 4967 38bc 77cc 4ebd
000003a0: 7890 30bd 6a65 843c 4467 ccbb 2ffe c13c
000003b0: b9d0 273d 3efb c53c 9c77 8fbd 65bf f13c
000003c0: f1a4 71bd 6607 1c3d cc8f 253d b560 35bd
000003d0: 05f4 60bd 8bb3 e7bc ce8d f53c 9d8c 083d
000003e0: d91f 01bd b89e f13c 16fa 823b 00d5 b4ba
000003f0: 541e ac3c 1fed 8dbc eedc e33c 6ae6 54bd
-0.03181575 0.027525332 0.036753103 0.0063527264 -0.06210376 0.028283669 -0.014253764 0.03008471
0.03833614 0.023855284 0.042796496 0.0011417568 0.009975716 -0.020778278 -0.004899679 -0.063231386
-0.009004861 -0.04316387 0.035546545 0.03035541 0.0024370542 0.03980423 0.020406721 0.024038186
-0.015678804 -0.059089728 0.015383881 0.024844153 0.036706407 0.048021153 -0.052014753 0.014337948
0.019761367 0.03148472 0.022314673 -0.007967224 0.031145686 0.024622671 -0.05290289 -0.05037484
0.017775971 0.024510983 0.04137617 0.020870335 0.030326959 -0.045127418 -0.025230447 -0.041270494
-0.017679162 -0.009032073 -0.05205107 -0.07228874 0.02466381 0.02471675 0.031901054 0.004954748
-0.07837661 0.029301578 0.029617477 -0.03357047 0.028247029 0.01902051 0.04759504 -0.022416277
0.0071146293 0.038632628 0.024485447 0.01421051 0.04104844 0.02134055 0.03301651 -0.046758927
0.040385418 0.031006495 -0.0539811 -0.02536506 0.021986773 0.0341881 0.03127771 0.032031354
-0.024213245 0.044757795 -0.0027849856 -0.041541252 0.025505608 0.026145548 -0.019912621 -0.0070667164
0.010588157 0.0105941715 0.026213318 -0.05716675 0.027165646 -0.007736375 -0.05672498 0.014761566
0.00525892 0.039608166 0.0041904557 0.028382687 0.008694199 -0.027739454 0.025762092 0.020419428
-0.008516265 -0.039171565 0.023829475 -0.037557516 -0.015033262 0.01062286 -0.02472856 0.0026791878
-0.03741824 0.029823624 -0.04086373 -0.012256338 0.008900934 0.03115037 -0.041205216 -0.016698482
-0.062704615 -0.0020954157 -0.05012499 0.03281043 -0.036850434 -0.03785825 0.054551378 -0.043689862
-0.021522524 -0.05855284 -0.027635144 -0.031160165 -0.046134185 0.004549218 -0.06437281 0.031694505
-0.070752405 -0.06324817 -0.05394148 -0.0060313065 0.007948365 0.033526815 -0.06704404 0.024854206
-0.03642922 -0.04021044 -0.028732233 0.01898828 0.0029766785 -0.036709134 -0.05367217 0.02643323
-0.04988514 -0.050381258 0.036643226 -0.05884713 0.03180797 -0.011136325 -0.05858327 0.032307696
0.024455918 -0.015814159 0.025618616 0.026556183 0.03252228 -0.006684416 0.020241704 0.04273185
-0.060617942 -0.051902354 -0.07322216 -0.05365605 -0.025680099 0.016180482 0.009408768 0.02683288
0.031952024 0.023881052 0.0014957134 -0.036369566 0.030509286 0.026445402 0.024685115 0.0019579446
-0.046952616 -0.054148212 0.030626249 0.037804853 0.036158055 -0.05991345 -0.06896612 0.02467921
-0.053545497 -0.024311444 0.01820196 0.020359088 -0.0051913806 0.046873234 0.022768322 0.0054945895
0.024184892 -0.0026060194 -0.008976883 -0.05874487 -0.035030834 -0.00084388943 -0.009350858 -0.042918988
0.0071291835 0.024186442 -0.017785054 -0.036319785 -0.034677338 -0.03963779 -0.037859485 0.01929681
0.03043812 -0.039973713 0.03148993 0.020143665 0.034599192 0.025623986 -0.053668115 0.023422446
0.023947043 -0.05030283 0.054360956 -0.03805453 -0.044210687 0.019897796 -0.011255094 -0.05048796
-0.043106526 0.01616164 -0.006237896 0.023680774 0.040970538 0.024167653 -0.070052356 0.02951021
-0.05899519 0.038092993 0.04042034 -0.04428168 -0.054920215 -0.028283855 0.029974844 0.033337224
-0.031524513 0.029494628 0.0039970977 -0.0013796389 0.021010555 -0.017324982 0.027815308 -0.051977552

action_model._continuous_distribution.mu.weight f4 [2, 256]
00000000: f1f1 343c 9cd4 18ba 0f67 72b9 2afe e93b
00000010: 21fa 0dbb 7426 a33b a99a b2bb 29af 2c3b
00000020: 306c 4b3b 7b90 1cbc d89d 7bbc b3d5 71bc
00000030: fc29 8cba 188d 3fbb 4943 0b3c 387c ab3b
00000040: 237b c83b 5c86 a63b e8a4 05bb aeaa 72bc
00000050: 1e84 fd3b d6d0 80bb 35ae 083a 8298 cc3b
00000060: 131b 393b f838 61bc e77c 723b ccd6 3f3b
00000070: a3e1 d0bb beeb 7dbb f224 2d3b 28cb 3abb
00000080: 1d7e 893c 57ba c7bb 1786 e7ba 0ea6 9ebb
00000090: d92d 593b df68 c73b c58a 0f3b a399 e53b
000000a0: 5d31 933a 8958 dfba 534f 94b9 e0f6 85bb
000000b0: 81a4 503c f61f f839 7e84 ff3b 86b8 2f3c
000000c0: 302f a63b d98d 2e3c c17f 6bba c602 b73b
000000d0: ae1e 72bc 5912 943b 1a71 ddbb 50b5 edba
000000e0: b4de d4bb ec2d 283b 13a5 1b3b b085 7b3b
000000f0: f3f1 d739 d713 6aba 275e 82bc b4ab b23b
00000100: 994f 4aba 7e0c e53a 454c 373b 9535 49bb
00000110: b1d9 373b 193a b3ba 0a3c 693b f013 633a
00000120: 100e 9dbb a735 b1bb da8a 063c 10ec 713c
00000130: 68e5 40bc 30da 9fba 1611 833b 9f5b a3bb
00000140: 39b4 efbb d637 c439 687d f3bb adfa 593c
00000150: 0667 533c ec66 dbbb 1370 16bc 7c78 5ebb
00000160: 5290 4fbc 5b40 6f3b 5f4d febb 8a5a 803a
00000170: e318 f33b c4ad c23a 85fb a639 08fb 9ebb
00000180: f207 9eb9 cca6 13bc 2bfb 4b3b 683f 32bb
00000190: 3bee f93b f4e7 763c b60e 723b fe14 903b
000001a0: 54b7 a43a dfbe 653c 2bb4 00b9 3d59 48bc
000001b0: 764b 33bb d0dc 91b9 9a33 c93c 0d23 06bc
000001c0: 5eb3 74bc 5b53 d6bb 910e 593c 0047 93ba
000001d0: e8c0 56bb 0415 c13b f718 89bb aa14 023b
000001e0: 47bb 28bb 5a1f a03c 86b3 9b3c 8b3a 27bb
000001f0: 5a69 693b cc73 0abb bc5f 6bbb 751e 263b
00000200: a62b ddbb 7575 a7bb 81be 5d3b 866f 7f3c
00000210: 7815 34b9 5304 bebb d102 00bc c75a e9bb
00000220: e6d0 afba 274a bc39 2d86 17bb 3e8b 083c
00000230: 28d4 b2bb a9bd b7bb e819 5dbb 86e3 4cbb
00000240: 4680 d63b d3f0 813c 0963 99bc 52f4 57bc
00000250: f0b0 a03a 7c88 73ba 068c 4f3c b4ff 3bbb
00000260: e24d 7aba e264 47ba 0279 d5ba 14e9 50bb
00000270: e44c a639 ae8f a33b bd13 b5ba c10d a9bb
00000280: 518a 333c a74e cc3a b4e5 593c 1cb0 ed3a
00000290: 9aaf a6b9 5a5b bfbc 6dda 79bb b32a dfb9
000002a0: c86c 213b 6fb7 febb 732e b7bb 8ef6 88bb
000002b0: 4233 9d3c b54b 5f3c 2467 7b3b 89d2 563a
000002c0: 90e2 d03a 6a65 9bbb d852 a83a 2b00 c2ba
000002d0: 3be7 50bc 8c67 42bc da50 94bc 8d3a aa3b
000002e0: 1a4f 26ba d073 c9ba 9cc4 983b 76c4 5e38
000002f0: 529b e43a 334e 89ba a54e 633b e782 2b3b
00000300: 969b 023c 2f97 21bc a236 6bba 1363 52bb
00000310: e79e 8cbb d09c 0ebb a2a7 803b b6b6 7dbc
00000320: 7408 89bc 2f42 50bb 5ff0 3b3c 7b5d 57bc
00000330: 7a7f a2ba bd94 94bc f177 d4bb c2bf 593c
00000340: 299b 9eb9 b48d 23bc 0aa4 b33b 3263 923b
00000350: 0f7b 153b 43f0 05bd 9f52 1ebc 6381 823c
00000360: b92c 8abb d8e7 523c d5fb 183b 0675 2f3b
00000370: f5f3 e5ba d6e9 413b 6bde 173b 7d82 0abc
00000380: 398a f63b 0b35 cdbb a725 2ebb 0274 d2ba
00000390: e28c 083c 6e12 5b3c a8a3 033c 0aea 903c
000003a0: ada9 98bc fc18 f3bb ec5f 3cba 7fb4 c23b
000003b0: a4c9 3b3a 245d 22bc 2d46 3dbb a3e0 18bc
000003c0: a172 c53b d2b2 293a a677 533b 77b8 1cbb
000003d0: caa8 3b3c ad73 803c 1711 813a c798 ebbb
000003e0: 194e 3b3a 3b08 be3b 3336 86bc b8b3 1cbb
000003f0: 0cb9 133b db15 2cbb ee8c 843b 2f4b 923b
0.011044011 -0.0005830021 -0.00023117311 0.0071408944 -0.002166398 0.004978949 -0.005450566 0.002634952
0.0031039827 -0.009555931 -0.015357457 -0.0147604225 -0.0010693665 -0.0029228386 0.008499929 0.005233314
0.0061181947 0.005081935 -0.0020392481 -0.014811201 0.007736697 -0.003931145 0.0005213947 0.0062437663
0.0028244897 -0.013746493 0.0037000717 0.0029272316 -0.0063745542 -0.003874525 0.0026419726 -0.0028502438
0.016783768 -0.0060952115 -0.0017663863 -0.0048415726 0.00331389 0.0060854997 0.0021902781 0.0070068403
0.0011229921 -0.0017039935 -0.0002828786 -0.0040882677 0.012734533 0.0004732606 0.0077977767 0.010725146
0.005071543 0.010653936 -0.00089835754 0.0055850474 -0.014777822 0.004518789 -0.0067578675 -0.00181357
-0.006496275 0.0025662137 0.0023749515 0.0038379245 0.00041188262 -0.0008929348 -0.015914036 0.0054525975
-0.00077175495 0.0017475036 0.0027969044 -0.0030702103 0.0028053338 -0.0013673931 0.0035588765 0.0008662334
-0.004792936 -0.005408007 0.008211816 0.014765754 -0.011773445 -0.0012195762 0.0039998395 -0.0049852873
-0.0073151854 0.00037425634 -0.007430721 0.013304395 0.012902981 -0.006695619 -0.009181994 -0.0033946326
-0.012668686 0.0036506865 -0.007760688 0.0009792608 0.007418738 0.0014852812 0.00031849384 -0.0048517026
-0.00030142028 -0.009011935 0.003112505 -0.0027198438 0.0076272762 0.01506995 0.0036935038 0.0043970337
0.0012566843 0.014022558 -0.00012274149 -0.012228307 -0.002735821 -0.00027821073 0.024560738 -0.008187068
-0.014935343 -0.0065406985 0.013248102 -0.001123637 -0.003276879 0.005892398 -0.0041838842 0.0019848743
-0.0025746392 0.0195462 0.019006502 -0.0025517072 0.0035615773 -0.002112615 -0.0035915216 0.0025347744
-0.006749588 -0.0051104375 0.0033835473 0.015590554 -0.00017174135 -0.0057988553 -0.0078131715 -0.007121417
-0.0013413697 0.00035913402 -0.0023120746 0.008333979 -0.00545742 -0.005607326 -0.0033737365 -0.0031263544
0.006546053 0.015861904 -0.018723981 -0.013180809 0.0012259763 -0.0009290052 0.0126676615 -0.0028686346
-0.00095483486 -0.000760628 -0.0016286673 -0.0031877207 0.00031719275 0.004991493 -0.0013815087 -0.0051591103
0.01095827 0.0015587405 0.013299394 0.001813415 -0.0003179282 -0.02335899 -0.0038124577 -0.00042565688
0.002463149 -0.007773332 -0.005590254 -0.0041797822 0.01918948 0.01362889 0.0038361037 0.00081948243
0.0015936662 -0.004742314 0.0012842072 -0.0014801075 -0.012750442 -0.011865508 -0.01810496 0.005194968
-0.00063441845 -0.0015369598 0.0046621095 5.3111893e-05 0.0017441309 -0.0010475576 0.0034684327 0.0026170553
0.007971665 -0.009862705 -0.00089726795 -0.003210251 -0.0042914036 -0.0021760948 0.0039262334 -0.015485456
-0.016727664 -0.003177773 0.011470883 -0.013144846 -0.001239761 -0.01813733 -0.0064840247 0.0132903475
-0.00030251712 -0.009982515 0.0054822015 0.0044673914 0.0022808944 -0.032699835 -0.009663253 0.015930837
-0.004216757 0.012872659 0.0023343463 0.0026772632 -0.0017544018 0.002958884 0.0023173343 -0.008453962
0.0075238016 -0.0062624267 -0.0026572736 -0.0016056302 0.00833437 0.013371093 0.008034624 0.017689724
-0.018635595 -0.00741875 -0.00071859243 0.005941927 0.00071635307 -0.009909902 -0.002888094 -0.009330901
0.0060256277 0.00064734847 0.003226736 -0.002391366 0.011453817 0.015680159 0.0009847012 -0.0071898433
0.00071451213 0.005799321 -0.016383266 -0.0023910832 0.0022540716 -0.0026258144 0.0040451204 0.004464529

action_model._continuous_distribution.mu.bias f4 [2]
00000000: 7aa2 68ba 7b0b eeba
-0.00088743086 -0.001816138
