Assets/Models/DefenderAgent.onnx (onnx, 566922 bytes, 17 tensors)

discrete_act_size_vector f4 [1, 2]
0	0x41000000	8.0
1	0x41000000	8.0

network_body.observation_encoder.processors.0.normalizer.running_mean f4 [8]
0	0xc354440a	-212.26578
1	0x00000000	0.0
2	0x3e214921	0.15750553
3	0xc359320a	-217.19547
4	0x00000000	0.0
5	0xbebfe101	-0.37476352
6	0x409dc06c	4.929739
7	0x00000000	0.0

network_body._body_endoder.seq_layers.0.weight f4 [256, 8]
0	0x3decae8a	0.11556728
1	0xbdc6b55b	-0.097025596
2	0xbe84d160	-0.2594099
3	0x3f2dcc74	0.67890096
4	0x3dd79a34	0.10527459
5	0xbeefd929	-0.46845368
6	0x3c047fa1	0.00808707
7	0x3e6340a7	0.22192632
8	0xbebef2cd	-0.37294617
9	0xbef5d0fa	-0.48011
10	0x3cc5b074	0.024131991
11	0xbf33d68e	-0.7024926
12	0x3c1fe95b	0.009760226
13	0x3f417668	0.755713
14	0xbeaa00c5	-0.33203712
15	0x3f022cdc	0.508497
16	0xbe3f6558	-0.18691003
17	0x3ec9cd1c	0.394143
18	0x3e3041e1	0.17212631
19	0xbee4a0eb	-0.4465402
20	0x3e823826	0.25433463
21	0xbf2e4388	-0.68071795
22	0x3e8d346e	0.27579063
23	0x3e8e7220	0.27821445
24	0x3d8cfad3	0.068837784
25	0xbee46d96	-0.44614857
26	0x3ec9a049	0.393801
27	0x3e68e7d3	0.22744684
28	0xbdb98615	-0.09058777
29	0xbb88106c	-0.0041523483
30	0x3f624a8d	0.88395005
31	0x3dcb3651	0.099224694
32	0xbdea17b7	-0.114303045
33	0xbe993e11	-0.29930165
34	0x3e210b6a	0.1572701
35	0x3d93c5c3	0.072154544
36	0x3de36487	0.111031584
37	0x3cc1a485	0.02363802
38	0x3dfd03ec	0.12354264
39	0xbe6d3d5b	-0.23167937
40	0xbeb60267	-0.35548708
41	0x3f00ada4	0.50264955
42	0xbea39901	-0.3195267
43	0xbe07bdbd	-0.13255973
44	0x3d967e2b	0.073482834
45	0x3e80af17	0.25133583
46	0x3e1a46ab	0.1506602
47	0x3eb87c59	0.3603237
48	0x3f30b621	0.69027907
49	0xbedc7c35	-0.43063512
50	0xbeeb7722	-0.4598933
51	0x3db5c0a0	0.08874631
52	0x3f129a14	0.57266355
53	0x3f2f6573	0.68514174
54	0xbf35f26e	-0.71073043
55	0xbee4a3da	-0.4465626
56	0x3e2057b8	0.15658462
57	0xbcffb01e	-0.031211909
58	0xbe8784f0	-0.2646861
59	0xbeed2364	-0.46316063
60	0x3c968ead	0.01837858
61	0xbf188c37	-0.5958895
62	0x3e77731d	0.24165006
63	0xbd9abae2	-0.07555176
64	0xbe4bad20	-0.1989026
65	0xbe8adb21	-0.27120307
66	0xbdbcf787	-0.092268996
67	0xbee114d0	-0.4396119
68	0x3e539fac	0.20666379
69	0xbe5e35c1	-0.21700193
70	0x3d87aa21	0.066242464
71	0xbef65ac2	-0.48116118
72	0x3c236cf3	0.009974706
73	0xbeb389cf	-0.35066077
74	0x39ea7bc1	0.00044724162
75	0x3e84e9f6	0.25959748
76	0x3e70f9c7	0.23532782
77	0x3ef3950b	0.47574648
78	0xbe20c15d	-0.15698762
79	0xbf01ac0b	-0.5065314
80	0x3e28cd6e	0.16484615
81	0x3e1f3db4	0.15550882
82	0x3d92271c	0.07136366
83	0x3e492804	0.19644171
84	0x3e8815dc	0.26579177
85	0x3f28f478	0.6599803
86	0x3f815e2b	1.0106863
87	0xbf2fe405	-0.68707305
88	0xbe653fec	-0.22387666
89	0x3e5fcb59	0.21854915
90	0x3dfc544d	0.123207666
91	0x3eeca31b	0.4621819
92	0xbe4a55ba	-0.19759265
93	0x3f2c3b4c	0.6727798
94	0xbdc10071	-0.09423912
95	0x3e1ca5dc	0.15297645
96	0x3f05073c	0.51964164
97	0xbf009190	-0.5022211
98	0x3e84776d	0.25872365
99	0x3e318484	0.17335707
100	0xbe4458d8	-0.19174516
101	0x3ee03835	0.43792883
102	0x3eea22a6	0.4572956
103	0xbe84fe74	-0.25975382
104	0xbea18ff8	-0.31555152
105	0xbdcfd382	-0.10147764
106	0x3ea7ae6f	0.3275027
107	0xbf1dd411	-0.6165171
108	0xbf477da9	-0.7792612
109	0x3eab764a	0.33488685
110	0x3cb87cef	0.02252051
111	0xbf02d1e4	-0.5110152
112	0x3eca50a1	0.3951464
113	0x3dbd87f7	0.09254449
114	0x3e008691	0.12551333
115	0x3f28fc82	0.66010296
116	0xbde473c3	-0.11154892
117	0x3d3451d5	0.044023354
118	0xbd8bc7fd	-0.06825254
119	0xbf7eb228	-0.99490595
120	0xbeb8f66a	-0.361255
121	0xbef1ef54	-0.47252905
122	0x3e414d89	0.18877234
123	0x3d9394e3	0.07206132
124	0x3e26ad04	0.16276938
125	0xbeeb3be1	-0.4594412
126	0xbee8c0d0	-0.45459604
127	0x3e352f62	0.17693856
128	0xbe83d69a	-0.25749665
129	0x3e8c579f	0.274106
130	0x3e97bad7	0.29634735
131	0x3c845be2	0.016157094
132	0xbee2d5fc	-0.44303882
133	0xbd9fb674	-0.07798472
134	0x3dec832e	0.11548458
135	0x3f37b55f	0.71761125
136	0xbe8f874d	-0.28032914
137	0x3dfa0c47	0.12209373
138	0x3d79e391	0.06100804
139	0xbebfc7a5	-0.37457004
140	0xbf31cf11	-0.69456583
141	0xbf004ffa	-0.50122035
142	0xbc830985	-0.01599575
143	0xbe10d2cf	-0.14142917
144	0xbf29f819	-0.6639419
145	0x3e9241bc	0.28565776
146	0xbea51c7a	-0.32248288
147	0x3e7b2dff	0.24529265
148	0x3e2eaefd	0.1705894
149	0xbee41692	-0.4454847
150	0x3e158419	0.14601173
151	0x3e5db5e8	0.21651423
152	0x3e45b9b2	0.19309118
153	0xbf155424	-0.58331513
154	0xbd6b5eb0	-0.057463348
155	0xbf306254	-0.68900037
156	0x3e93813b	0.28809533
157	0xbf0cadb3	-0.54952544
158	0x3ed195f4	0.40934718
159	0x3d9934ea	0.07480796
160	0x3cad3b0c	0.02114632
161	0x3dc33506	0.09531598
162	0xbcc0ec19	-0.02355008
163	0xbf1385a5	-0.576258
164	0x3e81303d	0.25232115
165	0x3eec451d	0.4614648
166	0xbd06a14e	-0.032868676
167	0xbe00b60b	-0.12569444
168	0xbd83a0e7	-0.06427174
169	0x3e16ed95	0.14739068
170	0x3ea41b21	0.32051948
171	0x3c421b30	0.011847302
172	0x3d9b24ec	0.07575402
173	0xbd51c301	-0.05121136
174	0xbea0f44f	-0.31436393
175	0x3eb3c12b	0.35108313
176	0x3ed980e3	0.42481145
177	0xbdf31ac7	-0.11870342
178	0x3ed72feb	0.42028746
179	0xbdf7eb4a	-0.12105425
180	0x3f0577cd	0.52135926
181	0x3edb7e6f	0.428699
182	0xbe2f4134	-0.17114717
183	0xbe1b3356	-0.15156302
184	0x3f1e2b18	0.61784506
185	0x3e47c006	0.19506845
186	0x3da39f5b	0.07989379
187	0xbf35dd6e	-0.71041
188	0x3f537a2d	0.826083
189	0xbec5aaec	-0.38606966
190	0x3ec0053a	0.37503988
191	0x3e777c79	0.24168576
192	0x3ce6cafa	0.028172959
193	0xbf24bb85	-0.6434863
194	0xbba70ff6	-0.0050983382
195	0xbe6f05fc	-0.23342127
196	0xbe0282e7	-0.12745248
197	0xbcf42741	-0.029803874
198	0xbe2d8204	-0.16944128
199	0xbf0f58bd	-0.5599478
200	0xbee181ff	-0.44044492
201	0xbdbcb353	-0.09213891
202	0x3f02d214	0.51101804
203	0x3f23fdd7	0.64059204
204	0xbe1c63e7	-0.15272485
205	0xbebb8c9a	-0.36630708
206	0xbeedd3a0	-0.4645052
207	0x3e96554b	0.29361948
208	0x3d48ea56	0.049051605
209	0xbe57b4b1	-0.21065022
210	0x3e3a5ade	0.18198726
211	0x3b3da8d1	0.0028939734
212	0x3e318e4a	0.17339435
213	0x3f552737	0.8326296
214	0x3e43e74a	0.19131199
215	0xbce102b4	-0.02746711
216	0x3f207063	0.6267149
217	0x3edd65ab	0.4324163
218	0x3b5aec05	0.0033404839
219	0xbe3a06f2	-0.18166712
220	0x3df31e3d	0.11871002
221	0x3ebaf82b	0.36517462
222	0xbe82602c	-0.25463998
223	0x3d8cf9d4	0.068835884
224	0xbd4072c0	-0.046984434
225	0xbcbbaeaf	-0.022910444
226	0x3f1d0354	0.61333203
227	0x3e70624a	0.23474994
228	0x3da7531a	0.08170147
229	0xbd1cd81f	-0.038292047
230	0xbeadd247	-0.3394949
231	0x3e71ed2c	0.2362563
232	0xbe5c077b	-0.21487229
233	0xbe5c3156	-0.21503195
234	0x3e825ae5	0.25459972
235	0xbed7fb0b	-0.42183718
236	0x3e6189f0	0.22025275
237	0xbe921c7d	-0.2853736
238	0xbdf2c7ba	-0.11854501
239	0xbd36f402	-0.044666298
240	0xbebd5d03	-0.36985025
241	0x3eec36ad	0.46135464
242	0xbec28788	-0.37994027
243	0xbed47bfb	-0.4150084
244	0xbec9a5b3	-0.3938423
245	0x3d8e602b	0.06951936
246	0x3d23dadb	0.04000364
247	0x3d2ce592	0.042211123
248	0xbebcd10d	-0.36878243
249	0x3e252cad	0.16130324
250	0x3f3637a0	0.71178627
251	0x3e7b9534	0.24568635
252	0x3f3076f0	0.68931484
253	0xbebda518	-0.3704002
254	0x3eabe8f1	0.33576158
255	0xbf01c226	-0.5068687

network_body._body_endoder.seq_layers.0.bias f4 [256]
0	0x3d836acf	0.064168565
1	0x3d40d79e	0.04708063
2	0x3dab5179	0.08365149
3	0x3d9df22b	0.077122055
4	0xbba4b266	-0.0050261496
5	0xbb878eb8	-0.0041368864
6	0x3bd0140d	0.0063500465
7	0x3c5d4ec7	0.0135075515
8	0x3decd542	0.11564113
9	0xbcb43363	-0.02199716
10	0x3da43640	0.0801816
11	0x3c918bdc	0.017766885
12	0x3db0f0cd	0.08639679
13	0x3d913186	0.07089524
14	0x3d0c0606	0.034185432
15	0x3d4e8399	0.05041847
16	0x3d94327d	0.072361924
17	0x3d9c6b83	0.07637694
18	0xbcda1893	-0.026623046
19	0x3dbf174d	0.09330616
20	0x3cedcf46	0.0290295
21	0x3bc67a2a	0.0060570436
22	0x3d8c6090	0.06854355
23	0x3da0b308	0.078466475
24	0x3d4a1d22	0.04934419
25	0x3c68fa47	0.014219827
26	0x3d1a8115	0.03772076
27	0x3d36fd7f	0.044675346
28	0xbc788916	-0.015169403
29	0x3d5fd765	0.054648776
30	0x3cd072c9	0.025445359
31	0x3da7a5c1	0.08185912
32	0x3d8e7c25	0.069572724
33	0x3d7fe9b5	0.06247874
34	0x3c9ef337	0.019403083
35	0xbd8eee1e	-0.06979011
36	0x3d6ac496	0.057316385
37	0x3d04694a	0.032326974
38	0x3d01935b	0.03163467
39	0xba7a5345	-0.00095491513
40	0x3dd7e13d	0.10541008
41	0x3d1bbbb6	0.038020812
42	0x3c9187e7	0.017764999
43	0x3d507f75	0.050902802
44	0x3d1df7d3	0.03856642
45	0x3cee4c74	0.02908919
46	0x3c9c381e	0.019069728
47	0x3dfc66b0	0.123242736
48	0x3d4f8268	0.050661474
49	0x3da86280	0.082219124
50	0x3c83cf9c	0.016090207
51	0x3b50c828	0.0031857584
52	0x3dd09788	0.10185152
53	0x3dbc7f32	0.09203948
54	0x3d192487	0.03738835
55	0x3d964d67	0.07338982
56	0x3cb93055	0.022606054
57	0x3c8f53b8	0.017495975
58	0x3c2e5cb2	0.0106422175
59	0x3dd9be56	0.10632007
60	0xbcea482c	-0.028598867
61	0xbd067d6b	-0.03283445
62	0x3aca3b83	0.0015429113
63	0x3b69b0d7	0.0035658383
64	0x3d87054f	0.065928094
65	0x3c23332c	0.009960931
66	0xbbb9ce0f	-0.005670316
67	0x3e024faf	0.1272571
68	0x3d8c8659	0.06861562
69	0xbb80f02a	-0.00393488
70	0x3cd6237a	0.026139963
71	0x3db60699	0.08887977
72	0xbb819c53	-0.003955403
73	0xbbd80754	-0.0065926705
74	0x3d2fe466	0.042942427
75	0x3d05a0b9	0.03262398
76	0x3d1c55cc	0.03816776
77	0x3dcd066d	0.10010991
78	0x3dad2313	0.084539555
79	0xbc4a20e6	-0.012336945
80	0x3caecc86	0.021337759
81	0x3dad0497	0.08448141
82	0x3ca45a56	0.020062607
83	0x3d7a2701	0.061072353
84	0x3d4271ac	0.047471687
85	0xbbf35c22	-0.0074267546
86	0xbc655bd4	-0.013998944
87	0x3c260c10	0.010134712
88	0x3d26b9c3	0.0407045
89	0xbd97832e	-0.073980674
90	0x3d92f317	0.07175272
91	0x3d8418d0	0.06450045
92	0x3d08f4d7	0.033436622
93	0x3c97fd8d	0.01855352
94	0xbd114830	-0.035469234
95	0x3ca789e5	0.020451495
96	0x3d8560af	0.065125816
97	0x3daffa31	0.08592642
98	0x3d8f659b	0.070018016
99	0x3d31b9a9	0.04338995
100	0xbdbb0178	-0.091311395
101	0xbc653291	-0.013989107
102	0xbafc450b	-0.0019246651
103	0x3ce85347	0.028360022
104	0x3de91195	0.11380307
105	0x3d315cb8	0.043301314
106	0x3da074f1	0.07834805
107	0x3d5f80ab	0.054566067
108	0x3ce258a3	0.027630156
109	0x3cb67a4b	0.02227511
110	0x3db54cbc	0.088525265
111	0xbcb8e720	-0.022571146
112	0x3dc4a8ce	0.096025094
113	0x3c35821a	0.011078382
114	0xbc16f0ec	-0.009212714
115	0x3bd21669	0.006411363
116	0x3da82631	0.082104094
117	0x3dbc0ad5	0.091817535
118	0x3d23750b	0.039906543
119	0x3d487915	0.048943598
120	0x3d53e078	0.051727742
121	0x3d94bb35	0.072622694
122	0x3e192c42	0.1495829
123	0xbca0fb17	-0.019650979
124	0x3d07344a	0.03300885
125	0x3dd751e6	0.10513668
126	0x3db5f317	0.08884256
127	0x3d3306d5	0.043707687
128	0x3beee1a7	0.0072900834
129	0x3ddd27c8	0.10798603
130	0x3dd9e115	0.10638634
131	0xbcdc22be	-0.026872035
132	0x3d164a2c	0.03669183
133	0xbd80f907	-0.06297498
134	0xbd8461a7	-0.06463938
135	0x3d821698	0.06351966
136	0x3d48922e	0.048967533
137	0x3d949661	0.07255245
138	0x3d959216	0.07303254
139	0x3dc288ba	0.09498735
140	0x3df25dd3	0.11834302
141	0x3d805a39	0.062672086
142	0xbd32f66a	-0.04369203
143	0xbd527353	-0.051379513
144	0x3c3818a8	0.011236347
145	0x3c96774f	0.018367438
146	0xbd03c9ed	-0.032174993
147	0x3c2e86fb	0.010652299
148	0xbaeb0afd	-0.0017932352
149	0x3b2f9ae7	0.002679521
150	0xbcdd63f7	-0.027025206
151	0x3d9d01b4	0.076663405
152	0x3c6dd708	0.0145165995
153	0x3d642b82	0.055705555
154	0x3b1d2bbf	0.0023982374
155	0xbc25c1a8	-0.010116972
156	0x3d30aacb	0.04313163
157	0x3d11a3ac	0.03555648
158	0x3b9c44c1	0.0047689383
159	0x3de99a58	0.11406392
160	0x3901ae70	0.00012367382
161	0x3d35a58a	0.044347323
162	0x3db4461c	0.08802435
163	0x3dabe207	0.08392721
164	0x3c6a5069	0.014301398
165	0x3ccb1725	0.02479131
166	0x3d21bb88	0.039485484
167	0x3cef4651	0.029208334
168	0x3d24b38b	0.040210288
169	0x3daee3de	0.08539556
170	0x3d22b2ae	0.039721183
171	0x3db1d3b6	0.08682959
172	0xbca2561b	-0.019816449
173	0x3db95180	0.09048748
174	0x3d6d3568	0.05791226
175	0x3c89f7df	0.016841827
176	0x3c06d335	0.008229067
177	0x3b80b134	0.0039273743
178	0x3dd08e26	0.10183363
179	0x3cce5b7c	0.025190108
180	0xbbf2bd74	-0.0074078385
181	0x3c36ed76	0.011165014
182	0x3d47b7aa	0.04875914
183	0x3cdff4d7	0.027338428
184	0x3daf32b0	0.0855459
185	0x3d4746c3	0.048651468
186	0xbd02c057	-0.03192171
187	0xbd66d2f7	-0.056353536
188	0x3d811dc0	0.063045025
189	0x3d977868	0.073960125
190	0x3da217ea	0.079147175
191	0x3d6a590f	0.05721384
192	0xbd26a6aa	-0.040686287
193	0x3ccefa56	0.025265854
194	0x3da733af	0.08164155
195	0x3caafd3d	0.020872707
196	0xbbc01090	-0.0058613494
197	0x3dc9638a	0.09833439
198	0x3dac77c9	0.08421285
199	0x3b9e62db	0.004833562
200	0x3daeb033	0.08529701
201	0x3d732106	0.059357665
202	0x3d98a9e7	0.07454281
203	0x3df28636	0.11842005
204	0x3d58f8cd	0.05297165
205	0xbb81f1f3	-0.00396561
206	0x3df417d1	0.11918605
207	0x3dcce1f3	0.10004034
208	0xbd349778	-0.044089764
209	0x3de5aecb	0.1121498
210	0x3ddd184a	0.107956484
211	0x3de0355f	0.1094768
212	0xbc609679	-0.0137077505
213	0x3d53636b	0.051608484
214	0x3ce96ad8	0.02849333
215	0x3cffd0e7	0.031227542
216	0x3dac457f	0.08411693
217	0x3d4ce213	0.05002029
218	0xbcb3625c	-0.021897487
219	0x3d68f368	0.056872755
220	0x3d5005bc	0.05078672
221	0x3c4c2052	0.012458878
222	0xbb906014	-0.0044059847
223	0x3dc22094	0.0947887
224	0xbc2fe664	-0.010736082
225	0x3dc0ebd7	0.09419983
226	0xbc7f3f7e	-0.015579103
227	0xbce488c6	-0.02789725
228	0x3d51d7e6	0.051231287
229	0x3ddbbd68	0.10729486
230	0x3cd15ef9	0.025557982
231	0x3d882d87	0.06649309
232	0x3d8034e2	0.062600866
233	0xbba2d625	-0.0049693757
234	0x3c12fea3	0.008971843
235	0x3c15d16c	0.009144168
236	0x3cfe59ae	0.031048622
237	0x3d9fcc76	0.0780267
238	0x3db5cd93	0.08877101
239	0x3cc2049c	0.023683839
240	0xbd1a1fd0	-0.037627995
241	0x3d824d46	0.06362395
242	0x3de9800d	0.11401377
243	0x3d0fa468	0.0350689
244	0xbcfaf63a	-0.030634988
245	0xbc841dc6	-0.016127478
246	0x3d864735	0.065565504
247	0x3cba330f	0.022729425
248	0xbbfa13b7	-0.0076317447
249	0xbcc76ea4	-0.02434475
250	0x3da18c3a	0.07888074
251	0xbcc22450	-0.023698956
252	0x3c31dc9a	0.010855818
253	0x3d169c4a	0.036770143
254	0x3db28dd4	0.08718458
255	0x3dd09f30	0.101866126

network_body._body_endoder.seq_layers.2.weight f4 [256, 256]
0	0xbd2b47af	-0.04181641
1	0x3cdafa44	0.026730664
2	0xbdbeca7c	-0.093159646
3	0xbd8ee70f	-0.06977665
4	0xbd6518a1	-0.05593169
5	0x3c223e6c	0.009902578
6	0xbdb4461a	-0.08802433
7	0xbc47b1e8	-0.012188412
8	0x3c3143c2	0.010819377
9	0xbe03ee23	-0.1288381
10	0x3cdbca56	0.02682988
11	0xbdfd8e83	-0.123806976
12	0xbb0a5d16	-0.0021112612
13	0x3b2d49dc	0.0026441729
14	0xbc28e86c	-0.01030932
15	0x3d5af4ef	0.053456243
16	0xb9dca37b	-0.00042083472
17	0xbe124ad8	-0.14286363
18	0x3c811da0	0.015761197
19	0x3e0d0050	0.1376965
20	0xbc0e8673	-0.008699047
21	0xbdbbe109	-0.091737814
22	0x3cc57607	0.024104131
23	0xbd931583	-0.071818374
24	0x3d2f6f84	0.04283096
25	0xbbf983b1	-0.007614576
26	0xbd2bb44d	-0.041919995
27	0xbd39b54c	-0.045338914
28	0x3b096248	0.0020963121
29	0x3c14c4f9	0.009080165
30	0xbc6d0c00	-0.014468193
31	0x3db6a27a	0.08917709
32	0x3c8b89fe	0.017033573
33	0x3d29ac1d	0.041423906
34	0x3c27e233	0.010246801
35	0x3e145d1c	0.14488643
36	0x3d55d812	0.052208014
37	0x3d843b14	0.06456581
38	0x3d88418f	0.06653129
39	0xbc1436c6	-0.009046262
40	0xbc04873d	-0.008088884
41	0xbdb8ea81	-0.09029103
42	0x3d96c3a0	0.07361531
43	0xbc21bb5e	-0.009871332
44	0xbdcaae42	-0.09896518
45	0xbcf4b446	-0.029871117
46	0x3d736994	0.05942686
47	0x3d128920	0.035775304
48	0xbcbe472a	-0.023227293
49	0x3d57bf47	0.05267265
50	0x3ca9ef28	0.020743921
51	0xbd47375b	-0.048636775
52	0xbcd3b09b	-0.025841048
53	0xbc15c032	-0.009140061
54	0xbc1646a1	-0.009172113
55	0xbc76ba9f	-0.015059142
56	0xbd27f640	-0.041006327
57	0x3c1d42cc	0.009598445
58	0xbde2ab4d	-0.11067829
59	0xbcfd6a99	-0.030934619
60	0x3cc3b63e	0.02389061
61	0xbd22c1af	-0.039735492
62	0xbd69f258	-0.057115883
63	0x3d81084c	0.06300411
64	0x3c523464	0.012829874
65	0x3caefa62	0.021359626
66	0xbdb6d5ad	-0.08927474
67	0xbdaafe8e	-0.08349334
68	0xbdb77eea	-0.08959754
69	0x3a81fe78	0.0009917757
70	0x3d9c53e8	0.07633191
71	0x3e26c3f7	0.16285692
72	0x3cf5bdc6	0.029997718
73	0xbd5dd933	-0.054162215
74	0x3dcfa7ba	0.10139413
75	0x3b5af4d8	0.0033410098
76	0xbd0919f3	-0.033472013
77	0x3dd7a034	0.10528603
78	0xbdc8fb97	-0.09813612
79	0xbdb54171	-0.088503726
80	0x3d366d2d	0.044537712
81	0x3ceeaeb9	0.029136049
82	0x3d9ae6f7	0.07563584
83	0x3e1b1336	0.15144047
84	0xbd2f5941	-0.04280973
85	0xbd4c0617	-0.049810495
86	0x3cde0b32	0.027104948
87	0xbdad929b	-0.084752284
88	0xbcd6ba9a	-0.026212025
89	0x3cd51c3f	0.026014445
90	0x3cbf2dd7	0.023337288
91	0xbd697be0	-0.057002902
92	0x3dcd2cb0	0.10018289
93	0x3da00bef	0.07814776
94	0x3b93da12	0.00451208
95	0x3c672d44	0.014109913
96	0x3dfb919a	0.12283631
97	0x3e2a2b91	0.16618182
98	0xbd033c78	-0.03204009
99	0x3cd2f8f2	0.025753472
100	0xbd571407	-0.052509334
101	0xbd2c2a6c	-0.042032644
102	0xbd20c51c	-0.03925048
103	0xbd6296aa	-0.055319466
104	0x3d47f5be	0.048818342
105	0x3d31b51a	0.043385603
106	0x3ddd1a58	0.1079604
107	0xbce5abc8	-0.028036013
108	0xbcc16cca	-0.023611445
109	0xbcec029f	-0.028809844
110	0x3d013eff	0.03155422
111	0xbcb847fc	-0.022495262
112	0xbd002de5	-0.03129377
113	0x3d70c0cf	0.058777627
114	0x3d1fff5e	0.039061897
115	0x3c6fdbd0	0.01463981
116	0x3b652c6d	0.0034969107
117	0x3dd01625	0.10160474
118	0x3d497d97	0.049192037
119	0xbdbadaa0	-0.09123731
120	0x3bff8cb8	0.0077987574
121	0xbc25a97a	-0.010111207
122	0x3ce7deed	0.028304541
123	0xbd7f2b55	-0.062297184
124	0x3dcd2f5b	0.10018798
125	0xbdd15bb9	-0.10222573
126	0xbd17c477	-0.037052598
127	0xbd51a44b	-0.051182073
128	0xbd2a4ad0	-0.041575253
129	0xbd40d561	-0.047078494
130	0xbcb8a595	-0.022539893
131	0xbcca9212	-0.024727855
132	0x3d1fe826	0.039039753
133	0x3da4ae2b	0.080410324
134	0xbd1492a3	-0.036272656
135	0xbd397a6a	-0.04528276
136	0xbc87a150	-0.016556412
137	0x3dd19818	0.10234088
138	0xbd8a8e6c	-0.06765446
139	0xbdd1e4aa	-0.10248692
140	0x3d2ef2b3	0.042711925
141	0xbd47852c	-0.048710987
142	0x3c3558a7	0.0110685
143	0xbd5f7eef	-0.054564413
144	0x3da2fbfb	0.07958218
145	0x3da2578f	0.07926857
146	0xbd2c41d3	-0.042054962
147	0x3c92b893	0.017910277
148	0xbd198956	-0.03748449
149	0xbd7599f5	-0.059961278
150	0xbdcab911	-0.0989858
151	0x3c835d20	0.016035616
152	0xbd0e96e4	-0.03481187
153	0xbdcf10ff	-0.101106636
154	0xbda97033	-0.082733534
155	0xbd864b45	-0.06557325
156	0xbde5de87	-0.11224084
157	0x3d0b1a90	0.03396088
158	0xbc91002f	-0.017700283
159	0x3d914e32	0.07094993
160	0xbd69fcf8	-0.057126015
161	0xba238444	-0.00062376657
162	0xbda44339	-0.08020634
163	0x3daf2b5d	0.08553193
164	0x3dac7e4c	0.08422527
165	0x3e01f85d	0.126924
166	0xbcf45158	-0.029823944
167	0xbda42af1	-0.08016003
168	0xbba10a7e	-0.004914581
169	0xbda9f8e0	-0.08299422
170	0xbd202bfc	-0.039104447
171	0xbcf30b2a	-0.02966841
172	0xbd3677f1	-0.04454798
173	0xbd05f73e	-0.03270649
174	0x3d549c8c	0.051907107
175	0xbcc93ae9	-0.024564223
176	0xbd87f0b1	-0.06637705
177	0xbd8a0c97	-0.067406826
178	0x3d72958a	0.059224643
179	0x3da18830	0.07887304
180	0xbc08b59a	-0.008344078
181	0xbdf2a2ce	-0.11847459
182	0xbcc67a32	-0.02422819
183	0x3d1245b6	0.035711013
184	0xbd589710	-0.05287844
185	0x3db2a16d	0.08722196
186	0xbdc85014	-0.09780899
187	0xbda8d907	-0.0824452
188	0xbd31d2cc	-0.043413922
189	0xbaea282e	-0.0017864758
190	0x3c79783c	0.01522642
191	0x3dd2d638	0.10294765
192	0x3a1890b9	0.0005819905
193	0x3d01f8f2	0.031731553
194	0xbceb7df7	-0.028746588
195	0x3d5feefa	0.054671265
196	0xbdab2bfb	-0.08357998
197	0xbcfc6949	-0.030811923
198	0xbdea4a22	-0.11439921
199	0x3de94113	0.11389365
200	0xbd274bcd	-0.040843774
201	0xbb693ac1	-0.0035587999
202	0xbe0d7ec2	-0.13817886
203	0xbbde34ea	-0.00678121
204	0xbdd1c997	-0.10243528
205	0xbe0c4be3	-0.13700823
206	0x3cfc7567	0.0308177
207	0xbd5a1d47	-0.053250577
208	0x3df7cc7f	0.120995514
209	0x3c5b01a4	0.01336709
210	0xbdf6fcd3	-0.12059941
211	0xbb26c033	-0.002544415
212	0x3bb03e1d	0.005378498
213	0x3c9ead38	0.019369707
214	0x3bef7c3e	0.007308512
215	0xbd5bb4f6	-0.053639375
216	0xbd2e1ca0	-0.042507768
217	0x3d13805f	0.036011096
218	0x3dda4a0d	0.10658655
219	0xbd9afc66	-0.075676724
220	0xbcd94f09	-0.026526945
221	0x3de3fd92	0.11132349
222	0xbd83fc99	-0.064446636
223	0x3cb7e283	0.022446876
224	0x3cea3fe9	0.028594928
225	0x3d817f7e	0.06323145
226	0xbd920245	-0.07129339
227	0xbe012088	-0.12610066
228	0xbbcaa1a0	-0.006183818
229	0xbd95934c	-0.07303485
230	0x3baa0751	0.0051888605
231	0x3d0c6de8	0.034284502
232	0x3d315b10	0.043299735
233	0x3d9769ec	0.0739325
234	0x3c8aa4be	0.016924258
235	0x3be43f42	0.0069655487
236	0xbc4eb47a	-0.012616271
237	0xbca57906	-0.02019931
238	0x3e08cc31	0.13359143
239	0x3d85d2c5	0.06534342
240	0xbdc80d85	-0.09768204
241	0x38d92ef1	0.0001035611
242	0xbd33af8d	-0.04386859
243	0x3c9c9336	0.019113164
244	0xba9a6828	-0.0011780309
245	0xbd2e387d	-0.04253434
246	0xbcd1439d	-0.025544936
247	0xbd8b90d8	-0.06814736
248	0x3d2839d7	0.041070785
249	0xbd270875	-0.04077955
250	0xbd190cbd	-0.037365664
251	0xbd4f99d9	-0.05068383
252	0x3b93df43	0.004512699
253	0xbc88ef28	-0.016715601
254	0x3e4907e1	0.19631912
255	0xbd8d49da	-0.06898852

network_body._body_endoder.seq_layers.2.bias f4 [256]
0	0x3cd0b35c	0.02547615
1	0xbbb37395	-0.005476425
2	0xbcf76ee5	-0.030204246
3	0x3d107ab4	0.03527327
4	0x3bdd6ca0	0.006757334
5	0xbd9e8d39	-0.0774178
6	0x3dbcd8db	0.092210494
7	0x3c731e4e	0.014838768
8	0xbd7fd16e	-0.062455587
9	0xbd7cf06d	-0.061752725
10	0x3d0c353d	0.03423046
11	0xbd3ee03b	-0.04660056
12	0x3d03df1e	0.032195203
13	0x3c8a74e1	0.016901435
14	0x3c1de3b7	0.009636811
15	0xbc545538	-0.012959771
16	0x3cc0dea7	0.023543669
17	0x3baa9d1c	0.005206717
18	0x3d121025	0.035659928
19	0x3cc7a663	0.024371332
20	0xbd776444	-0.060398355
21	0xbd8d828d	-0.06909666
22	0x3bb6f3ee	0.005583278
23	0xbd1aa574	-0.037755445
24	0x3caaf4f7	0.020868761
25	0xbd8bd25a	-0.06827231
26	0xbc2cc5de	-0.010545222
27	0x3d47032b	0.048587006
28	0x3d5f70ec	0.05455105
29	0x3d0001ef	0.031251844
30	0x3d265bc3	0.040614855
31	0xbc898ab6	-0.016789775
32	0x3c9640ae	0.018341389
33	0x3cb0f8e2	0.021603052
34	0xbd8ddad0	-0.06926501
35	0x3d2680db	0.04065023
36	0x3c123eae	0.008926077
37	0x3d636963	0.055520426
38	0xbca411e6	-0.020028066
39	0x3b4516de	0.0030073444
40	0xbbf30af0	-0.0074170753
41	0xba4f25ec	-0.0007902074
42	0xbdb351f8	-0.08755869
43	0xbba94131	-0.005165242
44	0xbda2d209	-0.07950217
45	0xbd13e924	-0.036111012
46	0xbd6444c7	-0.055729654
47	0x3ca14134	0.019684412
48	0xbb872ff7	-0.004125591
49	0x3cc50ad2	0.024053011
50	0xbbbc2993	-0.0057422607
51	0x3d0b0537	0.03394052
52	0xbd53f1fd	-0.05174445
53	0xbcf67afe	-0.030087944
54	0xbc93651f	-0.017992554
55	0x3d5e5ffc	0.054290757
56	0x3cb2bd94	0.021818914
57	0x3c51773d	0.012784776
58	0x3d5ebc25	0.054378647
59	0x3c3cb3d3	0.011517483
60	0x3d2e3105	0.042527217
61	0x3d8e9470	0.06961906
62	0x3d91d87b	0.071213685
63	0xbcfaaa07	-0.030598653
64	0x3d9a9603	0.07548144
65	0x3cea7936	0.028622251
66	0xbd153b47	-0.036433484
67	0xbda898c0	-0.0823226
68	0xbdac418a	-0.08410938
69	0x3d84610e	0.06463824
70	0x3caac48e	0.020845678
71	0x3cb9d6dd	0.022685463
72	0x3ce18a47	0.027531756
73	0xbd888149	-0.06665284
74	0x3cd65848	0.026165143
75	0x3d39979c	0.0453106
76	0x3d509a1f	0.05092823
77	0x3cb6e23c	0.022324674
78	0xbda02bc0	-0.07820845
79	0x3da4f60f	0.080547445
80	0x3d3da5d8	0.04630074
81	0xbd6981d5	-0.057008583
82	0xbd6de986	-0.058084033
83	0xbd8a3402	-0.06748201
84	0x3d58bbd3	0.052913498
85	0xbd76102b	-0.060074013
86	0x3cca7594	0.024714269
87	0xbbc07aad	-0.005873999
88	0x3cadf3e8	0.021234468
89	0x3c0fc4e8	0.008774973
90	0x3d0e427a	0.034731366
91	0x3d2e1442	0.042499788
92	0xbcad1344	-0.02112735
93	0x3d4fea76	0.05076071
94	0xbd21ea58	-0.03953013
95	0x3d4d2f75	0.050094087
96	0xbd490e77	-0.04908606
97	0x3d4f1c3e	0.050564043
98	0x3ce753be	0.028238174
99	0xba8decad	-0.0010827981
100	0x3d64133c	0.055682406
101	0x3d26bc5d	0.04070698
102	0x3ca2d92e	0.01987895
103	0xbc30beda	-0.01078769
104	0x3d33097e	0.043710224
105	0x3d00c6fd	0.03143977
106	0x3d1e8c39	0.038707945
107	0x3d3fa200	0.046785355
108	0xbd7442e7	-0.059634116
109	0x3c26ec55	0.010188182
110	0x3cd8767a	0.026423682
111	0x3d0c355a	0.034230568
112	0x3d6e98fc	0.058251366
113	0x3ccf8038	0.025329694
114	0x3d3157c9	0.04329661
115	0x3c0eedf4	0.008723725
116	0xbd8c2129	-0.06842262
117	0xbc619968	-0.013769485
118	0x3d2e27a2	0.042518266
119	0x3d173fc7	0.036926057
120	0x3d0c71e5	0.034288306
121	0xbd2b0976	-0.04175707
122	0xbd39a4ce	-0.045323186
123	0x3d0fd017	0.03511056
124	0xbcce26c1	-0.025164964
125	0x3d54b994	0.051934794
126	0x3d5e9ff1	0.05435175
127	0x3d6adafd	0.05733775
128	0xbb7bff94	-0.0038451897
129	0xbd843203	-0.064548515
130	0x3c1f17cf	0.009710266
131	0xbd40ed29	-0.047101174
132	0xbda7d22f	-0.08194386
133	0xbd9c303c	-0.076263875
134	0x3c9ea02d	0.019363487
135	0xbcbdaa52	-0.023152504
136	0xbd24a407	-0.04019549
137	0x3d282350	0.0410493
138	0x3cecfcbc	0.028929107
139	0xbbb0e2fb	-0.005398152
140	0xbc74290c	-0.014902364
141	0x3d66f7d0	0.056388676
142	0xbd3f75dc	-0.04674326
143	0x3d82e0df	0.06390547
144	0x3cb114c0	0.02161634
145	0xbda840ff	-0.08215522
146	0xbd9da734	-0.07697907
147	0x39f6f924	0.000471064
148	0x3c303ab0	0.01075618
149	0x3bf2a58f	0.00740499
150	0x3c837a99	0.01604967
151	0x3d38a058	0.04507479
152	0x3c719fa8	0.014747538
153	0x3cd2a7e7	0.025714828
154	0x3d328ba6	0.04359021
155	0x3c3223eb	0.010872821
156	0xbd79d387	-0.060992744
157	0xbda6dfb9	-0.081481405
158	0x3d50bc55	0.050960857
159	0xbbc2f386	-0.0059494404
160	0x3b9f3f6d	0.004859856
161	0x3cbfba5f	0.023404298
162	0x3d614ecb	0.055006783
163	0xbd89c24e	-0.06726514
164	0x3bc521c7	0.0060159895
165	0x3d86a624	0.065746576
166	0xbcd269e9	-0.025685268
167	0xbd2456d7	-0.04012188
168	0xb9fed27c	-0.00048603478
169	0x3caf54a4	0.021402664
170	0x3d6d1715	0.05788334
171	0x3cf0c409	0.029390352
172	0x3d6ced01	0.057843212
173	0x3d2c8d4d	0.042126942
174	0xbdc87e73	-0.09789743
175	0xbd93a559	-0.07209272
176	0x3cdf1527	0.027231766
177	0x3c8fa97b	0.01753687
178	0x3d4cc35a	0.04999099
179	0x3cba1590	0.02271536
180	0x3d1391b8	0.03602764
181	0xbc750125	-0.014953886
182	0xbd719d20	-0.058987737
183	0x3c85048c	0.01623752
184	0xbc159805	-0.009130483
185	0x3ccce70e	0.02501252
186	0xbd55ff97	-0.052245703
187	0x3d8e73d7	0.069556884
188	0xbd8a3e92	-0.067502156
189	0xbc639a7c	-0.013891812
190	0xbdc6c796	-0.09706037
191	0xbb6495ed	-0.0034879402
192	0xbc7d51e3	-0.015461418
193	0x3a9a590e	0.0011775808
194	0x3bb710a1	0.005586699
195	0xbd2143fc	-0.039371476
196	0x3d10c3bf	0.035342928
197	0xbd94e701	-0.07270623
198	0xbd9ebe1e	-0.07751106
199	0x39a84abd	0.0003209914
200	0xbd208ea5	-0.039198536
201	0xbc966ba1	-0.018361868
202	0xbded4177	-0.11584752
203	0xbd1eac15	-0.03873833
204	0x3d2cf0ae	0.042221718
205	0x3d6b2033	0.057403754
206	0x3ce0e202	0.027451519
207	0x3d28149a	0.041035272
208	0xbc0ce9b0	-0.008600637
209	0xbda10040	-0.07861376
210	0x3d44f86f	0.048088487
211	0xbcfdbaa2	-0.030972783
212	0x3d51ef90	0.051253855
213	0xbcc72eaa	-0.024314243
214	0xbd80d587	-0.06290727
215	0x3c56f3e7	0.013119674
216	0xbcda0dd0	-0.026617914
217	0xbda15101	-0.078767784
218	0xbc5ed5cb	-0.013600777
219	0x3c80f353	0.015741026
220	0x3cf094aa	0.029367764
221	0x3da29b76	0.07939808
222	0x3d12afff	0.035812374
223	0x3c2d12e2	0.010563584
224	0xbbcfc752	-0.0063408995
225	0x3ba02c4e	0.004888094
226	0x3c892f07	0.016746057
227	0x3d714d27	0.05891147
228	0xbd3a099a	-0.045419313
229	0xbcf4a93a	-0.02986585
230	0x3d014413	0.03155906
231	0x3cd6e577	0.026232464
232	0xbd98ed5a	-0.07467146
233	0x3d593f53	0.053038906
234	0x3d4898bc	0.048973784
235	0xbd286c04	-0.041118637
236	0xbda7f8b4	-0.08201733
237	0xbda38533	-0.0798439
238	0xbcea8f40	-0.02863276
239	0xbd820417	-0.06348436
240	0xbd827b08	-0.063711226
241	0xbd0e836e	-0.03479331
242	0xbd2595d1	-0.04042608
243	0x3cf18fff	0.029487608
244	0x3d16bcb4	0.036801055
245	0x3a4f3248	0.0007903916
246	0xbc9e191b	-0.01929908
247	0x3d5cf17b	0.05394123
248	0x3da4d9fb	0.08049389
249	0x3d899e24	0.06719616
250	0x3d843b7d	0.06456659
251	0xbd4e50f0	-0.050370157
252	0x3a4f0852	0.0007897663
253	0x3c0a45c4	0.008439485
254	0x3d027b16	0.031855665
255	0x3cb00e91	0.02149132

network_body._body_endoder.seq_layers.4.weight f4 [256, 256]
0	0xbe0cbc45	-0.13743694
1	0x3dba25b9	0.09089226
2	0x3d3a0f16	0.045424543
3	0xbc5a7e0d	-0.013335717
4	0x3b3ca9cb	0.0028787728
5	0x3b905a03	0.0044052615
6	0xb928c609	-0.00016095502
7	0xbc7e30f1	-0.015514598
8	0x3df78339	0.120855756
9	0xbe3c6d2c	-0.18401021
10	0xbdb1e702	-0.08686639
11	0xbdb0ca70	-0.08632362
12	0x3d020421	0.03174222
13	0x3d5cc676	0.053900205
14	0xbbe978cc	-0.007124996
15	0x3ca49c81	0.020094158
16	0xbcf092e9	-0.029366927
17	0x3d34fdaa	0.044187225
18	0x3af4775a	0.0018651292
19	0x3d0302af	0.03198498
20	0x3e3b117d	0.1826839
21	0x3c540c9a	0.012942458
22	0x3cfe4e61	0.031043233
23	0x3d61ca03	0.055124294
24	0x3d2197d3	0.03945143
25	0x3dc86f1f	0.0978682
26	0xbd5a0901	-0.053231243
27	0xbcce2203	-0.025162702
28	0x3c3e6d61	0.011622758
29	0xbdb3e134	-0.087831885
30	0x3d9bfa7f	0.07616138
31	0xbe1595a0	-0.14607859
32	0xbd2d71a5	-0.042344708
33	0xbb65e052	-0.0035076332
34	0x3b044545	0.002018289
35	0xbd227abf	-0.03966784
36	0xbd071675	-0.0329804
37	0xbd70c24d	-0.05877905
38	0xbd9457ae	-0.07243286
39	0x3da770aa	0.08175786
40	0x3c88d170	0.01670143
41	0xbde43541	-0.1114297
42	0x3dce6427	0.10077696
43	0x3d62ac12	0.05533988
44	0x3acc78d0	0.001559997
45	0xbd44780b	-0.047966044
46	0x3aaa7c30	0.0013006981
47	0xbde0a161	-0.109682806
48	0xbd827a26	-0.06370954
49	0x3d4dd65d	0.05025326
50	0x3cc5463d	0.024081344
51	0x3ac7df00	0.0015248954
52	0x3cc0092f	0.02344188
53	0xbcff085d	-0.031131918
54	0x3d744132	0.059632488
55	0xbd11ee3e	-0.035627596
56	0xbe182977	-0.14859568
57	0xbcd7ecf8	-0.026358113
58	0x3d0330a7	0.03202882
59	0x3d5ac9c6	0.053415082
60	0x3c2900a3	0.010315093
61	0xbad98437	-0.0016595189
62	0x3d1225e6	0.035680674
63	0x3cf48d8c	0.029852651
64	0xbc8559ef	-0.016278235
65	0xbd14573e	-0.036216013
66	0xbd26ac49	-0.040691648
67	0x3d8ec539	0.06971211
68	0x3e2785a1	0.16359569
69	0xbddb38e4	-0.107042104
70	0xbe07c591	-0.1325896
71	0x3c099831	0.008398102
72	0xbd022cfd	-0.031781185
73	0x3c40e152	0.011772471
74	0x3cdbdab9	0.026837694
75	0xbceb954f	-0.02875772
76	0x3e132308	0.14368832
77	0xbd5f1ab1	-0.054468814
78	0xbcedaa85	-0.029011974
79	0x3cb17004	0.021659859
80	0x3ce39ab4	0.02778373
81	0x3c895584	0.01676441
82	0x3c8fb23f	0.017541049
83	0xbdeb5f46	-0.11492781
84	0xbdfdba0d	-0.12389002
85	0x3ceef770	0.029170722
86	0xbbf1c082	-0.007377685
87	0x3d49297a	0.04911182
88	0x3d4ca3e3	0.049960982
89	0x3d5e2a90	0.05423981
90	0x3c4cd627	0.01250223
91	0xbd8d3907	-0.06895643
92	0xbd35ecc3	-0.044415247
93	0x3d86411c	0.065553874
94	0x3d425c31	0.0474512
95	0xbd1cea5f	-0.03830945
96	0xbc08f8ea	-0.008360127
97	0xbc2bb4dd	-0.010480133
98	0x3bca7711	0.0061787446
99	0x3d482c71	0.048870508
100	0x3d43faf7	0.04784676
101	0xbc8fe289	-0.017564075
102	0x3d43348f	0.047657546
103	0x3b731ba7	0.003709534
104	0x3cf22463	0.029558366
105	0xbccedc4e	-0.025251534
106	0xb99148a6	-0.00027710682
107	0xbbd24490	-0.0064168647
108	0x3d710808	0.05884555
109	0xbcebccba	-0.028784145
110	0xbd4dcffa	-0.05024717
111	0x3e0e821f	0.13916825
112	0xbd018f4e	-0.031630807
113	0x3c37f3df	0.011227577
114	0xbb068cd9	-0.002053073
115	0xbd92eedf	-0.07174467
116	0x3d5310de	0.051529758
117	0xbe1ebeb5	-0.15502436
118	0xbc659bc4	-0.014014188
119	0xbc163ddf	-0.009170025
120	0x3d3c0c84	0.045910373
121	0x3d507029	0.050888214
122	0xbb9ea570	-0.004841499
123	0xbde78b3b	-0.11305853
124	0xbd5307a5	-0.051520962
125	0xbe125153	-0.14288835
126	0x3d031803	0.03200532
127	0x3c241b8e	0.010016335
128	0x3cd560f4	0.026047207
129	0xbdc90e0d	-0.09817133
130	0xbcb2d1f9	-0.021828638
131	0x3ce9a8b5	0.028522829
132	0xbe25f3b9	-0.16206254
133	0x3e159050	0.14605832
134	0x3d6e791d	0.05822097
135	0xbc40f261	-0.011776538
136	0x3cdeccbf	0.02719724
137	0x3dfb9c30	0.1228565
138	0x3add60ff	0.0016889869
139	0xbb9d93f1	-0.0048088958
140	0x3d415db1	0.04720849
141	0xbd6740a4	-0.05645813
142	0xbcf4ef61	-0.029899301
143	0x3d297287	0.041368987
144	0xbd4ae88e	-0.049538188
145	0x3d9a8c0d	0.07546244
146	0x3e3292b0	0.1743877
147	0x3d789019	0.060684297
148	0x3ca53e65	0.020171354
149	0xbd965b57	-0.073416404
150	0xbd226a34	-0.039652064
151	0x3da62d59	0.08114118
152	0xbbd19805	-0.006396296
153	0x3e302406	0.17201242
154	0xbdc0bde0	-0.09411216
155	0x3d0f8095	0.035034735
156	0x3d6617c6	0.056175016
157	0xbc856d03	-0.016287332
158	0x3b186dd7	0.002325883
159	0xbcd4afda	-0.025962759
160	0x3d6e5460	0.058185935
161	0x3d0ddb0f	0.03463274
162	0xbd88f159	-0.066866584
163	0xbd4d08a7	-0.05005708
164	0xbb30608c	-0.0026913015
165	0xbd14ece3	-0.036358725
166	0x3d675835	0.056480605
167	0x3d08961f	0.03334629
168	0x3da91dbc	0.082576245
169	0xbddd30f7	-0.10800355
170	0xbb9f2302	-0.004856468
171	0x3dcdbafe	0.100454316
172	0xbd58ae11	-0.052900378
173	0xbcf02015	-0.029312173
174	0xbcacbf23	-0.021087235
175	0x3dca168f	0.09867584
176	0xbd98cfeb	-0.07461532
177	0x3d07d651	0.033163372
178	0x3da316b2	0.07963313
179	0xbd106449	-0.03525189
180	0x3ca37adc	0.019956045
181	0xbdb94961	-0.09047199
182	0x3de31158	0.110872924
183	0x3cb2b3a8	0.021814182
184	0xbda61c75	-0.081108965
185	0xbceece3f	-0.02915108
186	0xbda96f8f	-0.08273231
187	0xbdc91ed5	-0.09820334
188	0x3d1b969c	0.03798543
189	0x3d7801ad	0.060548473
190	0x3b5f1ede	0.0034045498
191	0xbb39aaee	-0.0028330642
192	0xbd1887c0	-0.037238836
193	0xbd88ab18	-0.066732585
194	0x3cb375aa	0.021906693
195	0xbd52dd95	-0.05148085
196	0xbcc72baa	-0.024312813
197	0x3d78308c	0.060593173
198	0xbc06077a	-0.0081804935
199	0xbda6a06f	-0.08136069
200	0xbbd2f86a	-0.0064383047
201	0x3d151c9b	0.036404233
202	0x3d9be434	0.07611886
203	0x3e00142e	0.12507698
204	0x3d3dcc00	0.046337128
205	0xbd40ee2b	-0.047102135
206	0xbdbabb38	-0.091177404
207	0x3c872db1	0.01650128
208	0x3d3d688f	0.046242293
209	0x3cea7046	0.02861799
210	0xbada1cb7	-0.0016640638
211	0x3ac94bca	0.001535767
212	0xbcf2222b	-0.029557308
213	0xbd341f78	-0.043975323
214	0x3dfbb2e0	0.12289977
215	0xbdb00dee	-0.08596407
216	0x3c117fc0	0.008880556
217	0xbdbd9d54	-0.092585236
218	0x3df35991	0.11882318
219	0x3c6bce4b	0.014392446
220	0x3d7725e6	0.060338877
221	0xbdee4ffe	-0.11636351
222	0x3cfff808	0.0312462
223	0x3dc45f6d	0.095885135
224	0x3c35e0f7	0.011100999
225	0xbd7685f7	-0.060186353
226	0x3bb0c9a3	0.0053951307
227	0xbe180bc4	-0.14848238
228	0xbdc97021	-0.0983584
229	0xbdb26ec6	-0.087125346
230	0xbc500bcc	-0.012698125
231	0xbdf519e0	-0.11967826
232	0xbd8994f1	-0.067178614
233	0x39f714cc	0.00047127006
234	0x3dad7f71	0.08471573
235	0x3d782df8	0.060590714
236	0x3c3394ea	0.010960797
237	0x3c4a776c	0.012357574
238	0x3d818a15	0.06325165
239	0xbc8bf66f	-0.017085282
240	0x3dac542e	0.084144935
241	0x3c104baa	0.008807102
242	0x3d947954	0.07249704
243	0xbd653673	-0.05596013
244	0xb958bbec	-0.00020669372
245	0x3d0070e2	0.031357653
246	0xbcacf68c	-0.021113656
247	0xbd1d56e0	-0.03841293
248	0x3b68f749	0.0035547784
249	0xbc5afde8	-0.0133662
250	0xbdc05cf3	-0.09392729
251	0x3d4deec7	0.050276544
252	0x3db0c845	0.086319484
253	0xbc742f4e	-0.014903856
254	0xbe7fb697	-0.24971996
255	0x3d9b83f0	0.075935245

network_body._body_endoder.seq_layers.4.bias f4 [256]
0	0xbd5213c6	-0.05128839
1	0xbcbc6dc8	-0.023001567
2	0xbcb9419d	-0.022614295
3	0xbcc44297	-0.023957534
4	0x3cebf6d5	0.028804222
5	0x3cb9d090	0.022682458
6	0xbd29e6c6	-0.04147985
7	0xbda3dd4b	-0.08001193
8	0xbd3177db	-0.043327194
9	0x3ccc0100	0.02490282
10	0xbbfb7fb4	-0.0076751355
11	0x3c69b895	0.014265199
12	0xbd93829d	-0.07202647
13	0xbd08634d	-0.033297826
14	0x3d467c8a	0.048458613
15	0x3d0c6e5b	0.03428493
16	0xbd41b33b	-0.047290068
17	0xbd0c318c	-0.03422694
18	0xbc04e3a2	-0.0081109125
19	0xbcd9c6fa	-0.026584137
20	0x3cd5bba2	0.026090447
21	0xbc1a04f2	-0.009400593
22	0xbcd30b12	-0.025762115
23	0x3cfd625a	0.030930687
24	0xbd834e8e	-0.064114675
25	0xbd98fe99	-0.07470436
26	0x3d473b56	0.04864057
27	0xbc79d964	-0.015249584
28	0xbc82018b	-0.015869876
29	0xbcd33f99	-0.025787162
30	0x3d30b62e	0.04314249
31	0xbcca0c7b	-0.024664154
32	0x3d105fe0	0.035247684
33	0xbd47a062	-0.048736937
34	0xbbe766e0	-0.007061824
35	0x3d126573	0.03574128
36	0x3d17c5d9	0.037053917
37	0x3ccb3715	0.024806539
38	0x3c21b89c	0.009870674
39	0xbd882c5e	-0.06649087
40	0x3c41ad54	0.01182111
41	0xbd21d387	-0.03950837
42	0xbcab0f6c	-0.020881377
43	0x3c9687dc	0.01837533
44	0x3c17fb2d	0.009276194
45	0x3c9e51b8	0.019326076
46	0x3b4a542f	0.0030872931
47	0xbd5a7250	-0.053331673
48	0x3d2a9e0b	0.041654628
49	0xbda028fc	-0.07820317
50	0x3d3fccd7	0.04682621
51	0x3d14605e	0.036224715
52	0x3b8c177c	0.0042752605
53	0x3d25560e	0.04036527
54	0xbd2a8ee6	-0.041640185
55	0xbd9f9c8a	-0.07793529
56	0xbd2438ff	-0.04009342
57	0x3c7c1265	0.015385245
58	0x3b850a98	0.0040601008
59	0x3bde1078	0.0067768656
60	0xbcd52a41	-0.026021125
61	0xbc9d15b7	-0.019175394
62	0x3cf9e667	0.030505372
63	0x3c84c65d	0.016207868
64	0xbc0d22b1	-0.008614228
65	0x3d3263f0	0.04355234
66	0x3c2c98d8	0.010534488
67	0x3c8de1e1	0.017319622
68	0xbc9d7beb	-0.019224128
69	0x3d103d35	0.03521462
70	0x3cfd96f1	0.030955764
71	0xbd15583b	-0.036461096
72	0x3d2587ec	0.04041283
73	0x3d02acdd	0.031903137
74	0xbd28febe	-0.041258566
75	0xbb407da6	-0.0029371767
76	0x3d1789bb	0.036996584
77	0xbc9dced6	-0.019263666
78	0x3d183bc9	0.03716639
79	0x3c9c01b6	0.019043785
80	0xbd153ece	-0.03643685
81	0xbcf5fe0e	-0.03002837
82	0x3c8bff99	0.017089652
83	0x3d2de375	0.042453248
84	0x3c1aa25e	0.009438125
85	0x3d635a3a	0.05550597
86	0xbd20e054	-0.039276436
87	0x3ce98e20	0.028510153
88	0xbd939ee8	-0.07208043
89	0xbbe93c9d	-0.0071178214
90	0xbd971c93	-0.07378497
91	0xbd245a60	-0.04012525
92	0xbd2f517b	-0.042802315
93	0x3cbe324b	0.02321734
94	0x3d126257	0.035738315
95	0xbd76104e	-0.060074143
96	0xbcd9fe89	-0.02661063
97	0x3ccb12bd	0.024789209
98	0x3d053970	0.03252548
99	0xbccd8be9	-0.025091128
100	0xbd97345c	-0.07383034
101	0x3b9baf10	0.0047510937
102	0xbcf256c2	-0.029582385
103	0xbd4c5684	-0.049887195
104	0xbd9df2e0	-0.0771234
105	0x3b8ee7ae	0.0043611145
106	0x3b6ab6e4	0.0035814578
107	0x3ca986cf	0.020694165
108	0xbcb66804	-0.022266395
109	0x3c4888ad	0.012239617
110	0x3d66aef1	0.05631918
111	0xbd6029d1	-0.05472738
112	0xbd29943f	-0.041401144
113	0x3ca723b4	0.020402767
114	0x39aec596	0.0003333508
115	0x3cf02f2f	0.029319374
116	0x3cad9e65	0.021193692
117	0xbd989bef	-0.07451617
118	0x3a07a7d1	0.0005174848
119	0x3c8354df	0.01603168
120	0xbd062f8f	-0.0327602
121	0xbcc42bf0	-0.023946732
122	0x3ca5fe23	0.020262783
123	0xbc4bf8cd	-0.012449455
124	0x3d28411d	0.041077722
125	0xbce26c56	-0.02763955
126	0x3c993eae	0.018706646
127	0x3c74238a	0.014901051
128	0xbcb01fa9	-0.021499472
129	0x3c9a7b92	0.018857751
130	0xbd6298a6	-0.05532136
131	0xbc89d4a3	-0.016825026
132	0x3cf016c4	0.02930773
133	0xbcb7afe3	-0.022422737
134	0x3c30baf6	0.010786762
135	0x3d39a53e	0.045323603
136	0x3d3542dc	0.044253215
137	0x3d1ee3ae	0.03879135
138	0x3d03eac2	0.032206304
139	0x3c787750	0.015165165
140	0xbd680c6d	-0.056652475
141	0x3d4ae9b1	0.04953927
142	0x3c4306b2	0.011903452
143	0x3ceaa678	0.028643832
144	0x3cdfeb4d	0.02733388
145	0x3d185080	0.037186146
146	0x3c56b9db	0.013105835
147	0x3b673010	0.003527645
148	0x3c0304fb	0.007996793
149	0xbd421505	-0.047383327
150	0x3b125fe3	0.0022334985
151	0x3d72e3ba	0.05929921
152	0xbc80e7a6	-0.015735459
153	0x3c91a689	0.017779605
154	0xbd1ec854	-0.038765267
155	0xbd4d25ea	-0.050084986
156	0x3cfdcc83	0.030981308
157	0x3c279bb2	0.010229992
158	0xbbedfd2e	-0.0072628474
159	0xbd1510f3	-0.036393117
160	0xbcf4ee58	-0.029898807
161	0xbd490675	-0.049078424
162	0xbd36f535	-0.04466744
163	0xbc15962b	-0.009130041
164	0xbc45d542	-0.01207477
165	0x3cf32ac3	0.029683476
166	0x3c82ffee	0.015991177
167	0xbd2b14d5	-0.041767914
168	0xbd23f0f8	-0.040024728
169	0x3ca210ca	0.019783396
170	0x3ce87a62	0.02837867
171	0x3d2bacbf	0.04191279
172	0xbcad8b24	-0.021184511
173	0xbc95fbf9	-0.018308626
174	0xbba59ea3	-0.0050543114
175	0x3b86dad1	0.0041154404
176	0x3d0c0c68	0.03419152
177	0xbb2adfd7	-0.002607336
178	0xbd869aae	-0.065724716
179	0xbc0da417	-0.008645079
180	0xbd32400c	-0.04351811
181	0x3c5bc475	0.013413538
182	0xbd4567df	-0.048194762
183	0xbba038d1	-0.0048895855
184	0xbd5f5b93	-0.05453069
185	0xbd9f158d	-0.07767782
186	0x3cf93928	0.030422762
187	0x3c120a35	0.008913566
188	0xbc478c5e	-0.012179462
189	0x3ca6fc42	0.020383958
190	0xbd941253	-0.072300576
191	0x3cea0d5d	0.028570825
192	0xbd8abeb0	-0.06774652
193	0x3cf524d1	0.029924782
194	0x3d0fa2b4	0.035067275
195	0x3bd6dda6	0.0065571843
196	0x3d1b9ebf	0.03799319
197	0x3c8de5d3	0.017321503
198	0xbd2bb81e	-0.041923635
199	0xbd3a7ead	-0.045530964
200	0xbce22f68	-0.027610496
201	0x3bee97ea	0.007281293
202	0xbd62d94a	-0.055383004
203	0xbd0d8b68	-0.034556776
204	0x3a5917a4	0.0008281416
205	0xbc4b48f1	-0.012407527
206	0xbbb6b852	-0.005576172
207	0x3c36dc43	0.011160913
208	0xbd90ab5d	-0.07063935
209	0xbc781d7d	-0.015143749
210	0xbd175c34	-0.036953166
211	0x3c03cca5	0.0080443965
212	0xbd2b3a68	-0.041803747
213	0xbc5d0171	-0.013489113
214	0x3ceacafa	0.02866124
215	0xbdcb4c27	-0.09926634
216	0xbcc184c2	-0.023622874
217	0xbd123ae8	-0.03570071
218	0x3cce7df5	0.025206545
219	0x3a4e1a60	0.00078622065
220	0xbc8d2934	-0.017231561
221	0xbccd8255	-0.025086561
222	0x3d22102f	0.039566215
223	0x3d28c8db	0.041207176
224	0x3c87a930	0.016560167
225	0x3cde505d	0.02713793
226	0xbc884963	-0.016636556
227	0x3d00a47f	0.031406876
228	0xbb9108a8	-0.0044260807
229	0xbd29de61	-0.041471843
230	0xbd7d495f	-0.06183755
231	0x3d4bfaed	0.04979985
232	0xbd2397f6	-0.039939843
233	0x3cdf245d	0.027239019
234	0x3c85af81	0.016319038
235	0xbd8f5c9b	-0.07000085
236	0x3d24b133	0.040208053
237	0xbcbb3534	-0.022852518
238	0xbd263388	-0.040576488
239	0x3cf184f8	0.02948235
240	0x3bb25f4c	0.005443489
241	0xbcf8614a	-0.030319829
242	0x3cee00a2	0.029053036
243	0x3c621a5c	0.01380023
244	0xbc358862	-0.0110798795
245	0x3cf4e76e	0.02989551
246	0xbbe0228a	-0.006840055
247	0xbd7c5c19	-0.06161127
248	0xbc696334	-0.014244843
249	0x3bb1a37d	0.0054211006
250	0xbcbf0ca8	-0.023321465
251	0xbc29e3e3	-0.010369274
252	0x3c24e0bf	0.010063349
253	0x3d23c958	0.03998694
254	0xbcc89659	-0.024485754
255	0x3a4cc31a	0.0007811055

action_model._continuous_distribution.mu.weight f4 [2, 256]
0	0xbc1d5587	-0.009602911
1	0xbc27c594	-0.010239977
2	0x3c1d7766	0.009610986
3	0x3bf24f08	0.007394675
4	0xbbe3b351	-0.0069488664
5	0xbba7e044	-0.00512317
6	0xbbb81dd3	-0.0056187897
7	0x3c154991	0.009111778
8	0xbc517e9f	-0.0127865365
9	0x3b38c498	0.002819335
10	0xbc02f56f	-0.007993086
11	0x3bdac9b5	0.0066768774
12	0x3c6ffc95	0.014647623
13	0xbc8b19e1	-0.016980113
14	0x3bfab9b2	0.007651531
15	0x3b1f2ce4	0.0024288232
16	0xbb43cc84	-0.002987654
17	0x3a4d5af8	0.0007833685
18	0xbb60be1f	-0.0034293009
19	0xbc3b4afc	-0.011431452
20	0xbbcc14c1	-0.00622806
21	0xbc306ca6	-0.010768091
22	0x3ab502d4	0.0013810047
23	0xbb37430e	-0.0027963552
24	0xbc5510ed	-0.013004524
25	0x3bfc809b	0.0077057607
26	0xbb724203	-0.0036965616
27	0x3a293e60	0.0006456133
28	0x3bf9372f	0.0076054554
29	0x3c4599cd	0.012060595
30	0xbbda0654	-0.0066535864
31	0x391659bc	0.00014338543
32	0xbba7b473	-0.005117947
33	0xbc183188	-0.009289153
34	0x3c79c3c1	0.015244425
35	0xbba79dcf	-0.005115248
36	0xbbdff8db	-0.006835086
37	0x3baf7da2	0.005355553
38	0x3c80e77b	0.015735378
39	0x3c8e7d6e	0.017393794
40	0xbb095d20	-0.0020960048
41	0x3b7e4cdb	0.0038803134
42	0xbc737ca8	-0.014861263
43	0xbbd3ba6a	-0.0064614313
44	0xbc5027e1	-0.01270482
45	0xbb91947a	-0.0044427486
46	0x3ad12c16	0.0015958573
47	0x3b8eff1f	0.004363909
48	0x3ab533d4	0.001382465
49	0xbb36f6fb	-0.0027918208
50	0xb7d6d968	-2.5612026e-05
51	0x3a325aa2	0.00068036665
52	0xbb86e413	-0.004116544
53	0x3b1214c3	0.0022290207
54	0xbbbbc628	-0.005730409
55	0x3a07fc5c	0.0005187446
56	0x384666ae	4.7302507e-05
57	0x3ba1b8fa	0.004935381
58	0x3b628a68	0.003456736
59	0x3c799702	0.015233757
60	0xbb970b07	-0.004609469
61	0xbc06fffb	-0.008239741
62	0x3c3e133c	0.0116012655
63	0xbb335b72	-0.0027367738
64	0xbbd30f6c	-0.0064410474
65	0xba4f4b51	-0.00079076464
66	0xbc501932	-0.0127013195
67	0xbb448057	-0.0029983723
68	0x3c08ec15	0.008357068
69	0xbba8b58b	-0.0051485947
70	0x3bb75830	0.0055952296
71	0x3bd255fc	0.0064189415
72	0xbb7b1bca	-0.0038316124
73	0x3b8e19cf	0.0043365727
74	0xbc67cb44	-0.014147583
75	0xb8f44379	-0.000116473944
76	0xbc001421	-0.007817299
77	0x3bbae843	0.0057039573
78	0xb8e716aa	-0.0001101916
79	0xba24a7b9	-0.0006281096
80	0xbc03a06d	-0.008033854
81	0x3b16d726	0.0023016422
82	0x3c36cd41	0.011157335
83	0x3b770a80	0.0037695467
84	0x3c055ad3	0.00813933
85	0x3acbe48a	0.0015555781
86	0x396ac828	0.00022390543
87	0xbb08483a	-0.0020795004
88	0xbc48b2e3	-0.012249681
89	0x3c507537	0.012723259
90	0x3c84a6dd	0.016192848
91	0xbbebfdfb	-0.0072019077
92	0x3c3c6b26	0.011500156
93	0x3c4088f5	0.011751403
94	0x3992878a	0.00027948275
95	0xbc807686	-0.015681516
96	0x3b61accb	0.0034435268
97	0xbc1048ce	-0.0088064205
98	0x3af9e8d4	0.001906658
99	0x3c56f1e2	0.013119193
100	0x3b80168e	0.0039089387
101	0xbb687587	-0.0035470442
102	0x3bda8d23	0.006669657
103	0x3bcbcb11	0.0062192758
104	0x3bf64b51	0.0075163026
105	0x383ad6b4	4.4545814e-05
106	0xbbaac9a0	-0.005212024
107	0xbbbf577d	-0.005839287
108	0xbbe37b9f	-0.006942227
109	0x3b3d1a99	0.0028854965
110	0xbc69e910	-0.014276758
111	0xbc441f51	-0.011970357
112	0xbbcdc079	-0.006279048
113	0xbc74e9e6	-0.014948344
114	0x3bf3874f	0.0074319015
115	0x3c3410e5	0.010990356
116	0xb5b97b60	-1.3819481e-06
117	0x3c2d98ba	0.010595495
118	0xbb92fab2	-0.0044854516
119	0x3b110ef6	0.0022134162
120	0x3c150f36	0.009097865
121	0xbbcebabc	-0.0063088816
122	0xbbc09f7f	-0.0058783884
123	0xbbd3d941	-0.0064651077
124	0x3ab30f89	0.0013661246
125	0x3c1b765c	0.009488668
126	0xbba97a7c	-0.005172072
127	0xbabe7ba5	-0.0014532699
128	0xbd5d26dc	-0.053992137
129	0x3c037248	0.008022852
130	0x3c6d1849	0.014471122
131	0xb923eefa	-0.00015633917
132	0x3b11157d	0.0022138052
133	0x3bd71c90	0.006564684
134	0x3c0c202d	0.008552593
135	0xbbd74150	-0.006569065
136	0xbabbded1	-0.0014333372
137	0x3b1d8fb9	0.0024041964
138	0x3b96bb7a	0.0045999857
139	0x3c01f593	0.007932085
140	0x3bddbc44	0.006766828
141	0xbb9dd9c1	-0.004817218
142	0x3c6b591c	0.014364507
143	0xbb83ce13	-0.0040223687
144	0x3b61191b	0.003434724
145	0x3be6b813	0.0070409863
146	0xbabb4405	-0.0014287239
147	0x3c735e53	0.014854032
148	0xbba58552	-0.0050512934
149	0xbaea0bef	-0.001785634
150	0xbb142d71	-0.0022610093
151	0xbb19e323	-0.0023481331
152	0x3bb0794b	0.005385553
153	0x3c19f441	0.009396614
154	0x3c16279f	0.00916472
155	0xbc6d7bf3	-0.014494884
156	0x39e00a74	0.00042732398
157	0x3b9660ea	0.00458919
158	0xbb8c50e1	-0.0042821025
159	0xbc58d4c4	-0.013234321
160	0xbb3c2a2d	-0.0028711662
161	0xbc0745e8	-0.008256413
162	0x3c151913	0.009100216
163	0x3c3a34c3	0.011365118
164	0xbc592b96	-0.013255021
165	0xbbabfce4	-0.005248653
166	0x3b5b88d9	0.0033498316
167	0xbc6222e8	-0.013802268
168	0x3ba7567d	0.0051067458
169	0x3b8e5d49	0.0043446166
170	0x3b76d3c1	0.0037662836
171	0xbb1946dc	-0.0023388183
172	0xbadaa883	-0.00166823
173	0x3c56b1fb	0.013103957
174	0x3ba37bb6	0.0049891127
175	0x3bb2b598	0.0054537766
176	0x3b983606	0.004645112
177	0xbb8f346a	-0.004370262
178	0xbb71328b	-0.0036803808
179	0xbc42c2a1	-0.011887223
180	0x3b423280	0.002963215
181	0xbb8d6cf2	-0.004315966
182	0x3acae33b	0.0015479097
183	0x3c2675fd	0.010159967
184	0x3c3fb711	0.011701361
185	0x3bf61347	0.0075096223
186	0xbb32aaff	-0.0027262566
187	0xbabb2eb7	-0.001428089
188	0xbc9575e1	-0.018244686
189	0x3c10cbf6	0.008837691
190	0xbb309dbd	-0.0026949488
191	0xbb535a52	-0.003224988
192	0xbadbbd0f	-0.0016764718
193	0xbc8ab5a7	-0.016932322
194	0xba7f7ece	-0.00097463734
195	0x3c49bd8b	0.012313257
196	0x3c28c419	0.01030066
197	0x3b890ffa	0.0041828128
198	0xbc7924fe	-0.0152065735
199	0xbce26c3b	-0.027639499
200	0xbc1727b3	-0.009225774
201	0xbbcb5185	-0.0062047862
202	0x3b05dd4d	0.0020426095
203	0xbb32c5d3	-0.0027278557
204	0xbad1e6ec	-0.0016014255
205	0x3bee25b5	0.0072676786
206	0xbc572a7d	-0.013132689
207	0x3c291acc	0.01032133
208	0x3ae0fe88	0.00171657
209	0x3ba39cd0	0.0049930587
210	0xbc10464f	-0.008805825
211	0xba8a055e	-0.0010530164
212	0xbc72c9d5	-0.014818628
213	0x3b7722a8	0.0037709866
214	0xba892c69	-0.0010465506
215	0x3c0aab3d	0.008463678
216	0x3b5c3563	0.0033601157
217	0x3916de8c	0.0001438802
218	0x3b0c2284	0.0021382878
219	0x3bbf30e6	0.0058346866
220	0xbb8ab779	-0.0042332974
221	0x3c5e7112	0.013576763
222	0x3b36344c	0.0027802167
223	0xb9b86dbf	-0.00035176982
224	0xbb56bcba	-0.0032766298
225	0xbb55f6a2	-0.0032648225
226	0xbc5e1f29	-0.013557234
227	0xbc4cdd99	-0.012504005
228	0xbba65be3	-0.0050768717
229	0xbbdd9dbb	-0.0067631877
230	0x3ba9a4d5	0.00517712
231	0xbc07d690	-0.008290902
232	0x3b753133	0.0037413358
233	0xbb9dd3e0	-0.0048165172
234	0x3b327306	0.0027229204
235	0x3bca21de	0.006168588
236	0x3a9c634b	0.0011931447
237	0xbbf0d11d	-0.007349147
238	0xbc30657c	-0.010766383
239	0xbbbb6fa6	-0.0057200966
240	0xbb9618bd	-0.0045805858
241	0xbbd43f6d	-0.0064772875
242	0x3bf8df6b	0.007594993
243	0x3bbe46ae	0.0058067655
244	0xbba58759	-0.005051535
245	0x3bb27a46	0.005446705
246	0xbc8634bd	-0.01638257
247	0x3c7cad79	0.0154222185
248	0xbb9146c1	-0.0044334834
249	0xbc7cdd1d	-0.015433577
250	0x3ba619cc	0.005068993
251	0x3c1d7352	0.009610014
252	0xbad2bdeb	-0.0016078328
253	0x3b28111e	0.0025644968
254	0xb9f1de80	-0.00046132877
255	0xbb8fbe7b	-0.0043867207

action_model._continuous_distribution.mu.bias f4 [2]
0	0x3bf6d5ca	0.00753281
1	0x3b3615cc	0.0027783988
