Assets/Anim/AgentBehavior_67.onnx (onnx, 566922 bytes, 17 tensors)

discrete_act_size_vector f4 [1, 2]
00000000: 0000 0041 0000 0041
8.0 8.0

network_body.observation_encoder.processors.0.normalizer.running_mean f4 [8]
00000000: 02dc 5ac3 0000 0000 b9d7 fdbe d891 53c3
00000010: 0000 0000 213a eb3e 8145 e9c0 0000 0000
-218.8594 0.0 -0.49578646 -211.5697 0.0 0.45942786 -7.2897344 0.0

network_body._body_endoder.seq_layers.0.weight f4 [256, 8]
00000000: c31a 26bf a618 dbbe c723 cfbe 65e0 c8be
00000010: d1c1 023f 40c9 cd3e 1e0e 0c3c dee9 07be
00000020: e6af 01be e642 3c3f d742 34bf 39c5 273e
00000030: 78ca eabd 1621 423f 35db 843e bf14 253d
00000040: e3cc 91be 94b1 a7be cc56 08bf f089 26bf
00000050: 373c 2c3d 07e7 2fbe 677a de3e 37ba 30bd
00000060: 1a90 133d afe1 363f 8591 e23c ec9d d73e
00000070: 753f bcbe 9625 b1be 7ced 403e 4e59 f6be
00000080: 466c 70be b964 103f 254d 7bbf 7706 503e
00000090: 1c1a 4e3e ab28 553f 59a7 b23b be16 aebe
000000a0: b22d 8f3e f9c8 313d 6bf1 05bf fdb7 e53e
000000b0: ae1a f03e a43f cdbc c03f 20be e575 833e
000000c0: 6769 6d3a df24 653e 92b5 b63e a8db 74be
000000d0: 235b 463e ac3c 123e 003d 3a3f 9845 9d3d
000000e0: 8df4 8dbe cad0 87bd c18d f2be 7cfb a33e
000000f0: 1c67 42bd e476 73be 3b5a b8be ecd7 94be
00000100: 6689 063d 05a3 e8be 5bfe 35be e2b2 26bd
00000110: 508e 30be 0020 903d aae8 02bf 4350 8cbe
00000120: 2a61 93bd 78ed 0dbf c4e3 0b3f beb6 23bf
00000130: 4088 26bc 3ade e33e e4a8 90bd 9f8d 02be
00000140: 6d7e 2dbe a3ae 71be cd33 e1be b92f fa3e
00000150: 1cd5 b0be 5b43 0e3e 950c 69bc 8641 153f
00000160: 782f 15be a7c6 933d 2044 abbe 0631 933e
00000170: 0c86 653d fb6f 7cbe f1f8 e03e 2142 42be
00000180: 331d 033f 963b aa3d 0347 08bf 1677 723f
00000190: 0baa 483d 32e0 ed3e c874 aa3e f052 4dbe
000001a0: ba98 d13a 73bc 2d3f 071d 5bbe 63db a2be
000001b0: 58e6 d7bd d6ea 5dbf d917 19be ede8 833d
000001c0: bb34 17bf c5bf 303e 10de 6c3c 3a81 eebd
000001d0: b3c9 89bc 66cf 9a3e fe82 2fbe f48f 8e3a
000001e0: c60c adbd baa0 96be ca6d 4bbd 3a06 f83e
000001f0: 9acd 28bd bdda ce3e 8dd1 82bd d4a2 1e3e
00000200: 1b6f 843f c0ce 0a3f f77e 1abf 3671 8dbe
00000210: 32d1 c5bd 61a8 903d 8609 96bc 7893 28bf
00000220: a8e7 2cbe d64e 1a3f d0d6 933d f259 be3e
00000230: a99f 663e 997d 533f 09ee 6c3e 241f 34be
00000240: 6eca e9bd 0b71 2e3d 5874 05bf 6e88 4fbb
00000250: dea7 c9be 4dce b3be c3aa b23e 1fd5 00be
00000260: 5583 3e3e f864 433e 4859 b2be 994f 4f3d
00000270: ab30 1dbe 9703 c3bd b8c5 7fbe 24b7 073f
00000280: 429b a13e 192b 223d e108 59be e946 30bf
00000290: 0bd2 463e af35 02be 194a b13d d3c5 f73e
000002a0: 8af4 b4be 59e6 ce3e 8a2a e6be dd7e a43e
000002b0: d8ab 38bf e6a9 8e3e c557 9e3e c544 c7bc
000002c0: 0f66 4fbe 0dda 773f c64d 11be c017 c73e
000002d0: 93c8 06bf fbb1 a6bc c85c 96bc 9cdc ddbd
000002e0: ba64 c9be 15d7 a83c 3e05 413f 3b17 b23e
000002f0: 7e32 dcbd 637d d7be eacf e23e cd43 4ebd
00000300: 8017 583e 6b06 c53e 334c 613f d954 64be
00000310: db78 b43e e625 4dbe 4a8e a6ba 4ade 5a3e
00000320: 786f 353e cfb9 883e 79c5 843e 6d7d 8ebe
00000330: bf03 193e 43d0 923e c45e 053f b040 97be
00000340: 893c 483e 7da6 00bf 8921 a33d b66d dbbe
00000350: 8337 98be b8c7 6f3e 65a7 d53e 97d3 1abf
00000360: 7e01 4dbe e98b 0f3f 88f8 8c3d bee3 043f
00000370: 1316 44be 053a 0cbe 158d e13e d939 a13e
00000380: 7d36 11be 604b 183f 5050 7bbf 64f6 443e
00000390: b9dd 0cbd 01a0 17bb a6f0 4cbe af24 bbbe
000003a0: 6d8e 9ebe bb5f a33d c6c8 cf3e 745f cdbd
000003b0: 7b08 873e 0c93 aebe 8f2a 73be 4536 0a3f
000003c0: 70f0 09bf 2ecf a53e 1673 e13d bcba 76bd
000003d0: 50e6 b83d 6c2d 403f 7e61 69bd d102 ba3e
000003e0: d92c 68be f12e 223f ba7b a7be e7d2 323e
000003f0: 1011 8ebe 9d42 11bd 5421 b1be 9bbe f73e
-0.64884585 -0.42792243 -0.40456983 -0.392337 0.5107699 0.40192604 0.008548288 -0.13272807
-0.12664756 0.7353958 -0.7041449 0.16383828 -0.11464399 0.75831735 0.25948492 0.04030299
-0.2847663 -0.3275267 -0.5325744 -0.65054226 0.042049613 -0.17177974 0.4345276 -0.04314634
0.036026098 0.71438116 0.02765728 0.42112672 -0.36767164 -0.34598988 0.18840593 -0.4811501
-0.23478803 0.5640369 -0.9816459 0.20314966 0.20127147 0.8326518 0.0054520783 -0.34001726
0.2796455 0.043404553 -0.523215 0.44866934 0.46895355 -0.02505476 -0.15649319 0.25675884
0.00090565387 0.22377346 0.35685402 -0.23911917 0.19370703 0.14280957 0.7274933 0.076792896
-0.2772564 -0.0663162 -0.47373775 0.32027805 -0.047461614 -0.23775822 -0.3600634 -0.29070985
0.032845877 -0.45436874 -0.1777281 -0.04069794 -0.17241788 0.070373535 -0.5113627 -0.27404985
-0.07196267 -0.55440474 0.5464442 -0.6395072 -0.0101643205 0.44505483 -0.07063463 -0.12749337
-0.16942759 -0.23601775 -0.43984833 0.48864534 -0.3453759 0.13892882 -0.014224191 0.58303106
-0.14568889 0.07215624 -0.33450413 0.2874834 0.05603604 -0.24652092 0.43939927 -0.18970539
0.5121643 0.08312146 -0.53233355 0.9471296 0.04899029 0.4646011 0.33292222 -0.2005117
0.0015990951 0.67865676 -0.21397792 -0.31808004 -0.105419815 -0.86686456 -0.14950503 0.064409114
-0.59064835 0.17260654 0.014457241 -0.11645742 -0.01681981 0.30236357 -0.17139813 0.0010876642
-0.08449702 -0.294195 -0.04966525 0.4844225 -0.041211702 0.4040126 -0.06387625 0.15491802
1.0346407 0.54221725 -0.6034998 -0.27625436 -0.096590415 0.07063366 -0.018315088 -0.6585002
-0.16885245 0.60276544 0.072187066 0.37177998 0.22521843 0.8261352 0.23137678 -0.17590004
-0.114155635 0.042588275 -0.5213065 -0.0031667012 -0.39385885 -0.35118333 0.34895906 -0.12581299
0.18604787 0.19081485 -0.3483374 0.05061302 -0.15350597 -0.09522169 -0.24977767 0.53013825
0.31563765 0.039591882 -0.21194793 -0.688582 0.19416063 -0.12715791 0.08656711 0.48393115
-0.35342818 0.40410116 -0.4495433 0.3212804 -0.7213721 0.27863997 0.30926338 -0.024324784
-0.20253776 0.96817094 -0.14189824 0.38885307 -0.526498 -0.02034854 -0.018354788 -0.108330935
-0.3933466 0.020610372 0.75398624 0.34783348 -0.10751818 -0.4208785 0.4429925 -0.05035763
0.21102715 0.3848146 0.88006896 -0.22297992 0.35248455 -0.20033988 -0.00127072 0.21373859
0.17718303 0.2670426 0.2593191 -0.27830067 0.14942835 0.28674516 0.52097726 -0.2954154
0.19554342 -0.5025404 0.07965381 -0.4285714 -0.29729852 0.2341603 0.41729274 -0.6047911
-0.200201 0.5607286 0.06883341 0.51910007 -0.19149046 -0.13694008 0.4405295 0.31489447
-0.14180942 0.59490013 -0.9816942 0.19234616 -0.03439114 -0.0023136141 -0.20013675 -0.36551425
-0.30968037 0.079772435 0.40582865 -0.10027972 0.26373658 -0.34096563 -0.23746704 0.5398906
-0.53882504 0.32384628 0.11008279 -0.060236678 0.090283036 0.7506931 -0.05697774 0.36330274
-0.22673358 0.63352877 -0.32711583 0.17463265 -0.27747393 -0.035463918 -0.3459574 0.48387608

network_body._body_endoder.seq_layers.0.bias f4 [256]
00000000: 12b9 b3bc 04d6 2b3d 72d7 693d 0889 563d
00000010: 5fd6 393d f152 3c3d 94a7 323d 1556 253d
00000020: 4323 b6bc 039d 523d 19ae c73c ff84 703d
00000030: 0136 4e3d c84b 293d 8b4e 7a3d a0dd 3a3c
00000040: e995 553d 59b9 4c3d b035 683d 3cdf 3c3d
00000050: 3294 0d3d 254b d0bc b8ed 553d a8cb 22bd
00000060: 3169 2f3d fa54 463d 5077 383d 9831 6a3d
00000070: 6bfd 4c3d 4393 5d3d d6df 503d 3630 443d
00000080: fc34 283d af86 743d e453 453d 0622 3a3d
00000090: 96e9 a23c 1e63 c0bb 1d4f 4c3d 41c7 5d3d
000000a0: aa5c 2f3d 095b 323d a3a4 563d d61b 333d
000000b0: 2bc0 233d a14b 3d3d 8549 723d c273 593d
000000c0: b03f b7bc 2dac 5f3d db5d 4cbd cb6a 863d
000000d0: fd2e 3e3b 9f3b f33c 3f4b 533d a6b9 1dbc
000000e0: a91c 2d3d 48e2 733a fc3b 84bc a3fa 4a3d
000000f0: cfde 623d c380 633d e2a1 393c 3c18 e23c
00000100: 4ea3 623d b48f aa3c 073e ae3c 9bd6 6d3d
00000110: 6c4c 47bd 65f9 7c3d eb4d 563d e1d6 403d
00000120: 1637 6f3d c299 403d 0a3b 1e3d a9ed 0dbd
00000130: 0148 403d 7488 283d d820 203d 2a70 d03c
00000140: 1c46 563d 6f12 56bd 1586 1cbd 01db 413d
00000150: 723e 5c3d 4166 1fbd 3f15 883d 9562 e53c
00000160: 0562 343d 3954 403d 10df 90bc 83ad 553d
00000170: 3248 113d 7ab5 d4bc 627c 573d f0c4 f5bc
00000180: 2faa 243d 3924 563d 5816 cb3c 6282 3a3d
00000190: 37e6 9f3c 929d 48bd 671c bb3b dbfa 283d
000001a0: dc0d ed3c 7b18 473d ca42 05bd c246 d7bc
000001b0: 82bb 97bc 9ebc 293d 5ff7 543d b03b 093d
000001c0: 1147 4d3d 5e60 07bd b60a 293d 301c 533d
000001d0: 866c b6bb da11 e03b 9cdc 333d 3926 1b3c
000001e0: 5094 ed38 d1b7 3abd 0ba1 643d b34c b43c
000001f0: e425 5d3d 4cc8 533d a20b 313d cc4e 2bbd
00000200: 3b82 153d 227f 4b3d 2ad7 9aba 90e3 2e3d
00000210: abb0 b53b 88bd 1a3d 7456 803c 803c 0bbd
00000220: 71ae 013d c7a7 903c 074a 823d f80d 463d
00000230: f10e 663d 03fc 6bbc 4b83 173d 8ddc 743d
00000240: 7ef7 603d 9b18 d33c 64ac 523d 48b4 6a3c
00000250: 7d55 7c3c 741f 413d df0b 4c3d 83ec b43c
00000260: d9af 503d ca3a 273d 14e5 d43c 464e 3b3d
00000270: 8839 2a3d 8f49 243d db12 d93b 0289 563d
00000280: 0e35 8c3c 29b0 673d 2781 2d3d 793a 423d
00000290: 55f5 123d ff78 133d 96ff 0b3d 0b50 453d
000002a0: 225b 463c 188c 393d 5bd5 6f3d b2ca 5b3d
000002b0: 9606 cdbc ffc2 533d c5bd 083d 9f00 423d
000002c0: 304f 563d 4501 4639 50f8 733d 08f6 ddbb
000002d0: 991a 313d 760e 3a3d 921f 383c db15 373d
000002e0: d704 583d 635e 5dbd 5ef3 8a3b 8e26 033d
000002f0: 8c87 333d 0742 593d 8b0c 2f3d 35df 063c
00000300: 28f1 ef3c 085b eb3c ab09 4c3d 7853 edbb
00000310: b0fa 8e3c 3da5 1d3d c163 423d 2053 30bd
00000320: 9f7d 543d 07ce 5c3d 1017 16bd e587 c33c
00000330: 3c0a 1d3d d6ec f33c 07c1 ad3c 5c03 443d
00000340: 99f4 3c3d 97ac 503d c288 ae3b b925 1c3d
00000350: a187 453d 2496 513d adce 243d 7071 613c
00000360: 6521 e4bc fa37 373d a506 5cbd aaec 033c
00000370: 6a1c 20bd 0344 133d 18a2 e83c 2b49 563d
00000380: 8b5c 20bd e9fc 01bd a3c7 5e3d 5e83 313d
00000390: 3e95 673d aac5 583d 26c0 543c e4a3 81bc
000003a0: 4ab7 493c 6d47 5f3d e626 483b 12ea 2b3d
000003b0: 857d 103d 8792 2e3d 02e4 483d 5784 ebbc
000003c0: d19d 0d3d 358d 40bd ddab 373d 6645 4f3d
000003d0: 07cc 1b3d 0d12 2d3d 538b 523d a120 aa3c
000003e0: ee77 20bc 9901 c43c eaa3 bfbc 78d6 a7bc
000003f0: 045c 323d 9063 433d 4256 d73c f32f 423d
-0.021938834 0.041952148 0.05709023 0.052376777 0.045370456 0.045977537 0.043616846 0.040365297
-0.022233611 0.05141927 0.024375008 0.058720585 0.05034447 0.041332036 0.06111006 0.011405379
0.05214492 0.04998145 0.056691825 0.04611133 0.03456516 -0.025426457 0.05222866 -0.039745003
0.042824928 0.048420884 0.04503566 0.057176203 0.050046366 0.054095518 0.050994717 0.04789754
0.041066155 0.059698757 0.048175707 0.045442604 0.019886773 -0.0058711907 0.049880136 0.0541451
0.04281298 0.04354385 0.052403104 0.04372772 0.039978188 0.046214703 0.059152145 0.05308891
-0.022369236 0.05460756 -0.049894195 0.06563338 0.0029019706 0.029691515 0.051585432 -0.009626782
0.04226366 0.0009303433 -0.016141884 0.049555432 0.055388268 0.05554272 0.0113301 0.027599446
0.05533152 0.020820476 0.021269811 0.05806599 -0.048656866 0.06176128 0.052320402 0.047079924
0.058402143 0.047021635 0.038630523 -0.03465048 0.04694367 0.041145757 0.039093822 0.025444109
0.052312955 -0.052263673 -0.038213808 0.047328 0.05377049 -0.038915876 0.06644677 0.02800111
0.04403879 0.04695532 -0.01768449 0.052167427 0.03546924 -0.025965441 0.052608855 -0.030001134
0.040201362 0.05228064 0.024790928 0.0455345 0.019518955 -0.048978396 0.005710173 0.04125486
0.028937273 0.04860733 -0.0325344 -0.026278857 -0.018522028 0.041439645 0.051993724 0.033504188
0.050116602 -0.033050887 0.04126998 0.051540554 -0.005567136 0.0068380656 0.04391156 0.009469562
0.00011328666 -0.045585457 0.055817645 0.02200923 0.053991213 0.05170469 0.043223985 -0.041823193
0.03650115 0.04968179 -0.0011813391 0.04269749 0.005544742 0.037778407 0.015666224 -0.033993244
0.0316605 0.017658127 0.06361776 0.048353165 0.056166593 -0.014403346 0.036990445 0.059780646
0.054923527 0.025768569 0.051433936 0.014325209 0.015401241 0.047149137 0.04981601 0.022085434
0.05094895 0.04082755 0.02598814 0.045728944 0.041558772 0.040109213 0.006624562 0.052376755
0.017115142 0.056564484 0.042359497 0.047419045 0.035878498 0.036004063 0.034179293 0.048172038
0.012106689 0.04529962 0.05855308 0.053660102 -0.025027554 0.051699635 0.033384103 0.047363874
0.052321613 0.00018883224 0.05956298 -0.006773714 0.043238256 0.045423947 0.011237996 0.044698577
0.05273899 -0.054045092 0.0042404374 0.03201919 0.04383044 0.053041484 0.04273657 0.008231928
0.029289797 0.02872993 0.049813908 -0.0072426163 0.017453521 0.03848766 0.047458414 -0.043048024
0.051877614 0.05390742 -0.036643088 0.02386851 0.03833984 0.029776018 0.021210207 0.047854766
0.046131704 0.050945845 0.0053263614 0.038121913 0.04822505 0.051168576 0.040236164 0.013759956
-0.027847955 0.044731118 -0.053717274 0.008052031 -0.039089598 0.035953533 0.028397605 0.052315872
-0.039150756 -0.031735335 0.054389607 0.043338172 0.056538813 0.052922882 0.012985265 -0.01582522
0.012311766 0.054511476 0.0030540763 0.041971274 0.035275955 0.042620208 0.04904557 -0.028749628
0.034574334 -0.047009666 0.044841636 0.050603293 0.038036373 0.042253543 0.0514024 0.020767512
-0.0097942185 0.023926543 -0.02339359 -0.020488009 0.043544784 0.047702372 0.026286248 0.04740901

network_body._body_endoder.seq_layers.2.weight f4 [256, 256]
00000000: 3ad9 aabd 92b0 e4ba ce06 d4bc 7b93 15bd
00000010: b187 573d 2c7f aebd a18e aabc 7d7f b9bc
00000020: aadc fa3c 267e b6bc af70 88bd 5380 78bd
00000030: 4237 ca3d f517 3e3d 6b70 4dbc 2537 78bc
00000040: 4a13 753c 24a5 6bbd 308b 1d3d 402a 3bbd
00000050: 9029 94bd fef9 c7bb 5a6e 8abd f086 cbbc
00000060: 15ed 68bd 3493 6fbc 2754 043d 1d15 d83c
00000070: 6379 a9bc ec12 91bb 5a96 693d bcf4 833d
00000080: 57ab b03d 09dd 65bd bcb5 8f3d 351a 34bd
00000090: 8547 8c3d 0eab c93d 03a9 323c cf61 413d
000000a0: ba76 d0bd 46f8 8a3d 8d79 993c f81a a8bd
000000b0: ecbb 4bbd 1825 103a 7ae5 563d 6729 133c
000000c0: 66a4 133d 9c9e 5dbb 6906 2bbd 565b 33bd
000000d0: 0586 6d3c fe9c 533d 2cb8 99bd 0ca8 bdbd
000000e0: c4b8 0e3d d2ec 0d3e d9d9 87bc e103 e5bc
000000f0: 0b51 733d 0976 0ebe 27d6 893d e41b 5b3d
00000100: 2311 abbd e6e8 a2bc 5310 143e 1577 60bd
00000110: 3149 803d f16c 7a3c 6262 c2bc 277d 0cbd
00000120: fd53 d9bc dd61 d3bc c37e 1b3d 00bc fdbc
00000130: 70b8 8f3d 3fa9 513d c378 6f3d 45a8 c0bd
00000140: c822 c23d 2b5b aa3c 371b 73bd 81f1 1a3e
00000150: 0c71 333c ca45 cbbd ab87 5b3c bd5a a33d
00000160: 4226 d7bd 5add f1ba 32d8 dcbd ede0 ad3d
00000170: 7878 a83c 09ac dabc 9fc4 34bb 3dd4 38bc
00000180: 06d4 98ba 5b3d b33d b097 8b3c 62fc 42bb
00000190: eccb 0ebb ac89 5ebd 9b9c 4d3d 0bcf a43c
000001a0: df3a 47bc 79f8 37bd acc5 86bd 6216 0c3d
000001b0: 5c61 803c 9fc3 58bd f3b8 a5bd f909 d13d
000001c0: 5da2 a9bb e516 e7bd 6eb7 c0b6 07f9 d63b
000001d0: 29a0 be3b f096 88bd ae10 d7bc c3e7 35bd
000001e0: 8fa7 14bd dff7 f7bb c71d 81bc 4c41 033d
000001f0: dfd9 963d 3fb1 d93d ac08 ad3d 47da a43c
00000200: 28ac bcbc 62a6 7e3d fed6 5f3d 5355 cdbc
00000210: dd67 ddba 90ee 6d3c bd41 f63c 40b1 d6bc
00000220: 70b2 8d3d e32c e03d adc6 073c 70b2 953c
00000230: 937e bd3d d647 863b b644 643d 97dd 9f3d
00000240: 289e 97bd 6919 fe3c bfe8 a1bd f95e 9a3d
00000250: dfb7 17bc df3f 4abd 38e7 ba3c 0521 973d
00000260: 5d7b 2f3c 3d95 923c 6c75 abbc e98f 033c
00000270: f880 0fbc 0759 993d d237 70bc 9643 253d
00000280: 9de3 7dbd 233b 293d 888d 02bd 62a0 d83d
00000290: d94c 4d3c 2b9a a63d 6b9e 8a3d b993 983c
000002a0: d424 e83b 9e82 07be 7f56 cc3a 2894 a23d
000002b0: e1da cd3c 6e32 663c eb78 033b ae8d e3bb
000002c0: cff5 283d c324 c43d 8b66 30bd 8ac9 b53a
000002d0: de90 b83c f129 073d 915b d4bc d488 76bd
000002e0: d3d9 dfbd 706b 98bc b41b 1c3d bf2d 0e3e
000002f0: 3c99 d1bc dd64 f23c e8cf 06bc efc1 a5bc
00000300: 3adf 48bc fed2 f23d bbc5 d2bd c208 c23d
00000310: 731a 863c 83cb 983c 8f25 15bd 6438 b03d
00000320: 6737 d33d 6fe2 cbbd 35ae 923c 6d32 4c3d
00000330: 01a5 bdbd 3069 abbd c57b dabc 7cae 1abc
00000340: 1081 2d3d c672 893d f8bb e4bc fd48 e9bc
00000350: 8328 e73d 2f0a 81ba f7f6 dbbb 01d6 a23c
00000360: adfc 90bc 38bf 03bc f182 3f3d a060 f3bd
00000370: 3e0f 583d 30c8 403d 0154 883d 4b52 3d3d
00000380: 52ff 5dbc 5a00 b33d 33e7 4fbb 1021 943c
00000390: 7f96 dc3c 9cc6 743d c25e a5bd df0e d5bd
000003a0: 9874 723c ae44 613b 6dca 863d c764 983d
000003b0: 26b3 653d cd26 df3c abe6 003e f197 c13d
000003c0: 6665 f53c 6b1f 863c 2daf c03c 9b28 843d
000003d0: b261 5dbd 06ce f83d feb9 483c 4992 8bba
000003e0: 97b0 bb3c 8d57 08bd 7557 8abd 33d5 c1bd
000003f0: 6354 a03d 0d72 a7bc 139d d53d b525 5b3d
-0.08342214 -0.0017447642 -0.025882151 -0.0365176 0.05261964 -0.0852035 -0.020819964 -0.022643799
0.030622799 -0.02227695 -0.06662118 -0.060669255 0.09873821 0.046409566 -0.01253901 -0.015149866
0.014958212 -0.057530537 0.038462818 -0.04569459 -0.0723449 -0.0061027994 -0.06759329 -0.024844617
-0.056866724 -0.014622498 0.032306816 0.026377255 -0.020687765 -0.0044273045 0.057028152 0.06443164
0.086264305 -0.056119 0.07017085 -0.043970305 0.06849579 0.09847079 0.010904553 0.04721242
-0.10178895 0.06785636 0.018734718 -0.08208269 -0.049739763 0.00054986915 0.05246494 0.008982039
0.036045454 -0.0033816462 -0.04175416 -0.043788277 0.014497285 0.05166339 -0.07505831 -0.09260568
0.034844175 0.13859871 -0.01658337 -0.027955951 0.05940346 -0.13912214 0.067302994 0.053493395
-0.08352878 -0.019886445 0.14459352 -0.054801065 0.0626396 0.015284763 -0.023728553 -0.034299042
-0.026529307 -0.0258035 0.037962686 -0.030973434 0.070176005 0.051186796 0.058464777 -0.09407095
0.0947929 0.020795425 -0.059352126 0.15131189 0.010952245 -0.099254206 0.013399045 0.07976291
-0.10505344 -0.0018452809 -0.107834235 0.08490167 0.020565256 -0.02669336 -0.0027583016 -0.01128107
-0.0011659868 0.08751937 0.017040104 -0.0029752483 -0.0021789027 -0.054330513 0.05019818 0.020118257
-0.012160032 -0.044914696 -0.06580672 0.034201033 0.015671425 -0.052920934 -0.08091917 0.1020698
-0.005176826 -0.11283664 -5.7434e-06 0.006560448 0.0058174324 -0.06669414 -0.02625307 -0.04441048
-0.03629261 -0.0075673903 -0.01576127 0.032044694 0.07365774 0.1062951 0.0844892 0.020123614
-0.02303131 0.062170394 0.054648392 -0.0250651 -0.0016891916 0.01452221 0.030060643 -0.026207566
0.069188 0.109460615 0.008287114 0.018273562 0.09252658 0.004097919 0.05572959 0.07805937
-0.07403213 0.031017976 -0.07905721 0.07537646 -0.009260147 -0.04937732 0.022815332 0.07379345
0.010710564 0.017893428 -0.020930015 0.008029916 -0.008758776 0.07487684 -0.014661746 0.040347658
-0.061984647 0.041316163 -0.031873256 0.105774656 0.012530529 0.08134874 0.06768497 0.018625127
0.0070844684 -0.1323342 0.0015589743 0.07938415 0.025128784 0.014050109 0.0020061086 -0.00694438
0.041250046 0.09577324 -0.043066543 0.0013869267 0.022530016 0.032998983 -0.025922569 -0.060189083
-0.109302185 -0.018605918 0.038112357 0.13884638 -0.025585763 0.029589111 -0.00822828 -0.020234076
-0.012260253 0.1185665 -0.1029162 0.09474327 0.016370034 0.01865173 -0.03641277 0.08604506
0.103133015 -0.09955298 0.017905334 0.049852777 -0.092599876 -0.08369672 -0.026670346 -0.009441014
0.04235941 0.067113444 -0.027921662 -0.028477186 0.11287024 -0.0009844954 -0.00671279 0.019877436
-0.01769861 -0.008041196 0.046755735 -0.11883664 0.05274891 0.047065914 0.066566475 0.04622106
-0.013549643 0.087403014 -0.0031723499 0.018082172 0.02692723 0.05975972 -0.08074714 -0.10403227
0.014798306 0.0034373212 0.065815784 0.07441097 0.056079052 0.027240181 0.12587993 0.09452809
0.029955577 0.016372403 0.02352103 0.064530574 -0.054048248 0.12148671 0.012251375 -0.0010648455
0.022911353 -0.03328662 -0.06754962 -0.09464493 0.078285955 -0.020440126 0.1043035 0.053502757

network_body._body_endoder.seq_layers.2.bias f4 [256]
00000000: 3e46 1c3d e4d9 4c38 8f14 1d3d c6b5 ff3c
00000010: b7ce 33bd f32a 0f3d 7c07 cc3c a96c 183d
00000020: 23dc febc c31f 2abc 5069 97ba a2c4 1d3d
00000030: 77ff 0b3d 52ec 183d d6fa 123d 0a89 433c
00000040: 6cf6 2dbc 6dd4 42bd f0bf f73c a945 45bd
00000050: c159 12bd 2c84 233c 3b78 8439 0212 45bd
00000060: 9605 343d 402f 413d b61f 98ba b951 1f3d
00000070: 97bf 243d 2fdb 26bd 6e27 3dbb 6e90 4abd
00000080: ffc8 243d abef 4dbd 04b1 1f3d a3fb 39bd
00000090: 852e 1b3d 9926 15bd 7614 2a3d 1bbf 3ebd
000000a0: df85 e83c 057a 9d3c 6bc6 753c e6d7 b1bc
000000b0: cfb0 123c 64e3 113d df04 7f3c 5c9f c23c
000000c0: d125 2d3d 5df9 3ebd 7ca9 48bd 15ec 203d
000000d0: 8ec0 4fbd abb8 033d a331 673c 53a9 49bd
000000e0: 2cdb 263d fb33 23bd ad95 ea3c 40b1 4abd
000000f0: 9a6f 2e3d 8f67 82bd ccbd 2a3d 9e74 18bd
00000100: 57a5 143d 8890 e03c 86ee 253d 8c6c a63c
00000110: 3977 363d ff2d 253d 5d30 f63c 37ac 013d
00000120: bdd9 fabc 7d9f 24bd c523 ff3c 62ee f2bc
00000130: bd16 c8bc 0521 ecbc 9097 56bd a11d bc3c
00000140: ff0f 3a3d 6ccc 18bd 0b74 e3bc 8b17 153d
00000150: d9d4 f13c d85d 39bd a378 e73c f14a 283d
00000160: ba82 1a3d ec9c d73c 276e c3bc 2a35 193c
00000170: 854f 093d 57c5 0d3d 0e5d 50bd a6ea 613d
00000180: 2aac 023d b94a 7f3b 94e5 fe3c a566 d9ba
00000190: 06d5 8ebb bdac 113d 87a3 8e3c 5525 6e3c
000001a0: ba80 e63c fe3d 363d d8a7 1d3d bb5e 113c
000001b0: 3d7d 1e3d 66e5 193d d18f 34bd a24d fc3c
000001c0: ac88 d1bc 8b0a 9b3c a323 0f3d fbe6 60bd
000001d0: e455 093d f3d6 063d cda5 f73c 3621 2a3d
000001e0: 3252 323d 8ed5 21bd bcd3 c33c d447 303d
000001f0: 2e29 853c 1373 48bd 75d9 103d f819 f4bb
00000200: 4f3f 50bd d370 0b3d 10b6 193d 8b43 a43c
00000210: 7e56 243d c983 32bc 499e 263d 5cd7 36bd
00000220: 9eeb 0f3d cc74 233d 041a 383d d376 0cbd
00000230: 02d6 9b3c af18 0abd 2ef1 1c3d 0bd9 1f3d
00000240: df5d ba3c be28 ac3c fc0d ebbc 48fa c53b
00000250: f693 2c3c 78ca f7bb ba24 68bd 8dac 1dbd
00000260: f9e0 2e3d 3890 26bd 3a67 c43c 379c dc3c
00000270: 9f5e 7f3c 25bd 9e3c b17e 1d3d 75da 043d
00000280: 668a ef3c 98f4 163d e527 46bd e1e9 56bd
00000290: 20be 2bbd 76de 47bd 3d32 e93c c5c2 e439
000002a0: b0c5 33bb 7c5a 993b 7769 e83c aa9b b6bb
000002b0: 7b26 013d 9dbf d63c 9c34 50bd 2809 2ebd
000002c0: 3a78 0a3d 4b01 933c 4314 e93c 179e 3ebd
000002d0: 04c5 4ebd d5f2 20bd 6200 e53c 1a7b 203d
000002e0: 075b c73c 23c4 4bbd 4a9f 90bc a359 59bd
000002f0: 58a0 293d b504 cabb 1a85 3ebd d018 2dbd
00000300: 3ced 043d 8021 813c 5ada 153d 0dda 58bd
00000310: 2bea 39bd d418 56bd 220a debc 473a 123d
00000320: 7535 f93c f718 443d 69e3 d73b 7d6e 1dbd
00000330: 6648 61bc f3e8 213d 05fb 70b9 bad6 1f3d
00000340: 618e b53c 1a2d b33c fc44 c8bc 973b 56bd
00000350: d2c9 1e3d 012f 383d c26d 163d ef0e 1e3d
00000360: 2a5f 3cbd e6f6 103d 1a99 2c3d d32d 243d
00000370: 9336 22bd 823e 91bb 0ac0 a6bc 4bff 7cbd
00000380: 5a1b c23c 6462 203d 26ad ef3c d73d 133d
00000390: bf02 bb3c 7341 0a3d 260b 0dbc 311f 3cbd
000003a0: 2021 db3c 8544 58bd 7589 2bbd 9a6b 263d
000003b0: b6ff 44bd 895b c2bc 3b5d 51bd f538 223d
000003c0: 4eed 983c 0126 2b3d ad63 ca3c 498f 0c3d
000003d0: d15b 2c3d e813 163d ef8f d2bc 651a 2c3d
000003e0: c30e 2c3d d05c 50bd ae5a 69bd c781 0b3d
000003f0: 0e22 31bd ba6b 6cbd 25c4 fdbc 8f43 6cbd
0.038152926 4.8840317e-05 0.038349684 0.031214606 -0.04389831 0.03495307 0.024905913 0.037213
-0.031110829 -0.010383549 -0.0011551771 0.0385176 0.034179177 0.037334748 0.035883747 0.011934528
-0.010617834 -0.047565866 0.03024289 -0.048162136 -0.035730127 0.009980243 0.0002526658 -0.048112877
0.04395064 0.0471642 -0.001160613 0.038896296 0.040221777 -0.040736374 -0.0028862613 -0.049454145
0.040230747 -0.050277393 0.038987175 -0.045405995 0.03788616 -0.036413763 0.04152342 -0.04656897
0.028384147 0.019223223 0.01500092 -0.021709394 0.008953287 0.035617247 0.015565126 0.02375763
0.042272393 -0.04662453 -0.048989758 0.039287645 -0.050720744 0.032158535 0.014110955 -0.049233746
0.040736362 -0.039844494 0.028635824 -0.049485445 0.0425869 -0.063674085 0.04168491 -0.03722059
0.036290493 0.027412668 0.040510677 0.020315431 0.044547293 0.04032707 0.030052358 0.031658377
-0.030621404 -0.040191162 0.031144986 -0.029654685 -0.024424905 -0.028824339 -0.052390635 0.022963347
0.04542541 -0.037304327 -0.027765295 0.036399405 0.029520439 -0.045255512 0.028255766 0.041087095
0.037722327 0.026319943 -0.023856236 0.009351054 0.0335231 0.034612026 -0.050869994 0.05515542
0.03190247 0.003895445 0.03111533 -0.0016586377 -0.0043588905 0.035565127 0.01741196 0.014535268
0.028137553 0.044492714 0.038490146 0.008872683 0.038693655 0.037572287 -0.044082467 0.030798737
-0.025577866 0.018925926 0.034946095 -0.05490778 0.033529177 0.032919835 0.030230427 0.04153558
0.04353542 -0.039510302 0.023904674 0.04303725 0.016254988 -0.04893787 0.035363633 -0.007449385
-0.050841626 0.034043144 0.037527144 0.020051738 0.040121548 -0.010895678 0.040678296 -0.044638976
0.03513681 0.039906308 0.044946685 -0.034293007 0.019022945 -0.033714946 0.038315944 0.039025348
0.02274984 0.021015521 -0.028693192 0.0060417987 0.0105333235 -0.007561978 -0.05667565 -0.038494635
0.04269502 -0.04066488 0.023975004 0.026929958 0.015586524 0.0193773 0.0384509 0.0324349
0.029240798 0.036854357 -0.04837789 -0.052469138 -0.041929364 -0.04879614 0.028466338 0.00043632663
-0.0027431063 0.004679976 0.028370602 -0.005572756 0.03153084 0.026214415 -0.050831422 -0.0424892
0.033806063 0.017944952 0.028452044 -0.046537485 -0.050480857 -0.039294083 0.027954284 0.0391799
0.024335397 -0.049747597 -0.01765408 -0.053064 0.04141268 -0.006165112 -0.046513654 -0.04225999
0.032452807 0.015763044 0.03658519 -0.052942324 -0.045389336 -0.05226977 -0.027104441 0.03570011
0.030420998 0.04787537 0.0065883887 -0.038435448 -0.013750171 0.0395288 -0.00022981696 0.03902314
0.022162618 0.021872092 -0.024446957 -0.052302923 0.03876669 0.0449667 0.036725767 0.03858846
-0.045989193 0.03539171 0.042138197 0.040082764 -0.039602827 -0.0044325003 -0.020355243 -0.061766904
0.023694683 0.039156333 0.029257368 0.035947647 0.022828458 0.033753823 -0.008608615 -0.045928184
0.026749194 -0.05279972 -0.041879136 0.04062996 -0.048095427 -0.023725288 -0.051114302 0.0396051
0.018667843 0.04178429 0.024705732 0.034316335 0.04207975 0.036640078 -0.025703399 0.04201736
0.042006265 -0.050869763 -0.056971245 0.034059312 -0.043245368 -0.057719924 -0.030977318 -0.057681616

network_body._body_endoder.seq_layers.4.weight f4 [256, 256]
00000000: 36a8 ad3c 51a2 b53d 5c80 85bd ebbe 0e3d
00000010: 8b1d 2e3e 2460 b7bb 055b 59bd 820a 2abd
00000020: 21d0 833c 59e5 873d 3ffe 2b3d 56c5 853d
00000030: b05e 86bc dcc0 353d a4a4 8bbd eda9 1a3c
00000040: 3357 78bc 5841 263d 129c 9d3d 2dc0 b7bd
00000050: 7fe8 47bd 753e ca3c f465 543d f502 053d
00000060: abb0 cb3b 48b8 d9bd 4175 253e 41f5 823d
00000070: 5ef7 1fbd 5bb0 0abd 8f26 f6bc 6fa4 183d
00000080: e240 2b3d d820 243d 11f2 613b 2d01 de3d
00000090: 1d5d 233d a9df 473c eeff 9a3d c9de ccbc
000000a0: a492 83bd 4e2f 4a3d 8e83 c7bb 2b3e 51bd
000000b0: 1176 0d3c 428d d2bd c8e7 96bb f30e 803c
000000c0: 8ac0 273d 8277 0fbd 9b58 2b3a 2aad e0bc
000000d0: ac0b b53b 3589 ebbc 19ee 9d3c 59ac f3bd
000000e0: d86d d6bd f35d 01bd c168 0bbe ae92 1fbe
000000f0: 7f1c 49bd b210 ba3c 50d2 56bd c338 98bd
00000100: 2a49 c93c dd9a ef3d cfcc e8bd 4402 e13c
00000110: 8749 4dba 7001 4f3e 2204 da3c d076 a1bd
00000120: b5d7 7bbd 4200 6bbc 8fce f23b c70d 3dbd
00000130: 111c ac3d 96e4 99bc fb34 6abb 0f30 3e3b
00000140: 9422 0ebd b049 60bd fe35 c23d 47d2 0b3d
00000150: a5af 5cbd d805 173b ad06 053e 683d dfbc
00000160: c08d 6abc 4541 a0bc fdcd bdbc dd8d cebb
00000170: feea 843d dc31 fe3b b522 01be 2189 c4bc
00000180: 6490 b03c bde5 82bc 9c66 073d 5e72 da3d
00000190: 7342 99bd e79d 83bd 5933 0b3d 9b97 063c
000001a0: c365 f63c 608f 9ebd 6d43 9f3d c796 04bd
000001b0: 1eb9 d03d 5c28 e73d db44 6bbd fb32 b5bc
000001c0: e3c2 233d ce88 4cbd 19ae 35bd 5efd 9d3d
000001d0: 9494 0b3e 2ead 96bd cd94 c6bb 33a6 dabc
000001e0: 7108 a5bd 8bf2 a5bd c495 983d 553d a3bc
000001f0: 7e24 91bc 6416 bc3c 3644 0abc 36b8 763c
00000200: 65c7 1abd b1fc 4abd ee17 be3d 38f4 343d
00000210: b79f d03c 9c0e aabc c0f5 093e 26be e8bb
00000220: fb62 8dbd 92cc 9c3c bcb1 56bd 27d4 1a3d
00000230: f894 62bd 063b d23d de84 93bd 52d7 59bd
00000240: 9c1d b7ba fd4e 53bd ce7f 553d 7a31 bfbc
00000250: 52a3 e1bb df18 c13d 562c dbbb f40a 6e3c
00000260: 5577 37bd d913 4d3c 9021 c23d 9e19 41bd
00000270: 9e30 993d 9e47 513d 0303 09bd fd76 7dbd
00000280: 2ce0 613d b49a e43d 2650 03bd ab9c 953c
00000290: 3cc3 f63d 0779 f3ba 3de1 62bc d50f bd3d
000002a0: 3244 86bc d76e 163d 9a95 1d3d 9aea 743d
000002b0: 5a88 adbd fffd 573d 66c7 63bc 1c38 243c
000002c0: 62d9 79bc 6d32 34bc f9c7 6c3d 1d72 62bd
000002d0: 0e89 a0bc 712b d2bc aec9 17bd b0f1 7b3d
000002e0: b686 2bbe 2ea8 debd e359 123d 25d6 f8bc
000002f0: 064a 573e 090b 823c b255 d53c d134 03be
00000300: b517 a93d 8187 be3d 60ab 62bb feb3 8dbd
00000310: b3a4 14be 1c36 3d3d 0b79 81bc 8530 8d3c
00000320: 9715 b3bd 48f4 63bd 69ec 6b3b 7f7b 9d3c
00000330: 168a 13bc ead1 ccbc 76ff 8ebd 5bfe 54bd
00000340: 82af b73d d3e6 74bd b7bf 003d 733f 963b
00000350: 866e 853d 1434 4dbd 9bc5 72bc 4eea 32bd
00000360: 5d6c b23c f90f 8c3d 18ad bcbd c8e1 ac3d
00000370: 5557 dfbd 6e08 86bd dc79 87bc 56b3 6b3d
00000380: 6cd7 acbc 03ac f13b dc4f 413d 784d 3d3d
00000390: b381 033e 8b58 05bb d424 04bd 84e0 043e
000003a0: 8f77 b5bd 469f d0bb 9fca d13c 4b4a 643d
000003b0: 00ab 913d c41b 8bbd 9f29 ae3d 8975 783d
000003c0: ed82 21bc 6e67 00bd 65df 8b3d 4e2e aabd
000003d0: f2f2 8eba cea3 5abd d0be 853d 647d a73c
000003e0: e9c6 c4bd dba5 a9bd aa10 a73d 53cd 51bd
000003f0: 6f33 53bd d54c 5c3d 9112 9cbd 12df 19bd
0.021198373 0.0886885 -0.06518623 0.034850042 0.17003457 -0.0055961777 -0.05306532 -0.041513927
0.016090455 0.066355415 0.041990515 0.065317795 -0.016402572 0.04437338 -0.06818512 0.0094399275
-0.015157509 0.04058966 0.07695784 -0.089722015 -0.04880571 0.024687985 0.051855043 0.032473523
0.006216129 -0.10630852 0.1615801 0.06394435 -0.039054267 -0.033859592 -0.030047683 0.03726619
0.041809924 0.040070385 0.0034476558 0.10840068 0.03988372 0.012199321 0.07568346 -0.025008576
-0.06424454 0.04936152 -0.0060886806 -0.05108468 0.008634106 -0.10280849 -0.004605267 0.015632128
0.040955104 -0.03502608 0.00065363356 -0.027426321 0.005525073 -0.028751949 0.019278573 -0.11898107
-0.1047017 -0.031583738 -0.13614179 -0.15583298 -0.04909944 0.02271304 -0.052446663 -0.074327014
0.02457102 0.1169946 -0.11367189 0.0274669 -0.0007831086 0.20215392 0.026613299 -0.0788399
-0.06148501 -0.014343323 0.0074098776 -0.046155717 0.08403791 -0.018785756 -0.0035737145 0.0029020344
-0.034700945 -0.054757774 0.094829544 0.034136083 -0.053878445 0.0023044255 0.12990828 -0.02725096
-0.014316022 -0.019562373 -0.023169512 -0.0063035325 0.06490134 0.0077574085 -0.12610896 -0.02399117
0.021553226 -0.015978688 0.03305684 0.10666345 -0.07483377 -0.06426602 0.033984516 0.0082148565
0.03007782 -0.0774219 0.07776532 -0.032370355 0.10191558 0.11286995 -0.057438713 -0.022119036
0.03998078 -0.049935155 -0.044355486 0.077143416 0.13630897 -0.0735725 -0.006060219 -0.026690578
-0.08058251 -0.08102902 0.074504405 -0.019926706 -0.017717596 0.022959895 -0.008439114 0.015058568
-0.037787814 -0.04955739 0.09281908 0.044178218 0.025466783 -0.02075892 0.13472652 -0.0071027456
-0.06903645 0.019140515 -0.052415594 0.03779998 -0.05531785 0.10265164 -0.07203077 -0.05318386
-0.0013970616 -0.051589 0.052123837 -0.023339022 -0.0068859244 0.09428572 -0.006688635 0.014528979
-0.04479154 0.012516939 0.09479058 -0.04714357 0.07479976 0.05109369 -0.033450138 -0.061881054
0.055145428 0.1116232 -0.032058857 0.018263182 0.12048957 -0.0018575498 -0.013847646 0.09231535
-0.01638994 0.0367268 0.03847275 0.059794046 -0.084732726 0.052732464 -0.013902521 0.010023143
-0.015249582 -0.010998351 0.057807896 -0.05528461 -0.019596603 -0.02565548 -0.03705757 0.061509788
-0.16750607 -0.108719215 0.035730254 -0.03037555 0.21024331 0.015874403 0.02604184 -0.12813117
0.08256475 0.09303189 -0.003458701 -0.069190964 -0.14515953 0.04619418 -0.015804788 0.01723505
-0.08744352 -0.055652887 0.0035999066 0.019223927 -0.00900509 -0.025002439 -0.06982319 -0.052000385
0.08969022 -0.059790444 0.031432834 0.0045852005 0.06515221 -0.050098494 -0.014817621 -0.04368048
0.021780187 0.06838984 -0.092127025 0.08441502 -0.10905329 -0.065445766 -0.0165376 0.057544075
-0.021098815 0.0073752417 0.0471953 0.046216458 0.12842445 -0.0020346965 -0.032261685 0.12976271
-0.088606946 -0.006366643 0.025609313 0.055734914 0.07112694 -0.06792405 0.08504032 0.060658965
-0.009857875 -0.03134864 0.068297185 -0.08309613 -0.0010906144 -0.053378873 0.06530535 0.020445533
-0.096082516 -0.082835875 0.08157475 -0.051221203 -0.051562723 0.05378421 -0.07620729 -0.037566252

network_body._body_endoder.seq_layers.4.bias f4 [256]
00000000: 6acd 243c fa1f 073d 2cc6 2fbc f574 5fbc
00000010: f653 1cbd 5c3c b73c 8f0c f53c b82a 0fbb
00000020: d401 76bc dd7a d43c 9053 d33c 0682 ea3c
00000030: 284e 1fbd 4ca5 29bd cf8b 9f3c 2d48 be3c
00000040: 6827 a1bc 2201 e9bc b8ce f4bc 0c2e 9a3c
00000050: 4367 adbc 295d 983c 94ac fdbc 4aee d53c
00000060: 4044 ec3b ce13 eaba 17fa f9bc 7011 c0bc
00000070: cbec 0339 7b3b b03c ea1e ef3c 0a2a cb3c
00000080: 48cc a2bc 437a c6bc c4cd bb3c 91fd b2bc
00000090: b577 00bd 41c2 1dbd 447a 883c 9b43 fabc
000000a0: 6868 c8bc 44ae b43c 5253 ce3c 2786 c73c
000000b0: e983 ecbc 356e 6f3c 57b3 05bd a8fb 973c
000000c0: 389c a0bc ba50 b03b 5ac7 30bd 1ee1 d0bb
000000d0: 65bc e5bc 455c aa3c 202f 073d 9401 eabb
000000e0: 1971 c9bc 7b52 58bd 9f54 e2bc e243 3fbb
000000f0: 422f c5bc 570b ebbc 39f2 cf3c 4668 9f3c
00000100: 3827 4fbd fdde e2bc 4618 1a3c 9104 cebc
00000110: 8b4b 17ba cfc3 2fbd beba 15bd ca7b fabc
00000120: 080d c43c 84ee d8bc 4a22 01bc 2a1e 69bc
00000130: 290d fdbc 7814 03bd 9eae 28bd f505 c23c
00000140: e350 8c3c 78c0 25bd 726a a43c 5b71 8d3c
00000150: 0537 973c 5851 0bbd 5b08 eebc 9133 d93c
00000160: 5b35 cabc 6359 953c 40fd 19bc 1381 b83c
00000170: 43ad 39bd 8147 0fbd 96e6 42bc 7dea da3c
00000180: bf39 0abd 71e8 03bd 0342 fcbb 504d 69bc
00000190: 3f63 4d3c 8f6a a8bc bb2d d03a 4440 c33c
000001a0: 3592 733b 32e0 cfbc bd10 d83c ebd0 323c
000001b0: 728b 46bd 27ac aebb 4557 833b bf10 f8bc
000001c0: 77f7 d3bc 6d74 30bd 27df aa3c 92dc 0e3d
000001d0: e3e3 f83c f423 a93c 0c3f 1f3c 9246 2fbd
000001e0: 9d07 1cbd 3c5b 35bc 0e6a c63c 774f d2bc
000001f0: f3f2 f63c 4edf c5bc ba91 14bd 0fa7 bd3c
00000200: bb92 3a3c 6acb 1ebc 45b7 c6bc 347c 6c3b
00000210: 7e1f cf3c dd9f 7ebc ec8b 373d 8d9a ed3c
00000220: 373c dcbc 0483 06bd e0a3 66bc f20c 09bd
00000230: 62d1 e03b 63b8 ea3c 9d39 d13c 6321 9cbc
00000240: cf76 e63c e317 2dbd 3b9f 16bd 96d4 cc3c
00000250: 9965 9e3c 0ec4 cf3c 3638 ab3c b4c2 353a
00000260: badf 6b3c 0a17 ec3c 0461 e83c 7b38 e6bc
00000270: 996e e43c 5344 d7bc 037d 793c 8932 cc3c
00000280: fd63 263c d0b9 853c fc12 563b 16b5 d53c
00000290: bc53 0c3c 2ba1 29bd 46ac d4bc 84a3 a23c
000002a0: 6aa5 393c 9b07 c03c 33bd ba3c 092c 18bd
000002b0: c932 f2bc 7ab2 c8ba 9a20 b7bc d603 25bd
000002c0: ad92 db3c 2da0 863c 4995 993c 0d2f 1dbb
000002d0: b088 933c 594e 09bd 016a fabc a1da bd3c
000002e0: be0b e83c 8b9c 873c 8c5f 3dbd 7d17 873c
000002f0: 32ff 33bd 4bc8 c73c eb11 c83c d8e3 85bc
00000300: 9cc1 dd3c 10e1 e23c 7aff 01bd 4801 c03c
00000310: 73c8 eabc ce43 d23c 608f d03c a7ee 02bd
00000320: 3c2e c53c 67c5 d83c 0d29 28bd 3889 1fbd
00000330: 68aa 083c 28f7 043d bc2b d63c f0a0 e33c
00000340: eedd 23bd b5a5 20bd 4c55 253c bc40 f43c
00000350: dd28 1cbd c189 4b3c c65f 043c 9694 193d
00000360: 7789 0ebc 3d62 11bd 0e6c c8bc 6987 ebbc
00000370: e980 cfbc 69df 503c 1263 ca3c f1ad df3c
00000380: 5920 16bd 2987 f9bc c084 8cbc 2579 08bd
00000390: 4efb f8bc a3a5 c5bc 146f e2bc 8ad5 e1bc
000003a0: 8abc dd3c 7c15 42bb 2a43 d23c 72b6 6a3c
000003b0: 6be7 01bd b84a 25bd 8091 07bb 171f 94bc
000003c0: d676 43bd b3d6 16bc 1111 7e3c 954b 1aba
000003d0: 2a96 c3bc d8c4 9b3c ab12 e53c b782 c63c
000003e0: 473f 0fbd 0eba 19bd 066c b13c f4f7 a9bc
000003f0: da9d 033d 37b6 fdbc 3b4c c9bc c4b2 b2bb
0.01005874 0.03298948 -0.0107284 -0.013638725 -0.03816601 0.022367649 0.029913215 -0.002184553
-0.015015084 0.025937492 0.025796682 0.028626453 -0.038892895 -0.041417405 0.019475846 0.023227775
-0.01967211 -0.028442923 -0.029883727 0.018820785 -0.021167403 0.01859911 -0.03096608 0.026114602
0.0072102845 -0.0017858685 -0.03051476 -0.023445815 0.00012581346 0.021512737 0.029189546 0.02480032
-0.0198728 -0.02422822 0.022925265 -0.021849426 -0.03136416 -0.038515333 0.016659863 -0.030549815
-0.024463847 0.022055753 0.025186215 0.024355961 -0.028871493 0.014613678 -0.032641735 0.018552616
-0.01960574 0.005380717 -0.043158866 -0.0063744923 -0.028043935 0.02079595 0.033003926 -0.0071413014
-0.024590062 -0.052813035 -0.027628241 -0.0029184748 -0.024070386 -0.02869193 0.025384055 0.019458901
-0.05057451 -0.02769422 0.009405201 -0.025148662 -0.00057714497 -0.042911347 -0.036555044 -0.030576605
0.023931995 -0.02648092 -0.00788171 -0.014228383 -0.030890064 -0.032001942 -0.041182153 0.023684481
0.017128414 -0.040466756 0.020070288 0.017265966 0.018458853 -0.034013122 -0.029056719 0.026513847
-0.024683645 0.0182311 -0.009398758 0.022522485 -0.04533125 -0.0349803 -0.011895796 0.02672314
-0.033746477 -0.032204095 -0.007698299 -0.014239624 0.012535869 -0.020558624 0.0015882769 0.023834355
0.0037166004 -0.02537546 0.026375169 0.010914068 -0.04847283 -0.0053305808 0.004008206 -0.030281423
-0.025874836 -0.043079782 0.02085836 0.03487832 0.030382102 0.020647027 0.009719621 -0.04279191
-0.038093198 -0.011069115 0.024220493 -0.025672657 0.030145144 -0.024154332 -0.03627179 0.023150949
0.011387522 -0.009692052 -0.024257312 0.0036084773 0.025283571 -0.015541044 0.044811174 0.02900436
-0.026884181 -0.03283979 -0.014077157 -0.03345961 0.006860898 0.028652376 0.025540167 -0.019058889
0.028132824 -0.04225911 -0.036772948 0.025003713 0.019335555 0.02536204 0.020900827 0.0006933615
0.014396602 0.02881958 0.028366573 -0.028103104 0.027884768 -0.026277697 0.015227559 0.02492644
0.010155675 0.016323954 0.0032665124 0.026087325 0.008564886 -0.041413467 -0.025961053 0.019853361
0.011330942 0.023441127 0.022795295 -0.03715137 -0.029565232 -0.0015311979 -0.022354413 -0.04028686
0.026803339 0.0164338 0.018747943 -0.0023984343 0.018009514 -0.033521984 -0.030568125 0.02317554
0.028325912 0.016554138 -0.0462337 0.016490692 -0.043944545 0.0243875 0.024422606 -0.016343996
0.02706986 0.027695209 -0.031737782 0.023438111 -0.028660035 0.025667097 0.025458992 -0.031965878
0.024069898 0.026461316 -0.041054774 -0.03894922 0.008341409 0.03246227 0.026143901 0.027786702
-0.04000657 -0.03922053 0.010091137 0.029816024 -0.038124908 0.01242298 0.008079475 0.03749522
-0.008699766 -0.035494078 -0.024465587 -0.028751092 -0.025330024 0.012748578 0.024705444 0.027304621
-0.036651943 -0.030459957 -0.017153144 -0.033318657 -0.030393269 -0.024126833 -0.027640857 -0.027567644
0.027067441 -0.0029614856 0.025666792 0.014325725 -0.031714838 -0.04035446 -0.002068609 -0.018081231
-0.047720753 -0.009206462 0.015506999 -0.00058858964 -0.023875315 0.01901476 0.027963003 0.024232252
-0.034972455 -0.03753095 0.021657955 -0.020748116 0.03213296 -0.030970676 -0.024572482 -0.0054534394

action_model._continuous_distribution.mu.weight f4 [2, 256]
00000000: 8e38 163b 5222 113a 930e f1bb 9a9e a7bb
00000010: 046d 7cbc 97a2 45bc 6581 59b9 e100 423c
00000020: 56c4 b53b fd1f b0ba 2eab 1ebb c30f f2b8
00000030: b9b5 a03b 9815 56bc 950e d2bb f9b3 99bc
00000040: 7011 fabb 6d51 e63b 2b16 d1bc 4451 d5ba
00000050: 596e 8dbc dc9d e438 8f15 903b 44ab ce3a
00000060: 0e61 52bc 4e81 8fbb 172f 6e3b d108 94bb
00000070: 9d7d 603c e6aa 41bc c618 36ba 9393 afbc
00000080: 0aad e6bb d8d0 2eba a916 e4bb d388 b83c
00000090: 927d 1fbb 8638 d0bc 0f44 8dbb 068c 59bc
000000a0: caad 733c b1e1 5b3a 3ee2 01bc e4d0 983c
000000b0: 5efe 313c 81fc 95b9 ffd7 0d3c 0b9e 8bbc
000000c0: d3c5 a2b9 8bb5 50bb 1db1 57bb 4501 c03b
000000d0: 3309 7c3c 6c9a 423c ccce 84bb cc07 563c
000000e0: 71ec 333b 2742 a3bb ef92 a3bb 34bb 09bc
000000f0: 989b 8dbb bcf6 b23c f501 cebb 18e5 1cbb
00000100: 5926 f73b 2d66 773b 0a31 6dbb 514d 713c
00000110: f6de 8ebb dcba 5fbb 1561 19bb d432 d43b
00000120: dd03 d93b 2424 f73b d17f 973b b618 80bc
00000130: 0612 15ba d4c6 2b3c 85d9 9a3c 890c 1d3b
00000140: e511 d6bc ed30 4a3b 0506 0f3c 77d8 d4bb
00000150: be27 a33b 8b2a 3dbc 19cd 8f3b 791d 533b
00000160: e39b 7b3c 9e86 8dbc a1ee e1bb c5ea e73c
00000170: 956d 5d3c 17fa 9d3b a921 633b 102e 513b
00000180: 9b2b 253c f1a3 633c c91b 7fbc 9c57 d8bc
00000190: 052b 45bb 4bed c4bb 604d b93b 615c 67bb
000001a0: 3325 25bc 6c7e e1bb cdd2 e43a 35dc 143c
000001b0: 81a3 8f3b 945a 8d3c 31ee 113b 7f27 8fbc
000001c0: b97c 4dbc a698 8bbc bfec e3bb ec81 963b
000001d0: 4aae f93b 7283 a03c eb84 ab3c 98f5 2bbb
000001e0: bf9d 3ebb 2fff bdbb 224c c8ba 498f 00bb
000001f0: 392e 84bb 192d 4fbc e289 5339 07fd 283b
00000200: ecb2 9637 3d70 113c c779 90bc bf02 81bc
00000210: a3d7 54ba 6192 67b8 30bd 3bbc 4eeb 8abb
00000220: 02dd 2f3c 80ca adbb a531 d8bb 4c8d acbc
00000230: 6067 1d3c 9ac4 663a f2a1 cf3a 3d6d 353a
00000240: 2361 f73a b74f ae3b d6ec 17bc 95a9 4b3c
00000250: 14d1 8ebc 2a03 813b ba60 883c 9489 c43c
00000260: c32d 09bb 1486 0d3b 5093 553c 4783 823c
00000270: d761 ae3b 7b21 fdbb 1e04 ae3b cfd1 633c
00000280: a969 c5bb b7b8 01bc 8091 273b 6886 70bb
00000290: dc5f d13a 6728 04bb 3953 1fba 13d9 6f3b
000002a0: 2aa1 b33b a0f9 f8bb 90d1 393c eebb 17bc
000002b0: e05e 04bc 1fd2 99bc ad71 87bb 7e9b 70bc
000002c0: 9877 88bb 0d01 11bc 18fc cb3b 3af1 aa3b
000002d0: 197e 0bbc 60af 1b3b 0949 593c dacd d2ba
000002e0: 89e8 90bc e18f 3d3c abe4 bb3a 37e9 57bc
000002f0: 8af3 efbb 1d65 c2bb 0539 013c 03f9 e93b
00000300: 3bf1 f03b a991 0b3c 3091 debb c587 27bb
00000310: c2db f43a b586 3c3a 6490 ffb8 6697 383c
00000320: ee05 15bc b227 193c 4760 193c 59c6 a03a
00000330: acf0 1bbb 5d4a 7cbc 050e 8dba 2191 f23b
00000340: fb00 85bb 0f02 613c c2d6 18bc 189c c63a
00000350: 794c 9b3c 384a 493b d5ad 0c3b 30bf 2fbb
00000360: 9cd5 83bc f49a a2bb 3ba6 c53b 357c 2cbc
00000370: 3275 8a3b 1bd2 8f3c 7d26 9fbb 689c d0ba
00000380: 7c19 09bc 8100 1a3b 7281 77bc dfe6 ef3a
00000390: d0c1 ac3b 1eba 8e3c d4ac 363c a3e5 273c
000003a0: b45f ac3b 12f4 fabb 00f0 4dba 627f 0cbc
000003b0: b92b a33c f918 373c b6f7 4a3b 5c6f 02bd
000003c0: e5d8 813b a886 ffbb 82ed 2a3c 234c 0b3c
000003d0: b23b aebb b007 03bc 64e4 01bc 88dc b5bb
000003e0: 4674 273b 0794 36bb adb0 c83b 28d7 173c
000003f0: 195f a53b 0690 3bbc f86e 67bc 2efa 183c
0.0022921893 0.0005536425 -0.0073564737 -0.0051153423 -0.015406851 -0.01206269 -0.00020742936 0.01184103
0.0055470867 -0.0013437268 -0.0024210918 -0.00011542395 0.0049044755 -0.013066672 -0.0064104297 -0.018762575
-0.0076314732 0.0070287497 -0.025523266 -0.0016274829 -0.017264532 0.00010901291 0.0043971012 0.0015767594
-0.012840522 -0.004379428 0.0036343986 -0.0045176526 0.013701824 -0.0118205305 -0.00069464406 -0.021432674
-0.007039671 -0.00066686934 -0.006960709 0.02252618 -0.002433632 -0.025417577 -0.0043110917 -0.013278013
0.0148729775 0.00083878177 -0.0079274755 0.018654294 0.0108638685 -0.00028607625 0.0086574545 -0.017043134
-0.00031046438 -0.003184649 -0.0032911964 0.0058595263 0.015383053 0.011877637 -0.0040529724 0.013063382
0.0027454162 -0.004982251 -0.004991881 -0.008406449 -0.0043215267 0.021846168 -0.0062868544 -0.0023940261
0.007542413 0.003775011 -0.003619256 0.014727906 -0.004360075 -0.0034138476 -0.0023403813 0.0064757857
0.006622775 0.00754215 0.004623391 -0.015636783 -0.00056865846 0.010484416 0.01890255 0.002396377
-0.02613158 0.0030851916 0.0087294625 -0.006495531 0.004979103 -0.011545788 0.004388463 0.0032213612
0.0153569905 -0.017276105 -0.006894902 0.028310189 0.013514896 0.004821073 0.0034657514 0.0031918325
0.010081197 0.013894067 -0.015570589 -0.026408963 -0.0030085456 -0.006009733 0.005654976 -0.0035302865
-0.01007967 -0.0068815257 0.0017457843 0.009085705 0.004383505 0.017255105 0.0022267217 -0.017474888
-0.012541943 -0.017040562 -0.0069557126 0.0045931246 0.007619654 0.019593928 0.020937404 -0.0026238915
-0.0029085723 -0.0057982425 -0.0015281478 -0.0019616655 -0.0040338305 -0.012645029 0.00020173893 0.0025785582
1.796471e-05 0.008876857 -0.017636193 -0.01574838 -0.00081192906 -5.5211018e-05 -0.01145868 -0.0042394763
0.010733845 -0.005303681 -0.006597715 -0.02106347 0.009607166 0.00088030996 0.001584111 0.000692088
0.0018873553 0.0053195613 -0.009272775 0.012430568 -0.01743368 0.0039371448 0.016647685 0.023991384
-0.0020931817 0.002159481 0.01303561 0.015931739 0.005321722 -0.0077249384 0.0053105494 0.013905003
-0.0060245586 -0.007917575 0.0025568902 -0.0036701206 0.0015974003 -0.0020165683 -0.000607777 0.0036597892
0.0054818587 -0.007598117 0.0113414675 -0.0092611145 -0.008079261 -0.018776951 -0.0041334243 -0.01468551
-0.0041646473 -0.008850348 0.0062251203 0.0052167447 -0.008513951 0.0023755655 0.013262042 -0.0016083077
-0.017689006 0.011569948 0.0014335116 -0.013178161 -0.0073227333 -0.005932464 0.00788713 0.00714028
0.0073529757 0.008518615 -0.00679221 -0.0025563103 0.0018681216 0.0007191704 -0.000121862424 0.011266565
-0.009095652 0.009347843 0.009361333 0.0012266143 -0.0023794575 -0.015398589 -0.0010761624 0.0074025546
-0.004058955 0.013733401 -0.009328546 0.0015152721 0.018957363 0.0030714404 0.0021465917 -0.0026816837
-0.016093068 -0.0049623195 0.006031779 -0.01052766 0.0042253966 0.01755624 -0.004856883 -0.0015915753
-0.008367892 0.0023498836 -0.015106546 0.0018303058 0.0052721277 0.017422732 0.011149604 0.010247621
0.005260432 -0.00765849 -0.0007855892 -0.008575292 0.01991831 0.011175388 0.00309704 -0.03184448
0.0039626234 -0.0077980347 0.010432603 0.008502039 -0.005317175 -0.007997438 -0.007927988 -0.005549971
0.0025551482 -0.0027859227 0.006124577 0.009267606 0.005046737 -0.011447912 -0.014125578 0.009336991

action_model._continuous_distribution.mu.bias f4 [2]
00000000: 605e cf3a 69a9 603a
0.0015820973 0.0008570166
