Assets/Anim/DefenderAgent_67.onnx (onnx, 566922 bytes, 17 tensors)

discrete_act_size_vector f4 [1, 2]
8.0 8.0
00000000: 0000 0041 0000 0041

network_body.observation_encoder.processors.0.normalizer.running_mean f4 [8]
-211.5697 0.0 0.45942786 -218.8594 0.0 -0.49578646 7.2897344 0.0
00000000: d891 53c3 0000 0000 213a eb3e 02dc 5ac3
00000010: 0000 0000 b9d7 fdbe 8145 e940 0000 0000

network_body._body_endoder.seq_layers.0.weight f4 [256, 8]
-0.76794964 -0.12901087 -0.19672386 0.21802032 -0.24414375 0.29358512 0.019451527 -0.053754035
0.25309417 -0.6590668 0.09748223 0.52740926 -0.36964515 -0.35451195 -0.36593896 -0.2946613
-0.11109388 -0.036101148 0.20779318 0.20356227 0.016261293 0.19204663 0.11640155 -0.4157788
0.55129987 0.02042146 -0.25803742 0.21471491 -0.0321635 -0.43959904 0.50617874 0.003647027
0.039554145 -0.26113716 0.2818851 0.7078956 0.29838496 0.074092366 -0.4111305 -0.34038326
-0.16753839 -0.26080686 0.050780345 0.18702757 0.47049004 0.1330447 -0.17430677 -0.0077370126
0.23547098 0.19459455 0.18954156 -0.2679522 0.19881625 -0.069103576 0.01167941 0.32600817
0.25146875 -0.44405296 -0.491487 -0.1672976 -1.0542734 0.04936174 0.38690296 0.16724615
1.0552888 -0.3073648 0.21236637 -0.23905244 -0.16712947 0.20916443 -0.2412232 0.10680396
0.35315043 -0.17759609 0.080484524 0.52125233 0.15497594 -0.46917272 0.048575778 -0.2083921
0.16935453 0.08660411 -0.2247357 -0.08746942 0.27205968 0.33715487 0.2412548 -0.28081945
-0.1632501 -0.2217281 -0.045055322 0.20357573 0.36533347 0.347036 0.076585405 -0.1803009
-0.13290083 0.050061695 -0.11225722 0.38455236 0.28100368 0.153595 0.13016488 -0.2174971
0.8405211 -0.0164897 -0.22043477 0.2253869 0.437032 0.23429585 -0.46482095 -0.20041986
-0.0012046118 -0.17511368 0.1256572 0.15276597 0.09494321 -0.34894815 -0.19058026 -0.60836154
0.028121704 -0.1228345 -0.6592845 -0.29502192 0.012095375 -0.16169843 -0.03781681 -0.22876549
-0.22382778 -0.22641017 0.15396178 -0.17955257 -0.2442524 0.07370935 0.009593108 -0.33057702
-0.4077021 0.14487201 0.06687185 0.25760338 -0.20516782 -0.19807924 -0.5039788 -0.47169504
-0.061534155 -0.2775654 -0.3532892 0.8249872 -0.10583122 -0.32569358 -0.5138235 -0.045109373
-0.14955342 -0.42182383 -0.63891435 0.13114724 0.27678388 0.064232625 -0.30597034 0.1911169
-0.03058159 0.29920593 0.16936022 0.5599317 0.114635274 -0.016443139 -0.14084157 -0.71635735
0.70422983 -0.6574654 0.5752895 0.2261148 0.15894774 -0.06327278 0.6969095 0.02895672
0.19572502 0.5464375 -0.13020107 0.5721281 -0.15193862 -0.3262603 0.051412668 0.8005143
-0.2638887 -0.05479253 -0.45132142 -0.010149281 0.08919589 0.020677622 -0.42879757 0.40653324
-0.009010198 -0.0024890457 -0.40298465 -0.07198118 0.14489707 -0.076670244 -0.019291596 -0.3541283
0.16531126 -0.14289892 0.072323985 0.015426274 -0.20106295 0.3263633 -0.050577164 -0.092802726
0.5807951 -0.0031637435 0.48278907 -0.13029425 -0.8323256 0.2624215 0.37152913 -0.6003514
0.15099868 -0.39410266 0.43706596 -0.87793016 0.5823208 0.017766217 -0.059830524 -0.4726914
-0.22484264 0.24541016 0.016001813 0.19649631 0.655323 0.31613058 -0.46266204 0.28479537
0.26387277 0.03968231 0.2633426 -0.46026817 0.021255199 0.1565585 0.4156752 -0.20719498
0.21983747 0.14225864 -0.07538499 0.46255922 -0.48492742 -0.41663414 0.6660193 0.039059587
0.42654306 0.52672184 -0.4793179 -0.54774374 0.4084058 0.08828651 -0.53238654 -0.30478793
00000000: 5998 44bf 6d1b 04be fb71 49be b840 5f3e
00000010: d200 7abe ca50 963e cf58 9f3c 312d 5cbd
00000020: 8f95 813e 9ab8 28bf c3a4 c73d 4b04 073f
00000030: 2142 bdbe 9782 b5be 5a5c bbbe d9dd 96be
00000040: 3085 e3bd ccde 13bd bcc7 543e a172 503e
00000050: 6736 853c dfa7 443e f063 ee3d f5e0 d4be
00000060: fd21 0d3f e84a a73c 7b1d 84be 3ade 5b3e
00000070: e0bd 03bd 2013 e1be ee94 013f f602 6f3b
00000080: 8703 223d c5b3 85be 3e53 903e a538 353f
00000090: eac5 983e bdbd 973d b27f d2be b746 aebe
000000a0: 2f8f 2bbe 7a88 85be 0dff 4f3d 2884 3f3e
000000b0: 12e4 f03e df3c 083e 797d 32be c486 fdbb
000000c0: 4e1f 713e cb43 473e 2f17 423e 0831 89be
000000d0: 7d96 4b3e 2d86 8dbd ff5a 3f3c 8bea a63e
000000e0: 83c0 803e e95a e3be 2fa4 fbbe 1050 2bbe
000000f0: 6ef2 86bf 892f 4a3d 2518 c63e 9342 2b3e
00000100: b413 873f eb5e 9dbe 9276 593e 2aca 74be
00000110: fd23 2bbe 332f 563e 3703 77be 09bc da3d
00000120: 22d0 b43e c0db 35be 12d5 a43d cb70 053f
00000130: 03b2 1e3e 6837 f0be 65f7 463d bd64 55be
00000140: 466b 2d3e 7f5d b13d 1e21 66be 2b23 b3bd
00000150: 684b 8b3e 909f ac3e 800b 773e 91c7 8fbe
00000160: 092b 27be b10c 63be ee8b 38bd 2876 503e
00000170: fd0c bb3e b4ae b13e cfd8 9c3d cda0 38be
00000180: 2817 08be 7e0d 4d3d 1de7 e5bd 0ce4 c43e
00000190: b7df 8f3e 0248 1d3e f149 053e 8fb7 5ebe
000001a0: 642c 573f 6815 87bc a7b9 61be d3cb 663e
000001b0: a9c2 df3e 40eb 6f3e 03fd edbe dd3a 4dbe
000001c0: 11e4 9dba 0051 33be 48ac 003e af6e 1c3e
000001d0: 9671 c23d 55a9 b2be 7927 43be 95bd 1bbf
000001e0: 7d5f e63c a890 fbbd dec6 28bf 1d0d 97be
000001f0: ae2b 463c 4694 25be cde5 1abd 8041 6abe
00000200: 1c33 65be 11d8 67be 28a8 1d3e a1dc 37be
00000210: 4d1d 7abe edf4 963d 692c 1d3c 6441 a9be
00000220: 54be d0be 5459 143e 1cf4 883d 97e4 833e
00000230: 8317 52be 49d5 4abe c104 01bf 0382 f1be
00000240: 3d0b 7cbd 0d1d 8ebe 52e2 b4be 5c32 533f
00000250: 0abe d8bd 4fc1 a6be f089 03bf 9bc4 38bd
00000260: 8824 19be 4bf9 d7be e48f 23bf 764b 063e
00000270: 9eb6 8d3e 658c 833d 25a8 9cbe 26b4 433e
00000280: 3e86 fabc 8531 993e c46c 2d3e af57 0f3f
00000290: e6c5 ea3d c3b3 86bc c638 10be 3263 37bf
000002a0: 6848 343f a74f 28bf 2c46 133f a38a 673e
000002b0: 32c3 223e 2995 81bd a968 323f a536 ed3c
000002c0: 246c 483e 54e3 0b3f 6e53 05be fd76 123f
000002d0: cc95 1bbe 970b a7be 1796 523d 81ee 4c3f
000002e0: 6b1c 87be 226e 60bd 9a13 e7be 2b49 26bc
000002f0: 56ac b63d 1e64 a93c 5b8b dbbe 2025 d03e
00000300: 829f 13bc 421f 23bb 0154 cebe de6a 93bd
00000310: e65f 143e 4a05 9dbd 6909 9ebc 4e50 b5be
00000320: 5b47 293e 1854 12be 991e 943d 7cbe 7c3c
00000330: 72e3 4dbe 1719 a73e 002a 4fbd 5b0f bebd
00000340: fdae 143f cf56 4fbb 2130 f73e db6b 05be
00000350: 4a13 55bf 1c5c 863e 1139 be3e a1b0 19bf
00000360: 669f 1a3e d3c7 c9be 1cc7 df3e 08c0 60bf
00000370: fa12 153f 758a 913c da10 75bd 9b04 f2be
00000380: 263d 66be cd4c 7b3e 3c16 833c 5436 493e
00000390: 40c3 273f dedb a13e 0ae2 ecbe b3d0 913e
000003a0: 551a 873e eb89 223d d7d4 863e 45a8 ebbe
000003b0: 621f ae3c df50 203e 61d3 d43e ec2a 54be
000003c0: 131d 613e 40ac 113e 7263 9abd 90d4 ec3e
000003d0: 6848 f8be 1251 d5be 3e80 2a3f f2fc 1f3d
000003e0: da63 da3e 3ed7 063f 2869 f5be ef38 0cbf
000003f0: 911a d13e 8fcf b43d 7c4a 08bf 2a0d 9cbe

network_body._body_endoder.seq_layers.0.bias f4 [256]
0.022894481 0.055610523 0.059382536 0.062037583 0.04824246 0.0008572099 0.012937264 -0.045809887
0.064247265 0.066913664 0.05871581 0.027756352 -0.060226258 -0.04576135 0.06286151 0.03231779
0.058047507 0.02784992 0.047249407 0.049795948 0.05993541 0.06558355 0.016020935 0.038131338
-0.057280593 -0.047322094 0.045364387 0.054248977 -0.01711126 0.0048442576 0.067252494 -0.03083678
0.044641342 0.04836825 0.018530855 0.04674792 0.03486272 0.058688413 0.012525996 0.06506594
0.06406217 -0.0017182742 0.049412288 0.05794679 0.009343272 0.056332555 0.03472571 0.05147374
0.06067833 0.053056665 0.054744635 0.03637648 0.035201136 0.004956307 -0.022411427 -0.04007226
0.058987457 0.013817028 -0.037934262 0.030286798 -0.057224244 0.063432 0.014560185 0.056983672
0.03274512 0.063538186 0.01652331 0.045982763 -0.044704027 0.05749525 -0.00084684946 -0.044689387
0.0031212557 0.028629348 0.058129583 -0.0008788011 0.034152314 0.042218894 0.029206475 0.06590072
0.004156129 0.023977846 0.06568643 0.025750466 0.045449834 0.036828 0.054234255 0.064167835
0.046482913 0.06907041 0.05429951 0.035768554 0.06030214 0.041301724 0.008883423 0.019579368
0.054448567 0.057967518 0.051307112 0.053405877 0.04020236 0.04836805 0.057169765 -0.026429005
-0.008811395 -0.058446266 0.0059037125 0.05597459 0.05711001 0.056113597 -0.039057538 0.069187
0.034196038 -0.061401132 0.0432252 -0.04763657 -0.042979073 0.026331324 -0.0076470976 0.045035657
0.007986937 0.05087214 0.016869651 0.05426945 0.007477482 0.015777716 -0.06291187 0.048731066
0.017172592 0.0065786047 0.03645736 0.035896286 0.0024475728 0.04541257 0.012225233 0.04845818
-0.025725003 0.05921555 0.032117385 0.022184705 0.06119711 0.06404954 -0.008576188 0.017726788
0.05734549 0.040497042 0.06197426 0.0522912 0.04505308 0.07121391 0.04068882 0.05128868
0.037068322 0.053876907 0.030011535 0.05457912 0.034291767 0.04522012 0.051183905 0.060091704
0.03277592 0.06639834 0.06749985 0.036401596 0.059870563 -0.033324953 0.005063901 0.051061098
0.031619694 0.05569951 -0.045008093 0.057791367 0.03609891 0.049962632 0.03248926 0.053759523
-0.006760862 -0.023038767 0.057266623 0.060721926 0.055621218 -0.020987477 0.0164164 -0.005531522
-0.015418103 0.041187946 0.040393632 -0.00879275 0.06238325 0.06112788 0.06126909 -0.048905507
0.035376653 -0.022597922 0.0715937 0.044078946 0.05006196 0.05550343 0.06286323 0.0354627
0.062446624 -0.02636593 0.06708384 0.062276818 0.06081468 -0.001770021 -0.02356846 0.0553344
0.017195383 0.030306075 0.0700314 -0.011294722 0.058627713 0.031083018 0.039162934 0.05698149
0.062021688 0.035811346 0.025345825 -0.03445662 0.005124893 0.03973777 -0.0086218 0.05938532
0.056076985 0.055455003 -0.0013363527 0.04072174 0.05106632 0.05345281 0.036700174 -0.024706151
0.040347993 0.012724468 0.0634305 0.06319964 0.045905713 -0.053109773 0.06276195 0.014603347
-0.03757119 0.065439574 0.020738512 -0.04537205 0.058657937 0.010733837 0.066945605 0.068814255
0.06681969 0.06917917 0.0286897 -0.059545565 -0.05559079 0.018079363 -0.0105788885 0.044284686
00000000: 358d bb3c dcc7 633d 1a3b 733d 1f1b 7e3d
00000010: e399 453d 62b6 603a d1f6 533c 26a3 3bbd
00000020: 1294 833d 080a 893d fd7f 703d 4a61 e33c
00000030: cfaf 76bd 4170 3bbd 89bd 803d a95f 043d
00000040: 39c3 6d3d 8425 e43c 9888 413d d6f6 4b3d
00000050: d57e 753d ab50 863d 563e 833c 9b2f 1c3d
00000060: 0e9f 6abd d0d4 41bd 02d0 393d 2d34 5e3d
00000070: ea2c 8cbc 94bc 9e3b adbb 893d 6a9d fcbc
00000080: d7d9 363d c91d 463d 05ce 973c bf7a 3f3d
00000090: 36cc 0e3d 4363 703d d639 4d3c 4b41 853d
000000a0: 0733 833d b737 e1ba 8a64 4a3d 9d59 6d3d
000000b0: 8614 193c f7bc 663d 8c3c 0e3d 21d6 523d
000000c0: d789 783d f251 593d e93b 603d 81ff 143d
000000d0: 112f 103d 8468 a23b 2b98 b7bc cf22 24bd
000000e0: d59c 713d d160 623c f560 1bbd 051c f83c
000000f0: f863 6abd a3e8 813d d88d 6e3c b667 693d
00000100: bf1f 063d 4f20 823d e55b 873c 6c58 3c3d
00000110: 921b 37bd 2480 6b3d 1bff 5dba 380c 37bd
00000120: fb8d 4c3b 1888 ea3c 4919 6e3d 585f 66ba
00000130: 4ce3 0b3d b8ed 2c3d 6b42 ef3c f5f6 863d
00000140: 2330 883b 306d c43c 9b86 863d a4f2 d23c
00000150: 9b29 3a3d f5d8 163d bd24 5e3d 6d6a 833d
00000160: de64 3e3d ca74 8d3d 2a69 5e3d 0c82 123d
00000170: 60ff 763d ff2b 293d c78b 113c e964 a03c
00000180: 7605 5f3d 596f 6d3d 6827 523d 1fc0 5a3d
00000190: 3bab 243d 941d 463d d82a 6a3d a481 d8bc
000001a0: ab5d 10bc 5a65 6fbd ee73 c13b 9d45 653d
000001b0: 30ec 693d 5fd7 653d ccfa 1fbd eab1 8d3d
000001c0: 2511 0c3d c17f 7bbd e80c 313d 901e 43bd
000001d0: d30a 30bd cab4 d73c 8194 fabb 4f77 383d
000001e0: a4db 023c 4e5f 503d 3932 8a3c a549 5e3d
000001f0: aa05 f53b 4540 813c f0d7 80bd 3a9a 473d
00000200: 89ad 8c3c 5691 d73b 5054 153d fc07 133d
00000210: 7567 203b 8802 3a3d 584c 483c 167c 463d
00000220: 3ebd d2bc 018c 723d 858d 033d b3bc b53c
00000230: d2a9 7a3d 682c 833d 2483 0cbc c537 913c
00000240: 1be3 6a3d 3ae0 253d b9d8 7d3d 4c2f 563d
00000250: 9489 383d 99d8 913d 52a9 263d 1414 523d
00000260: f4d4 173d 08ae 5c3d c0da f53c 5b8e 5f3d
00000270: 8675 0c3d bc38 393d 37a6 513d b822 763d
00000280: 0b40 063d dafb 873d 5d3d 8a3d d719 153d
00000290: d63a 753d bf7f 08bd 15ef a53b 7125 513d
000002a0: a783 013d 2b25 643d 685a 38bd a4b6 6c3d
000002b0: 73dc 133d 9ea5 4c3d 7513 053d f232 5c3d
000002c0: 398a ddbb ccbb bcbc 6890 6a3d 8eb7 783d
000002d0: 13d3 633d eeed abbc b07b 863c c541 b5bb
000002e0: 369c 7cbc b1b4 283d cb73 253d 770f 10bc
000002f0: 9485 7f3d 3a61 7a3d 4cf5 7a3d 2451 48bd
00000300: 1ce7 103d 471f b9bc b89f 923d 208c 343d
00000310: c50d 4d3d 9157 633d 70be 803d 5641 113d
00000320: 08c8 7f3d 5dfd d7bc 4163 893d fa15 7f3d
00000330: d018 793d 0d00 e8ba a512 c1bc 53a6 623d
00000340: 55dd 8c3c 7244 f83c 9f6c 8f3d 7f0d 39bc
00000350: 9d23 703d d0a1 fe3c 5069 203d 6c65 693d
00000360: 740a 7e3d ebae 123d 0ca2 cf3c 6322 0dbd
00000370: b8ee a73b 12c4 223d 7342 0dbc 053e 733d
00000380: fbb0 653d c924 633d 8e28 afba d7cb 263d
00000390: eb2a 513d 55f1 5a3d ec52 163d 8e64 cabc
000003a0: f043 253d 497a 503c dae7 813d d06e 813d
000003b0: a107 3c3d a289 59bd 5689 803d e042 6f3c
000003c0: 40e4 19bd 2f05 863d d0e3 a93c 0bd8 39bd
000003d0: 4e43 703d fadc 2f3c c71a 893d 7dee 8c3d
000003e0: c3d8 883d cfad 8d3d a906 eb3c 0de6 73bd
000003f0: 2bb3 63bd 2c1b 943c 1353 2dbc dc63 353d

network_body._body_endoder.seq_layers.2.weight f4 [256, 256]
0.032983918 -0.048451558 0.116280824 -0.015499585 -0.04337631 0.0010629696 -0.008389157 0.00020507396
-0.07034351 0.0049722465 -0.08355854 0.009849183 -0.072080165 0.013125099 0.0048803706 -0.049768854
-0.0001957996 -0.041904405 -0.052249815 0.017814243 0.06425895 -0.1519922 0.00603505 0.014956602
0.03381141 0.0446703 -0.12682097 -0.01528527 -0.0111906845 -0.147158 0.031827077 -0.03338788
0.02012567 -0.05355655 -0.11715956 -0.030492967 0.006712069 -0.038356934 -0.09040399 0.074260935
-0.05400404 0.09147728 0.030328648 -0.031191487 0.12620896 -0.0642157 0.0029617546 0.013104431
-0.013243158 -0.031397697 0.06711956 -0.026929155 0.02672377 -0.07571366 0.046570536 -0.098632686
-0.06661687 0.014631033 -0.02988968 -0.071084455 -0.025018496 0.021187812 0.06427747 0.013826903
-0.052676838 0.059973378 0.061095886 0.04980656 -0.105572894 -0.009538711 -0.07608042 0.03859802
-0.047089394 -0.061134715 0.0038084628 -0.016825028 0.10277791 -0.05596818 -0.017177248 0.076887816
-0.046330277 0.05436023 -0.0395093 0.040104218 0.010285966 -0.18702637 0.06125348 0.12667064
0.18160477 0.047096323 0.021398135 0.041929908 -0.06475883 -0.051984236 -0.0748667 -0.08566197
0.028805247 0.12976038 -0.0009011587 0.030377068 -0.017787473 -0.01320318 0.047902387 -0.023847584
-0.04125382 0.0787308 0.0054685045 0.05677186 0.04652256 0.059388924 -0.067561835 -0.06295329
-0.025217181 0.0147854015 0.031379115 -0.06625602 -0.063264154 -0.1120531 -0.06419913 -0.093793854
0.007322845 0.02096626 -0.033625778 -0.0745298 0.0077959877 -0.02104871 0.028202556 -0.002461816
-0.12885894 -0.0021785705 -0.0058935885 0.03682512 0.07549518 -0.07054321 0.0365367 0.083347715
-0.13399345 0.07807514 -0.01022246 0.07638024 -0.053827643 -0.019109178 0.066277035 0.048403077
-0.04678834 -0.038123447 -0.097867996 0.08756363 0.024109319 0.14880428 -0.035173155 0.036177494
0.07726099 0.02812053 0.050510116 -0.10444869 0.017141752 -0.09690512 -0.0025040056 -0.0019474078
0.116667144 0.051699948 0.03906581 -0.10228583 -0.08697196 0.012732361 0.007782825 0.014942129
-0.11526288 0.033652492 -0.018870993 -0.030508945 -0.029789865 0.03875774 -0.08281228 -0.1197458
-0.043926418 0.03890744 0.026954923 0.08026338 0.07348886 -0.046604887 0.08872995 0.03714713
0.011163019 -0.027584432 -0.007696102 -0.013263097 -0.036148567 -0.010140803 -0.01532404 0.023620395
-0.03115723 -0.050030682 -0.041599557 0.032635376 0.084550716 0.14388226 -0.06663781 0.012185419
0.042159785 0.025719825 -0.023291634 0.025975132 -0.016144432 0.06691913 -0.032904606 0.07573537
-0.02900318 0.0154326735 0.06920983 0.053575236 0.0180935 -0.00658543 -0.039392147 0.076409474
-0.013552421 0.029940477 0.053728517 -0.054180652 -0.12981445 0.00024651433 0.028296404 0.14962295
-0.01782636 0.05079475 -0.04975362 -0.008756616 0.013940461 -0.041113056 -0.03552008 -0.083182216
0.04460416 -0.17342755 -0.018552203 -0.07377131 0.030091317 -0.09925587 -0.034022704 0.06316491
0.06765197 0.0015498941 -0.062622234 -0.053857826 -0.058511835 -0.03397002 -0.010043984 0.04363212
0.032477316 -0.06063354 -0.013131639 0.038801666 0.05179454 0.028187806 0.10488063 0.033636276
00000000: 251a 073d 2475 46bd a424 ee3d f9f1 7dbc
00000010: 5cab 31bd 5753 8b3a ad72 09bc 1f09 5739
00000020: 4210 90bd 3aee a23b bd20 abbd 785e 213c
00000030: c49e 93bd a80a 573c 84eb 9f3b 6dda 4bbd
00000040: 8e4f 4db9 f4a3 2bbd e703 56bd 2def 913c
00000050: 329a 833d d8a3 1bbe abc1 c53b 890c 753c
00000060: d57d 0a3d 34f8 363d 5bdd 01be 126f 7abc
00000070: 2259 37bc 96b0 16be 1c5d 023d bbc1 08bd
00000080: 97de a43c 1d5e 5bbd 5af1 efbd 63cc f9bc
00000090: eaf0 db3b 291c 1dbd ba25 b9bd 1e16 983d
000000a0: 5733 5dbd 7158 bb3d c973 f83c 4a85 ffbc
000000b0: ec3c 013e 8583 83bd ff19 423b f8b3 563c
000000c0: d5f9 58bc df9a 00bd fb75 893d 889a dcbc
000000d0: cfeb da3c c30f 9bbd bfc0 3e3d efff c9bd
000000e0: 6d6e 88bd 00b7 6f3c 34db f4bc ba94 91bd
000000f0: 97f3 ccbc 1092 ad3c e8a3 833d 3c8a 623c
00000100: abc3 57bd a5a6 753d ae3f 7a3d f701 4c3d
00000110: 9a36 d8bd 4148 1cbc 0dd0 9bbd f518 1e3d
00000120: cfe0 40bd 6568 7abd 6797 793b a4d4 89bc
00000130: 3a7d d23d e43e 65bd 4db7 8cbc 5c77 9d3d
00000140: d1c4 3dbd d5a8 5e3d 81d4 21bd 5244 243d
00000150: 7886 283c d783 3fbe eee4 7a3d f3b5 013e
00000160: 9af6 393e 13e8 403d 244b af3c b2be 2b3d
00000170: 47a0 84bd 6ced 54bd b653 99bd 8b6f afbd
00000180: fbf8 eb3c e8df 043e bd3b 6cba 54d9 f83c
00000190: 09b7 91bc 2752 58bc 4b35 443d 025c c3bc
000001a0: c4f9 28bd 9d3d a13d 2431 b33b 9c89 683d
000001b0: 718e 3e3d cd41 733d dc5d 8abd a8ed 80bd
000001c0: 4394 cebc 783e 723c 6387 003d 3cb1 87bd
000001d0: a390 81bd 187c e5bd d57a 83bd fe16 c0bd
000001e0: 7af4 ef3b 6fc1 ab3c 2fbb 09bd 14a3 98bd
000001f0: 7c75 ff3b 586e acbc 0c09 e73c 6b56 21bb
00000200: 99f3 03be 59c6 0ebb 011f c1bb f0d5 163d
00000210: 389d 9a3d f578 90bd 82a7 153d 35b2 aa3d
00000220: 9435 09be dce5 9f3d 1b7c 27bc 3e6d 9c3d
00000230: 607a 5cbd da8a 9cbc 41bc 873d 4e42 463d
00000240: 21a5 3fbd 5527 1cbd 046f c8bd 8f54 b33d
00000250: e880 c53c 2660 183e ba11 10bd da2e 143d
00000260: 033b 9e3d 075d e63c b2e3 4e3d 32e9 d5bd
00000270: dc6c 8c3c 3176 c6bd 3e1a 24bb 2a40 ffba
00000280: 2fef ee3d 53c3 533d 7903 203d 3c7b d1bd
00000290: 5b1e b2bd 659b 503c 1107 ff3b d5cf 743c
000002a0: f20e ecbd 32d7 093d 5797 9abc e5ed f9bc
000002b0: e009 f4bc 70c0 1e3d 7c99 a9bd 493d f5bd
000002c0: 30ec 33bd 685d 1f3d 92d0 dc3c 2161 a43d
000002d0: 5481 963d c4e4 3ebd 0cb8 b53d 9727 183d
000002e0: 18e5 363c bff8 e1bc 952f fcbb 764d 59bc
000002f0: 8510 14bd 9c25 26bc af11 7bbc 8f7f c13c
00000300: 723d ffbc f9ec 4cbd 4c64 2abd acac 053d
00000310: ed28 ad3d df55 133e 6779 88bd 5aa5 473c
00000320: bdaf 2c3d 62b2 d23c 19ce bebc cdc9 d43c
00000330: 5441 84bc e60c 893d fbc6 06bd 251b 9b3d
00000340: 1498 edbc 53d9 7c3c e2bd 8d3d b571 5b3d
00000350: d238 943c 97ca d7bb a959 21bd 927c 9c3d
00000360: f90a 5ebc bb45 f53c 6f12 5c3d 88ec 5dbd
00000370: 14ee 04be 983e 8139 dccd e73c c236 193e
00000380: 9608 92bc 280e 503d 74ca 4bbd e977 0fbc
00000390: 8866 643c 2a66 28bd 817d 11bd 705b aabd
000003a0: dab2 363d fe96 31be cafa 97bc 6a15 97bd
000003b0: 1182 f63c a946 cbbd 645b 0bbd 9b5c 813d
000003c0: 1e8d 8a3d d125 cb3a 1640 80bd 069a 5cbd
000003d0: 1baa 6fbd 2624 0bbd 868f 24bc 98b7 323d
000003e0: ef06 053d e05a 78bd 1626 57bc 7fee 1e3d
000003f0: 8326 543d 1dea e63c a8cb d63d 31c6 093d

network_body._body_endoder.seq_layers.2.bias f4 [256]
0.03678432 0.017486176 0.03748619 -0.005949754 -0.029567989 0.00787866 0.03337954 -0.02147134
-0.02936478 -0.026977718 -0.057876945 0.013135799 0.031873874 -0.05093135 0.027748754 0.019876322
-0.062487923 -0.044891767 -0.012494767 -0.066092476 0.04228502 -0.049791567 0.025623692 -0.03624981
0.019285493 0.04682594 -0.0075129694 0.022637105 -0.01261697 0.044992294 0.039653197 0.038732577
0.04883683 0.018821144 0.011065322 0.041181963 0.0154380705 0.027383335 0.0129909385 -0.040448874
-0.048843797 0.03835727 0.04124368 -0.052359223 -0.059141587 -0.03640116 -0.06851908 0.0071957805
0.055176064 -0.052520804 -0.047416635 -0.06477364 0.03661626 0.035579205 0.010010379 0.050942067
0.042408507 0.056661054 -0.033232782 -0.052465174 0.016171193 0.036118932 -0.051868968 0.042797897
0.017308261 0.042707223 0.052569997 0.012937801 -0.07067345 0.04534469 0.02929311 0.044077214
0.03591202 -0.059983008 0.039330773 0.039493077 0.031198366 -0.022229627 -0.012934468 -0.043302827
0.025925843 0.04700608 0.045863975 0.044620004 0.0275458 -0.045029163 0.02638156 -0.036114965
-0.01598101 -0.022221405 0.04799852 -0.0036521482 -0.02525106 -0.051681593 0.00010963605 0.03341277
-0.059632424 -0.018367277 0.03590197 0.039972473 -0.05354554 -0.0014005195 -0.045825917 -0.004565561
-0.06737209 -0.009647338 -0.052160893 -0.009993728 0.033486154 0.048695005 -0.036097042 -0.063936435
0.016429521 -0.033562534 -0.04612817 -0.055971056 0.029301826 -0.018929465 0.04551661 0.039361045
-0.026275538 -0.059332445 -0.05915987 0.046403565 0.013145747 -0.042467944 -0.021906056 0.00810453
0.039532356 0.027905041 0.039574005 0.03865376 0.02805452 0.034122437 0.045765024 -0.04283284
-0.05687341 0.028173162 0.021425368 -0.028223976 -0.0037767559 -0.028205438 0.03769821 -0.0003083113
-0.060715377 -0.041203223 0.051512744 -0.017518653 0.0008535084 -0.04098063 -0.047475994 -0.06791452
0.042554293 -0.03989515 -0.014204913 -0.061205782 0.03606397 -0.005025521 -0.016581753 -0.026631337
-0.019120747 0.0051302803 0.0480133 0.037209835 -0.054323647 0.017256914 0.04189558 0.010887229
0.026413033 0.03950389 -0.026955819 0.0066207303 0.0025552872 -0.025486732 -0.037819948 -0.033616897
0.048098557 0.016112268 0.017844122 -0.027523117 0.0033450585 0.0034188747 0.039896253 0.051888358
-0.0069777058 -0.05296585 0.029424755 0.025640598 0.03204285 -0.014122086 0.0061483528 -0.039794095
0.046064466 0.028800592 -0.041499935 0.015167939 0.033402625 -0.014368843 0.020596495 0.035674162
0.006050109 -0.04806102 0.0061510713 -0.020076292 0.0135572655 0.031165896 -0.06030349 -0.050439604
-0.0060345028 0.033165257 -0.050224066 -0.021216042 -0.0065564057 -0.057168663 0.036371954 0.034189858
0.029663298 -0.062060162 0.03775119 0.010955264 -0.033517186 0.021189975 -0.044785295 0.028444914
-0.015748898 0.028307224 -0.06367571 0.044849604 0.02107267 0.019497026 0.02638408 0.043567438
-0.06814313 0.024700833 0.010377543 0.032798354 0.04731467 -0.0015516798 0.04608799 -0.031205324
0.049157515 -0.02612095 0.039394766 -0.03448115 0.027579878 -0.049982555 0.0077242325 0.0348003
-0.044437513 -0.06494486 -0.04473088 -0.0052435575 0.047438107 0.046518773 -0.031480465 0.01812498
00000000: 28ab 163d 2b3f 8f3c 1f8b 193d 27f6 c2bb
00000010: 9138 f2bc 7f15 013c fcb8 083d aae4 afbc
00000020: 688e f0bc 6000 ddbc 6010 6dbd 8937 573c
00000030: 2e8e 023d 649d 50bd 5b51 e33c abd3 a23c
00000040: 56f3 7fbd 6ee0 37bd dab6 4cbc 7e5b 87bd
00000050: 0f33 2d3d 3ef2 4bbd c7e8 d13c ae7a 14bd
00000060: 9cfc 9d3c 8fcc 3f3d 5b2f f6bb 7371 b93c
00000070: 68b7 4ebc d749 383d 646b 223d 0da6 1e3d
00000080: 2109 483d cd2e 9a3c 534b 353c 6bae 283d
00000090: f6ef 7c3c 0453 e03c f2d7 543c b8ad 25bd
000000a0: 6f10 48bd 831c 1d3d 22ef 283d a076 56bd
000000b0: 733e 72bd 6219 15bd bb53 8cbd 95ca eb3b
000000c0: 4c00 623d 0e20 57bd f237 42bd 0ba8 84bd
000000d0: eefa 153d 80bb 113d 9302 243c a1a8 503d
000000e0: 8bb4 2d3d 6c15 683d 191f 08bd b9e5 56bd
000000f0: 7379 843c 72f1 133d 8e74 54bd d94c 2f3d
00000100: 0eca 8d3c c5ed 2e3d a353 573d 12f9 533c
00000110: 3ebd 90bd 5bbb 393d 1bf8 ef3c 4f8a 343d
00000120: 7b18 133d beb0 75bd 4e19 213d 7ec3 213d
00000130: b793 ff3c e81a b6bc 17eb 53bc 4e5e 31bd
00000140: 6f62 d43c 7389 403d dddb 3b3d 77c3 363d
00000150: bba7 e13c 8070 38bd 241e d83c 49ed 13bd
00000160: 9bea 82bc aa09 b6bc 199a 443d e158 6fbb
00000170: 50db cebc 14b0 53bd 68ec e538 d4db 083d
00000180: 2141 74bd f976 96bc f20d 133d 2dba 233d
00000190: 9152 5bbd a391 b7ba f5b3 3bbd b49a 95bb
000001a0: 61fa 89bd de0f 1ebc a9a6 55bd bcbc 23bc
000001b0: c728 093d 6a74 473d 7eda 13bd 1bf1 82bd
000001c0: 3497 863c de78 09bd e4f0 3cbd e841 65bd
000001d0: 620a f03c f711 9bbc a06f 3a3d 0c39 213d
000001e0: cc3f d7bc 9406 73bd 9f51 72bd aa11 3e3d
000001f0: 4261 573c def2 2dbd 5474 b3bc ddc8 043c
00000200: aeec 213d 1d99 e43c 5a18 223d 6853 1e3d
00000210: 98d2 e53c f8c3 0b3d 1b74 3b3d 7d71 2fbd
00000220: 18f4 68bd 67cb e63c 4184 af3c f835 e7bc
00000230: 7383 77bb 170f e7bc 7069 1a3d d8a4 a1b9
00000240: b0b0 78bd b6c4 28bd 07ff 523d 4783 8fbc
00000250: fbbd 5f3a 4edb 27bd 3076 42bd c516 8bbd
00000260: 694d 2e3d 1969 23bd b9bb 68bc eab2 7abd
00000270: d0b7 133d 20ad a4bb 75d6 87bc f629 dabc
00000280: 1da3 9cbc e91b a83b 98a9 443d 5769 183d
00000290: 7982 5ebd 5f5e 8d3c b39a 2b3d 5960 323c
000002a0: 2560 d83c d5ce 213d 73d2 dcbc b6f2 d83b
000002b0: 9b76 273b 8dc9 d0bc 17e9 1abd dfb1 09bd
000002c0: fe02 453d e0fd 833c d62d 923c 2978 e1bc
000002d0: c538 5b3b 330f 603b 416a 233d e388 543d
000002e0: 3da5 e4bb b8f2 58bd 2f0c f13c 3b0c d23c
000002f0: 5d3f 033d 5260 67bc 1f78 c93b 22ff 22bd
00000300: 18ae 3c3d 38ef eb3c d6fb 29bd f282 783c
00000310: 31d1 083d 4c6b 6bbc fbb9 a83c 121f 123d
00000320: fe3f c63b a2db 44bd ed8e c93b 0977 a4bc
00000330: 4b1f 5e3c 9f4f ff3c cb00 77bd c299 4ebd
00000340: 14bd c5bb 4bd8 073d c0b7 4dbd 44cd adbc
00000350: 1ed7 d6bb b029 6abd c2fa 143d aa0a 0c3d
00000360: 7200 f33c cc32 7ebd fea0 1a3d b57d 333c
00000370: 5149 09bd 9996 ad3c c970 37bd 4f05 e93c
00000380: d503 81bc 8de4 e73c 6968 82bd 38b4 373d
00000390: 98a0 ac3c 3ab8 9f3c 6d23 d83c c573 323d
000003a0: a08e 8bbd 6759 ca3c 9206 2a3c 9157 063d
000003b0: 07cd 413d bc61 cbba c3c6 3c3d 4fa2 ffbc
000003c0: 6459 493d 9afb d5bc 685c 213d 1b3c 0dbd
000003d0: 32ef e13c 82ba 4cbd 8f1b fd3b c28a 0e3d
000003e0: 1c04 36bd d001 85bd ba37 37bd 26d2 abbb
000003f0: 764e 423d 788a 3e3d a9f1 00bd d77a 943c

network_body._body_endoder.seq_layers.4.weight f4 [256, 256]
-0.045004155 0.025236994 0.055945843 0.116722584 -0.027605044 -0.018628951 -0.005414207 0.05640816
0.06418908 0.034742214 0.03838569 0.03045559 -0.08558962 -0.09051078 -0.09961351 -0.018679833
0.042482603 -0.101349324 -0.012277415 0.015430872 0.040474378 0.02291564 0.047695916 0.12616622
0.092806354 0.027524045 -0.01796852 0.023075446 -0.07166795 0.019713465 0.031878464 0.08916943
-0.035090398 0.049567312 -0.051080287 0.024984164 0.033663806 0.09744274 0.08941629 -0.055179987
-0.029075686 -0.069734216 0.05764742 0.043987628 -0.08728871 -0.00873334 -0.04188665 0.01366527
0.11629735 -0.054212935 -0.05994686 -0.009477037 -0.05455938 -0.025398616 -0.10530029 0.048472207
-0.048218153 -0.0037455182 0.029776115 0.07165712 -0.09067481 -0.026462905 0.04079653 -0.023333685
-0.05861356 0.02496529 -0.011595953 0.020568216 -0.010314484 -0.057068896 0.12765741 0.08599192
-0.043975394 0.022452677 -0.026912574 0.090302356 0.015333466 -0.0030280594 0.019421916 -0.07854123
0.015410405 0.02651399 0.060374834 0.109271176 -0.074247755 -0.065445 0.025880683 0.038235452
-0.08350998 0.02741466 -0.021763539 -0.033786617 0.04702969 -0.046188828 -0.06088571 -0.03080163
-0.079441555 0.000900566 -0.023348715 -0.01788264 -0.072046556 0.034100823 -0.0591199 0.024802268
-0.12484201 0.110883534 0.022183625 -0.0053889295 0.07876418 -0.040106684 -0.017395964 -0.023014428
-0.100909 -0.049802054 -0.06590108 0.03695705 -0.08268326 0.12641211 0.118514895 -0.00046698624
-0.025761466 -0.04237543 -0.01781082 -0.030610122 0.08476422 0.07729777 0.0022038259 0.03452905
0.00078686007 0.026889866 0.085303165 0.14749013 0.11967865 -0.021573253 -0.046190385 0.050194234
0.036019694 0.11136275 -0.029375104 0.13587953 0.07864128 0.049337294 0.01207961 -0.059028573
-0.026531605 0.018781725 -0.085931115 -0.023228755 -0.12890075 -0.04530171 0.09321209 -0.035525773
0.007303394 -0.1284966 0.05078444 0.084871806 -0.15964246 -0.043487627 -0.07401365 0.06420444
0.0407085 0.023406968 0.068078764 0.056548595 -0.015314614 -0.054728813 -0.029616402 0.048340105
-0.091583505 0.026334856 0.02557941 0.13699427 -0.054723013 0.030247048 0.058888692 -0.11544781
-0.017311972 0.08216133 -0.0032839975 -0.008208937 -0.006258766 0.02862611 0.027793726 0.050388247
-0.041377597 -0.059860826 0.035041623 -0.044766217 0.07556251 -0.00218137 0.026394555 -0.06453324
-0.074521035 0.056904614 -0.089029096 0.067122914 -0.06971183 -0.05334149 -0.10141013 0.08953705
0.09803061 -0.13956656 0.04797422 -0.116571896 0.04583026 0.0771865 -0.122834526 -0.03869563
0.053207196 0.051052604 -0.10278647 0.04688765 0.13371891 0.061992746 0.060677152 0.025938498
-0.014413589 -0.048529908 0.054760713 -0.04146602 -0.06972943 0.047459606 0.034839187 0.05604886
0.006381298 0.100114256 0.011818503 0.018003672 -0.070425645 0.05616568 -0.06794856 -0.034630552
-0.041782845 -0.13417375 -0.058502417 -0.07293448 0.066149175 -0.009227437 -0.043569647 0.028613718
-0.011617573 -0.036678 -0.047085166 -0.06936676 0.007718828 -0.094509415 -0.07221658 0.03322103
-0.009997184 0.05911179 -0.005607882 0.0299323 -0.07123361 -0.05162193 -0.07364562 0.022653634
00000000: 4756 38bd d0bd ce3c 7827 653d 400c ef3d
00000010: f923 e2bc be9b 98bc a969 b1bb 3e0c 673d
00000020: 9075 833d da4d 0e3d 503a 1d3d 007e f93c
00000030: 9c49 afbd b75d b9bd 2b02 ccbd 7306 99bc
00000040: 3d02 2e3d 3c90 cfbd 3627 49bc c5d1 7c3c
00000050: 76c8 253d 95b9 bb3c cb5c 433d b831 013e
00000060: 4211 be3d 1b7a e13c b832 93bc b808 bd3c
00000070: a5c6 92bd 227e a13c fe92 023d 769e b63d
00000080: f3ba 0fbd 1807 4b3d 9039 51bd 97ab cc3c
00000090: 0fe3 093d 0f90 c73d e31f b73d 6904 62bd
000000a0: 2230 eebc d0d0 8ebd b31f 6c3d 5f2c 343d
000000b0: 6cc4 b2bd 4816 0fbc 5691 2bbd 4ce4 5f3c
000000c0: 4e2d ee3d 620e 5ebd d78a 75bd 9345 1bbc
000000d0: a879 5fbd c210 d0bc aea7 d7bd cb8a 463d
000000e0: 6680 45bd 5e77 75bb 0aed f33c f8c0 923d
000000f0: b7b3 b9bd bcc8 d8bc 431a 273d 4926 bfbc
00000100: c614 70bd 0284 cc3c f4fc 3dbc ad7e a83c
00000110: 15fe 28bc 13c1 69bd a0b8 023e 881c b03d
00000120: 8b1f 34bd adee b73c c277 dcbc 71f0 b83d
00000130: 3839 7b3c 6872 46bb b61a 9f3c 39da a0bd
00000140: ec7b 7c3c de33 d93c 9a4b 773d 91c9 df3d
00000150: 350f 98bd 0708 86bd ba03 d43c c79c 1c3d
00000160: 4807 abbd b694 e03c 7349 b2bc d663 0abd
00000170: 34a2 403d 7f30 3dbd 4b63 79bd b353 fcbc
00000180: 41b2 a2bd f613 6c3a ce45 bfbc 9d7e 92bc
00000190: 258d 93bd 4ead 0b3d b527 72bd 202e cb3c
000001a0: 2bad ffbd e816 e33d 6fba b53c 9e95 b0bb
000001b0: 1d4f a13d e846 24bd fb81 8ebc c188 bcbc
000001c0: 61a9 cebd 3dfd 4bbd 25f7 86bd 4760 173d
000001d0: d755 a9bd 2d72 013e f0b7 f23d d5d5 f4b9
000001e0: b609 d3bc dc91 2dbd ffe7 91bc 14c2 fabc
000001f0: dd98 ad3d 4b4e 9e3d 106e 103b 556e 0d3d
00000200: 4945 4e3a 2348 dc3c 6db3 ae3d a707 173e
00000210: 141a f53d 64ba b0bc 2132 3dbd 7898 4d3d
00000220: 6389 133d 2712 e43d 0fa4 f0bc 0124 0b3e
00000230: ae0e a13d e715 4a3d 8ee9 453c f2c7 71bd
00000240: cf58 d9bc 22dc 993c a7fc afbd 3b4a bebc
00000250: 8ffe 03be 498e 39bd fbe5 be3d 7983 11bd
00000260: 4f51 ef3b 9d94 03be 5803 503d 45d1 ad3d
00000270: 5079 23be 1520 32bd 7894 97bd 9e7d 833d
00000280: f5bd 263d f8bf bf3c e16c 8b3d 809f 673d
00000290: 26ea 7abc 522b 60bd 199e f2bc 4600 463d
000002a0: 2290 bbbd 32bc d73c e98b d13c 3a48 0c3e
000002b0: 3d25 60bd a8c8 f73c 4535 713d e76f ecbd
000002c0: d6d1 8dbc 3344 a83d 5638 57bb c77e 06bc
000002d0: 5616 cdbb 4e81 ea3c abaf e33c e863 4e3d
000002e0: 8e7b 29bd a030 75bd ce87 0f3d c85c 37bd
000002f0: 84c0 9a3d 51f5 0ebb 6539 d83c 012a 84bd
00000300: 7c9e 98bd d014 693d e354 b6bd bd77 893d
00000310: 13c5 8ebd 9b7c 5abd 1db0 cfbd 335f b73d
00000320: 46c4 c83d 89ea 0ebe 9e80 443d 3fbd eebd
00000330: 83b8 3b3d f513 9e3d ab90 fbbd 4f7f 1ebd
00000340: caef 593d 891c 513d b681 d2bd 440d 403d
00000350: 9ced 083e 1bec 7d3d 9b88 783d f97c d43c
00000360: f926 6cbc 4cc7 46bd c54c 603d 46d8 29bd
00000370: 4ece 8ebd 0165 423d 89b3 0e3d 7d93 653d
00000380: 351a d13b b408 cd3d 65a2 413c 707c 933c
00000390: 523b 90bd fc0d 663d 9d28 8bbd c4d8 0dbd
000003a0: 7d24 2bbd d864 09be 3ba0 6fbd ac5e 95bd
000003b0: 3879 873d ad2e 17bc 1676 32bd 5167 ea3c
000003c0: a257 3ebc ac3b 16bd 60dc 40bd 2910 8ebd
000003d0: 39ee fc3b 278e c1bd 49e6 93bd c612 083d
000003e0: 3bcb 23bc 341f 723d 53c2 b7bb 9534 f53c
000003f0: ede2 91bd 8471 53bd 84d3 96bd 1d94 b93c

network_body._body_endoder.seq_layers.4.bias f4 [256]
0.030675668 -0.012308371 -0.027572557 -0.029303778 0.03709995 -0.047617715 -0.03323102 -0.04810388
0.025762346 -0.015043493 0.013855893 -0.049879182 0.020086115 0.030213732 0.017574832 -0.03460701
-0.0025526453 -0.025717327 -0.05235744 0.041023947 0.038153533 -0.04123543 -0.03368247 -0.006261136
-0.054684386 -0.032650962 -0.029013224 0.03309482 0.024773717 0.02520232 -0.016559277 -0.01784405
0.029782996 0.013772769 0.037756674 -0.02973871 -0.011820411 0.027954254 -0.004951633 -0.028430397
0.011280357 0.024904324 0.0049980823 0.0023861194 0.023484884 0.016497508 -0.0031232855 0.029760309
0.03490234 0.0074940627 0.01833157 0.030614162 -0.011052958 0.027574716 -0.032152325 -0.030385336
0.029892096 0.018507713 -0.03497615 0.032113142 0.005256527 -0.024105059 0.022694854 0.042287383
0.033740483 -0.035861842 0.0036013168 -0.0525898 0.023468317 -0.004267205 0.027080126 0.0478882
0.02792895 0.05053158 0.023169877 0.029939389 0.028140126 0.010078436 0.012370209 -0.043881543
0.021877341 -0.004824732 0.0032046617 0.025824383 0.033619106 -0.024162807 -0.039276022 0.009556658
0.02437683 -0.037572842 0.031100158 0.025120484 -0.045797836 -0.036222346 0.028807074 0.0321378
-0.04929731 -0.039119035 -0.026395358 0.014058704 0.027147334 -0.039303448 0.019558521 0.036044795
-0.043436132 0.00932645 -0.008229604 0.032003537 0.034934394 0.032997392 0.010798612 0.021870304
-0.039547294 -0.043826558 0.030347759 0.033196967 -0.005322627 -0.02969125 -0.021631531 0.03480554
-0.037635274 -0.041898318 -0.040314276 0.050070964 0.019880787 -0.039334297 0.011084375 -0.03561068
0.011086399 0.026548885 -0.006017605 0.015673472 0.03490414 -0.04139956 0.039080866 0.018569486
-0.023983408 -0.049926657 -0.03578124 -0.03283089 0.035230745 0.024199726 0.041744646 0.0017688867
-0.03380864 -0.045828577 0.028516019 -0.00986801 0.01574049 0.0026916713 -0.048491247 0.00802759
-0.034402627 -0.028011387 0.04244487 0.035356745 0.022560624 0.028977215 0.026631588 0.020289794
0.020284908 -0.028756358 0.013959447 0.007870241 -0.00798019 0.02375055 -0.030150123 0.022672312
0.0059337895 0.030426512 0.025511697 -0.043086793 -0.0069803484 -0.029569305 0.029002652 -0.027421081
-0.024961239 -0.036993586 0.02836985 -0.042489734 -0.0074835746 -0.04360339 -0.029336097 -0.04818885
0.03236985 0.027117116 -0.041954264 -0.027883686 -0.039461996 0.04565272 -0.035009347 0.0003223935
0.038149074 0.03285943 0.036939118 0.035942946 -0.032706082 0.02600839 -0.025509406 -0.020741276
-0.023341779 0.014385052 -0.03654927 -0.034871507 -0.030489776 -0.043580506 0.015794659 0.024116285
-0.012352107 0.00816514 -0.0003824433 0.029007368 -0.043196123 0.029706027 -0.029438952 -0.03222062
0.018460331 -0.04009174 -0.0048301225 -0.0073795067 0.020825973 -0.02197684 0.005925511 0.03680138
0.016433233 0.036928806 -0.008323388 -0.022045625 -0.03958452 -0.020907175 0.009196702 0.02959935
-0.035211746 0.025294622 0.002454786 0.025983036 -0.033068378 -0.03388487 -0.033149634 0.022235878
0.0219228 0.049837004 -0.047674526 0.028062358 0.040937748 0.02397748 0.025592754 -0.0021309317
0.035848174 0.013781797 -0.037369512 0.03639029 0.022907171 -0.046421487 -0.017643668 0.04963781
00000000: 8a4b fb3c 0da9 49bc d8df e1bc 7a0e f0bc
00000010: 1ef6 173d cb0a 43bd 401d 08bd 9308 45bd
00000020: 8e0b d33c fc78 76bc d403 633c 1d4e 4cbd
00000030: a38b a43c ca82 f73c 18f9 8f3c 15c0 0dbd
00000040: 484a 27bb 25ad d2bc c174 56bd ba08 283d
00000050: e146 1c3d 7be6 28bd a1f6 09bd 372a cdbb
00000060: bcfc 5fbd 04bd 05bd 24ad edbc 6f8e 073d
00000070: 40f2 ca3c 1975 ce3c 52a7 87bc af2d 92bc
00000080: 78fb f33c 2ea7 613c bea6 1a3d 989e f3bc
00000090: 66aa 41bc 5200 e53c 4f41 a2bb dde6 e8bc
000000a0: 3fd1 383c 2704 cc3c f4c6 a33b 7160 1c3b
000000b0: 5f63 c03c c825 873c 09b0 4cbb e4cb f33c
000000c0: c2f5 0e3d c190 f53b 172c 963c 8dca fa3c
000000d0: 7717 35bc 5fe4 e13c 28b2 03bd abea f8bc
000000e0: 45e0 f43c 7d9d 973c 2743 0fbd 1289 033d
000000f0: f23e ac3b f977 c5bc 8fea b93c 8935 2d3d
00000100: 7633 0a3d dee3 12bd 1204 6c3b 6768 57bd
00000110: a140 c03c e9d3 8bbb 24d7 dd3c 6b26 443d
00000120: 41cb e43c 34fa 4e3d c1ce bd3c 7343 f53c
00000130: 1f86 e63c 0620 253c 6bac 4a3c 22bd 33bd
00000140: 1c38 b33c c918 9ebb 4d05 523b a88d d33c
00000150: 30b4 093d 14f1 c5bc e5df 20bd 8793 1c3c
00000160: ebb1 c73c fbe5 19bd c2c5 fe3c 79c9 cd3c
00000170: 8396 3bbd e25d 14bd d0fc eb3c eda2 033d
00000180: faeb 49bd 483b 20bd 143b d8bc 7a56 663c
00000190: 1664 de3c a7fc 20bd 3139 a03c b5a3 133d
000001a0: 16ea 31bd f7cd 183c 76d5 06bc 2416 033d
000001b0: 5e17 0f3d 4628 073d a9ec 303c 5a29 b33c
000001c0: 58fc 21bd 7a83 33bd dd9b f83c 8bf9 073d
000001d0: 6e69 aebb 103b f3bc 9c34 b1bc 4190 0e3d
000001e0: 7227 1abd 929d 2bbd 9520 25bd 3617 4d3d
000001f0: 08dd a23c 001d 21bd 3d9b 353c 81dc 11bd
00000200: baa3 353c 0c7d d93c 542f c5bb a765 803c
00000210: a5f7 0e3d 9692 29bd 4213 203d 091f 983c
00000220: da78 c4bc e57f 4cbd 598f 12bd af79 06bd
00000230: 1d4e 103d 813e c63c 6ffc 2a3d fdd9 e73a
00000240: ee7a 0abd bfb6 3bbd 6d9a e93c 6fad 21bc
00000250: 33f2 803c c066 303b c29e 46bd 2786 033c
00000260: c5e9 0cbd 2378 e5bc acda 2d3d 3cd2 103d
00000270: 0fd1 b83c a061 ed3c 7d2a da3c c836 a63c
00000280: 892c a63c 7492 ebbc 2ab6 643c 2ff2 003c
00000290: 58bf 02bc 8390 c23c 64fd f6bc 49bb b93c
000002a0: 3c70 c23b 0541 f93c e8fd d03c c77b 30bd
000002b0: 68bb e4bb 543b f2bc f896 ed3c 2da2 e0bc
000002c0: 837b ccbc 9686 17bd e367 e83c b709 2ebd
000002d0: c638 f5bb 7899 32bd 4152 f0bc ac61 45bd
000002e0: 3f96 043d b724 de3c 3cd8 2bbd 546c e4bc
000002f0: e7a2 21bd 59fe 3a3d f665 0fbd ec06 a939
00000300: 3442 1c3d 9c97 063d 794d 173d e938 133d
00000310: d0f6 05bd 8c0f d53c 1af9 d0bc 9ce9 a9bc
00000320: 4237 bfbc 48af 6b3c b0b4 15bd 6dd5 0ebd
00000330: b2c5 f9bc 7981 32bd cd63 813c 848f c53c
00000340: 7e60 4abc 14c7 053c ac82 c8b9 dca0 ed3c
00000350: 6bee 30bd 0e5a f33c f529 f1bc c5f9 03bd
00000360: 1f3a 973c 3d37 24bd 0146 9ebb cacf f1bb
00000370: 3b9b aa3c c608 b4bc ca2a c23b 0bbd 163d
00000380: fd9e 863c a942 173d d25e 08bc 0799 b4bc
00000390: 6123 22bd 8645 abbc c4ad 163c 567a f23c
000003a0: 313a 10bd ab36 cf3c 7ae0 203b 60da d43c
000003b0: b572 07bd ddca 0abd e9c7 07bd 0428 b63c
000003c0: 7297 b33c e321 4c3d 5d46 43bd 08e3 e53c
000003d0: 57ae 273d 6c6c c43c e5a7 d13c 1aa7 0bbb
000003e0: 89d5 123d 0ccd 613c c610 19bd fc0d 153d
000003f0: d2a7 bb3c 7524 3ebd 7489 90bc 0451 4b3d

action_model._continuous_distribution.mu.weight f4 [2, 256]
0.005920022 0.0016158482 -0.01147886 0.0051697777 -0.0042677354 -0.0058651255 0.007181265 0.02290141
-0.0066550933 0.00042662086 0.012676221 0.0021442352 -0.00449879 -0.013988586 -0.009850036 -0.0028691876
-9.571453e-05 0.017608833 0.013617242 0.0068433965 0.0075779147 0.007087478 0.0036569003 0.021885807
0.0067527005 -0.0031774659 0.0037647358 0.0014908502 0.016697967 -0.0005302469 0.008605248 0.0019089107
0.019692631 -0.00222961 0.010800404 0.020444302 -0.0054706456 0.011828527 0.017973943 -0.0040339176
0.0059826435 0.009128208 -0.0033675323 0.015604261 0.0010147216 -0.0025273876 -0.012643875 -0.0009980565
0.0013934755 0.005407065 -0.012642721 0.009493399 -0.0029863187 -0.011939467 -0.015016103 0.0043393187
-0.008232015 -0.021654189 0.0027503937 0.0050756857 -0.003071179 0.0052080927 0.004489155 -0.0020294953
-0.004238029 0.005836389 -0.0036284097 0.00017037225 0.0102665685 -0.0024796315 0.0018868356 0.002867159
0.0026278114 0.013670618 -0.006441502 0.01585924 -0.0050900993 0.0009915776 0.012999624 0.006883018
0.0011422775 -0.013430339 -0.00011352592 0.011182599 0.0014297364 0.0036400857 -0.016820256 0.0265376
0.0063147005 0.00860835 -0.007494343 0.007245279 0.01100249 0.0055101146 -0.005578336 0.01116599
0.015188371 0.0064028567 0.010694218 0.0015852585 -0.004712613 -0.0007649582 -0.002548432 -0.013476946
0.0043203793 -0.007346303 0.017113382 0.00996671 -0.009846005 -0.006440794 0.011313683 -0.0066574435
-0.008339838 -0.005921815 0.00072758226 -0.00064169365 0.014915519 -0.013698155 0.020679846 0.0069968626
-0.0027661594 -0.008566094 -0.0054926164 -0.003672711 -0.0033362322 0.0034766851 -0.002026349 0.0028548765
-0.0027315973 0.0030494982 -0.0019537313 -0.006505316 -0.00054270274 -0.013314622 0.0026194705 -0.0077553885
0.0033957574 0.002926643 -0.007152385 -0.0055611753 0.008792225 -0.015877293 -0.007060427 0.0010156931
0.01084443 0.010296183 -0.005528193 0.014581623 0.0031626527 -0.0032552665 -6.7846486e-05 -0.0023091724
0.003986535 -0.0029594777 -0.006370243 -0.00076095696 -0.0028682356 -0.005268481 0.0027103466 0.005525202
0.0036982005 -0.010497281 -0.003248505 -0.012733046 0.0013964854 -0.0022956934 -0.0053549516 0.023420088
-0.011030923 0.0077664726 0.009263987 -0.006619687 -0.0019502143 -0.016128346 0.0031796913 -0.0039071483
0.005224074 -0.014025157 0.02851944 -0.0045240517 -0.004354083 -0.003642789 -0.015858267 -0.010852684
0.011769334 -0.0024904937 -0.00088584534 0.015341174 -0.0047918963 -0.008499386 -0.027391262 -0.0029355148
0.0035146403 -0.01190591 -0.003372266 0.0023380686 -0.0066509685 0.010769639 -0.0021570218 -0.0027088502
0.0033614966 0.003103997 -0.030623492 0.0023565257 -0.0063284943 -0.0010030372 -0.008243046 -0.005073388
-0.004813706 -0.027489208 -0.0042893407 0.010392446 0.00048531214 0.0075850873 -0.00013930733 0.009356603
-0.015137949 -3.767386e-05 -0.0075077065 -0.003334175 0.012713396 0.010751443 -0.0055372017 -0.0027232696
-0.013423253 0.00076362013 0.009904104 -0.004123845 -0.0064863744 0.020217864 -0.0014049928 0.010174785
0.008143446 -0.013087983 -0.004022409 -0.0011121054 -0.019488892 -0.0066866158 -0.012648474 0.016611561
0.015156788 0.00816763 -0.00054736447 0.010598819 0.0068020956 -0.007892634 -0.008098463 -0.0039262837
0.009820244 0.007885527 -0.0010823422 0.0053636534 -0.02056062 -0.024892077 0.010988605 0.0017485067
00000000: befc c13b deca d33a d411 3cbc 3d67 a93b
00000010: 5cd8 8bbb 3d30 c0bb d150 eb3b bd9b bb3c
00000020: f812 dabb 15ac df39 edaf 4f3c 4c86 0c3b
00000030: 966a 93bb 6230 65bc 0c62 21bc fb08 3cbb
00000040: 59ba c8b8 6640 903c da1a 5f3c 923e e03b
00000050: 2850 f83b 133e e83b 9ba8 6f3b dd49 b33c
00000060: c245 dd3b 083d 50bb c9b9 763b a268 c33a
00000070: 2dca 883c 4400 0bba 07fd 0c3c 6a34 fa3a
00000080: 7152 a13c a61e 12bb 2df4 303c cf7a a73c
00000090: 1a43 b3bb 70cc 413c 173e 933c f42e 84bb
000000a0: 0d0a c43b 7b8e 153c d1b1 5cbb 04a9 7f3c
000000b0: 6800 853a 87a2 25bb 4128 4fbc 38d1 82ba
000000c0: 47a5 b63a c02d b13b 6a23 4fbc 348a 1b3c
000000d0: 1db6 43bb c19d 43bc 1a06 76bc d830 8e3b
000000e0: 93df 06bc 2064 b1bc f33f 343b f051 a63b
000000f0: d545 49bb a6a8 aa3b c319 933b 4801 05bb
00000100: 2adf 8abb 2e3f bf3b 9dca 6dbb f4a5 3239
00000110: 1c35 283c 5081 22bb b24f f73a f2e6 3b3b
00000120: 5c37 2c3b bafa 5f3c 3c13 d3bb 3deb 813c
00000130: d9ca a6bb d3f7 813a 60fc 543c f18a e13b
00000140: 79b8 953a ed0a 5cbc c414 eeb8 3837 373c
00000150: fe65 bb3a 818e 6e3b a2ca 89bc 6265 d93c
00000160: 8ceb ce3b 090a 0d3c 1b93 f5bb ce69 ed3b
00000170: ca43 343c 318e b43b 79ca b6bb 8ef1 363c
00000180: a5d8 783c 0ecf d13b cd36 2f3c 73c8 cf3a
00000190: 436c 9abb 7a87 48ba 9803 27bb 69ce 5cbc
000001a0: f891 8d3b 42b9 f0bb 5d31 8c3c 694b 233c
000001b0: 2351 21bc 4c0d d3bb 075d 393c af26 dabb
000001c0: d1a3 08bc c90b c2bb 38bb 3e3a 5537 28ba
000001d0: 3960 743c 3a6e 60bc c868 a93c f045 e53b
000001e0: 7448 35bb cd58 0cbc 68fb b3bb deb1 70bb
000001f0: b0a4 5abb 19d9 633b 7fcc 04bb e118 3b3b
00000200: 9904 33bb 17da 473b 2c0a 00bb 8c2a d5bb
00000210: 2a44 0eba 9325 5abc 6cab 2b3b ea20 febb
00000220: 5b8b 5e3b eccc 3f3b 8e5e eabb 853a b6bb
00000230: 440d 103c 1911 82bc 285b e7bb 0121 853a
00000240: d6ac 313c 52b1 283c d825 b5bb c2e7 6e3c
00000250: 8244 4f3b 4f56 55bb ce48 8eb8 7c55 17bb
00000260: 7ba1 823b ccf3 41bb 79bd d0bb f57a 47ba
00000270: 02f9 3bbb 39a3 acbb 12a0 313b c10c b53b
00000280: 825d 723b cafc 2bbc dfe4 54bb 449e 50bc
00000290: 460a b73a 5873 16bb 9778 afbb 7cdb bf3c
000002a0: 0bbb 34bc e57d fe3b fac7 173c f6e9 d8bb
000002b0: 559e ffba 981f 84bc 5e62 503b 8907 80bb
000002c0: b52e ab3b c6c9 65bc 9aa1 e93c 7f3e 94bb
000002d0: b2ac 8ebb dcbb 6ebb 32e9 81bc 75cf 31bc
000002e0: 2ad4 403c 8d37 23bb 1338 68ba 8c59 7b3c
000002f0: 5705 9dbb 0241 0bbc a463 e0bc c461 40bb
00000300: e155 663b 0211 43bc 3c01 5dbb 483a 193b
00000310: 5ef0 d9bb 2473 303c d25c 0dbb f786 31bb
00000320: 8e4c 5c3b 6e6c 4b3b 1ede fabc f16f 1a3b
00000330: 425f cfbb 5878 83ba d70d 07bc aa3e a6bb
00000340: 4bbc 9dbb 0c31 e1bc 998d 8cbb 1445 2a3c
00000350: 7e71 fe39 538c f83b 0713 12b9 704c 193c
00000360: 2905 78bc 0004 1eb8 3503 f6bb 2d82 5abb
00000370: d94b 503c d226 303c 6a71 b5bb e278 32bb
00000380: 34ed 5bbc ae2d 483a d344 223c 5221 87bb
00000390: a78b d4bb ef9f a53c bc27 b8ba 24b4 263c
000003a0: 176c 053c fb6e 56bc 6ace 83bb 11c4 91ba
000003b0: 2ba7 9fbc 661b dbbb 8c3b 4fbc f814 883c
000003c0: 2d54 783c 86d1 053c 027d 0fba aba6 2d3c
000003d0: 1de4 de3b 1b50 01bc 6aaf 04bc 0ea8 80bb
000003e0: 17e5 203c 4c32 013c 61dd 8dba 96c1 af3b
000003f0: bf6e a8bc 78ea cbbc 8d09 343c 262e e53a

action_model._continuous_distribution.mu.bias f4 [2]
0.00011825665 0.0018443215
00000000: 8e00 f838 29bd f13a
