Assets/Results/AgentBehavior.onnx (onnx, 566922 bytes, 17 tensors)

discrete_act_size_vector f4 [1, 2]
0	0x41000000	8.0
1	0x41000000	8.0

network_body.observation_encoder.processors.0.normalizer.running_mean f4 [8]
0	0xc35b3f05	-219.24617
1	0x00000000	0.0
2	0xbee7dad5	-0.45284143
3	0xc35358ae	-211.3464
4	0x00000000	0.0
5	0x3f1093c0	0.5647545
6	0xc0fccb0d	-7.8997865
7	0x00000000	0.0

network_body._body_endoder.seq_layers.0.weight f4 [256, 8]
0	0x3e685dac	0.22691983
1	0x3f3637ec	0.7117908
2	0xbf0815f2	-0.53158486
3	0x3e43d7ff	0.19125365
4	0x3df851b5	0.121249594
5	0x3eba6317	0.36403725
6	0xbe5f7335	-0.21821292
7	0x3e0b549e	0.13606498
8	0x3e399639	0.18123712
9	0x3e2e9bc7	0.17051612
10	0x3ea91214	0.33021605
11	0x3e0d2cb2	0.13786581
12	0x3f053eac	0.52048755
13	0xbf2da81c	-0.6783464
14	0x3e883dfc	0.2660979
15	0xbefbb069	-0.49158028
16	0xbef768d3	-0.48322162
17	0x3efffb78	0.49996543
18	0x3e2b8ba0	0.16752481
19	0x3e908811	0.2822881
20	0x3f28414e	0.6572465
21	0xbdb5c731	-0.08875883
22	0xbe604632	-0.21901777
23	0xbef7bc9c	-0.48386085
24	0xbdfa35f9	-0.12217326
25	0x3e4cdc0f	0.2000582
26	0xbd22e081	-0.039764885
27	0xbe21dac4	-0.15806109
28	0x3e0a3922	0.13498357
29	0xbefa9ef4	-0.48949397
30	0xbe3359dd	-0.17514749
31	0xbe5ec4a6	-0.21754703
32	0x3ced61bd	0.02897727
33	0xbddda1c3	-0.10821869
34	0xbe53a2f6	-0.20667633
35	0xbe05915c	-0.13043731
36	0xbe6184cb	-0.22023313
37	0xbe8036c4	-0.25041783
38	0x3f171cc1	0.5902825
39	0x3cc482fa	0.023988236
40	0xbe2b047f	-0.16700934
41	0x3e29d6fc	0.16585916
42	0xbe17d79b	-0.1482834
43	0xbe09f297	-0.13471447
44	0x3e323fc9	0.17407145
45	0x3e34c0fc	0.17651743
46	0x3e9a3b78	0.30123496
47	0xbeb3facd	-0.35152283
48	0xbecac069	-0.39599922
49	0xbe009712	-0.12557629
50	0x3e63c101	0.22241594
51	0x3e3e2749	0.18569674
52	0xbe3e756d	-0.18599482
53	0xbf8c8b78	-1.0980062
54	0x3e141260	0.14460135
55	0x3eafbcf4	0.34323847
56	0xbde781e3	-0.11304071
57	0xbd1039d6	-0.035211407
58	0xbe268276	-0.16260704
59	0xbe78895b	-0.24271147
60	0xbd140f38	-0.036147326
61	0xbe77f357	-0.2421392
62	0xbdbfead1	-0.093709596
63	0x3ee2ad80	0.44272995
64	0x3ccdda43	0.02512849
65	0x3dd1eb4d	0.10249958
66	0xbde007f4	-0.10939017
67	0x3f0f4bf6	0.5597528
68	0x3dfb28ea	0.12263663
69	0x3e3eecdd	0.18645044
70	0xbf3132ed	-0.6921833
71	0x3d31781b	0.043327432
72	0xbf1466e1	-0.5796948
73	0x3cd2964a	0.025706429
74	0x3e33a84c	0.17544669
75	0x3d4a0d26	0.049328946
76	0x3ce1aec6	0.027549159
77	0x3e3317bc	0.17489523
78	0x3dd5eee7	0.10445958
79	0x3dbcd0d7	0.092195205
80	0x3f0b4d77	0.54415077
81	0x3e5a646b	0.21327369
82	0x3b007979	0.0019603653
83	0x3f08e85f	0.5347957
84	0x3e8b9c11	0.27267507
85	0xbd7b2a92	-0.061319895
86	0xbec74079	-0.38916376
87	0xbe1641fd	-0.1467361
88	0xbe91b0fe	-0.28455347
89	0xbf4d0041	-0.8007851
90	0x3d717ae9	0.058955107
91	0xbe73157d	-0.23738666
92	0xbd87ca79	-0.066304155
93	0xbeb425a1	-0.3518496
94	0xbe69ce82	-0.22832683
95	0xbed4f718	-0.41594768
96	0x3d7e2fab	0.06205718
97	0x3e8d3fc8	0.27587724
98	0x3f288e93	0.6584255
99	0xbe7452c1	-0.23859693
100	0xbef4a122	-0.47779185
101	0xbef2b1bf	-0.47401235
102	0xbe94b4ad	-0.29044095
103	0x3cde757f	0.027155636
104	0x3e733259	0.23749675
105	0xbebcc731	-0.3687072
106	0xbf13068a	-0.5743185
107	0x3ca56c1e	0.020193156
108	0x3e21c713	0.15798597
109	0xbeb92a67	-0.36165163
110	0xbe82f7f2	-0.25579792
111	0x3e436a9e	0.1908364
112	0x3ecc4769	0.39898232
113	0xbd0babe8	-0.03409949
114	0xbf39e152	-0.72609437
115	0x3e96f945	0.29487053
116	0x3d2cee13	0.042219233
117	0xbd9cf823	-0.07664516
118	0xbf0f4490	-0.55963993
119	0x3e9aab1b	0.30208668
120	0xbe956297	-0.2917678
121	0xbe0b2ec8	-0.13592064
122	0xbe43b083	-0.19110303
123	0x3db69d61	0.089167364
124	0x3f1327fb	0.5748288
125	0x3e8de88d	0.27716485
126	0x3e3d5e7b	0.18493073
127	0xbee8b11f	-0.45447633
128	0x3eeda64c	0.46415937
129	0xbe744f2f	-0.23858331
130	0xbe606466	-0.21913299
131	0xbf22a3ac	-0.63530993
132	0xbe160679	-0.14650907
133	0x3e6e9670	0.23299575
134	0xbeda40d7	-0.42627594
135	0xbeb7f7c8	-0.3593123
136	0x3e9b4fdf	0.30334374
137	0x3c279da1	0.010230453
138	0xbf0701d1	-0.52737147
139	0xbe99a5c4	-0.30009282
140	0x3e72a09e	0.23694083
141	0xbc877c6f	-0.016538827
142	0x3f170135	0.58986217
143	0xbd71c2a8	-0.05902353
144	0xbeca68b7	-0.39533016
145	0xbf0b0128	-0.5429864
146	0xbe91adf1	-0.2845302
147	0xbe327a68	-0.17429507
148	0x3d86af48	0.06576401
149	0xbde7f350	-0.11325705
150	0x3e2b2bd7	0.16715942
151	0xbf4cc42c	-0.79986835
152	0x3e0cd5a8	0.13753378
153	0x3e0b6a0d	0.13614674
154	0xbe517a5c	-0.20456833
155	0xbe55fc71	-0.2089708
156	0xbf3e81a2	-0.74416554
157	0xbe90269d	-0.2815446
158	0x3e16a25a	0.1471037
159	0xbeaa3b79	-0.332485
160	0xbe1c2e82	-0.15252116
161	0xbe8fba64	-0.28071892
162	0x3e5e8649	0.21730913
163	0x3e1d3ff4	0.15356427
164	0x3ecee8b0	0.404119
165	0x3e0ece85	0.13945968
166	0xbe7459f7	-0.23862444
167	0xbef76abe	-0.48323625
168	0xbeb0bde0	-0.34519863
169	0x3eec5729	0.46160248
170	0x3ebeadc5	0.3724195
171	0xbef0088f	-0.4688153
172	0xbe6824a1	-0.22670223
173	0x3ca62a48	0.020283833
174	0x3ed27ea1	0.41112235
175	0xbf3f8b85	-0.74822265
176	0x3ec0749a	0.3758896
177	0x3eb720eb	0.35767302
178	0xbe894e49	-0.2681754
179	0xbebceebd	-0.36900893
180	0xbe852502	-0.26004797
181	0x3db327ad	0.08747802
182	0xbef047d6	-0.46929806
183	0xbe36e03e	-0.17858979
184	0x3e455f9e	0.19274756
185	0xbddf5ef8	-0.10906786
186	0x3ec00601	0.3750458
187	0x3e9b6384	0.30349362
188	0x3e82500e	0.25451702
189	0x3adb1552	0.0016714728
190	0xbe8460aa	-0.25855
191	0x3d6b7144	0.057481065
192	0xbcd36687	-0.025805725
193	0x3f384b27	0.71989673
194	0xbebf5e6c	-0.37376726
195	0xbe8a2e1f	-0.26988313
196	0x3e190b9d	0.14945836
197	0x3e9c21f5	0.30494657
198	0xbe729df3	-0.23693065
199	0xbdefb91a	-0.11705227
200	0xbf0c3c10	-0.5477915
201	0x3e4699dc	0.1939463
202	0x3dce9a18	0.10087985
203	0xbeb2ba0e	-0.34907573
204	0xbe2e10e1	-0.16998626
205	0x3dcbf7a4	0.09959343
206	0xbd8dc495	-0.06922261
207	0x3c9266ea	0.017871339
208	0x3f262091	0.6489344
209	0x3e0b66b4	0.13613397
210	0xbea6369a	-0.32463533
211	0x3f0571a4	0.52126527
212	0x3ee13c45	0.43991295
213	0xbf39cf2c	-0.72581744
214	0xbdedf6fd	-0.11619375
215	0x3e58b209	0.21161665
216	0xbea3b900	-0.3197708
217	0xbdbad2f9	-0.09122271
218	0xbe81e3ca	-0.25369102
219	0x3d3098d6	0.043114506
220	0x3ef6233f	0.48073766
221	0x3dfd207f	0.12359714
222	0xbe9b6aca	-0.3035491
223	0x3f604341	0.8760262
224	0xbe603f68	-0.21899188
225	0xbeb2807b	-0.34863648
226	0xbe69aeda	-0.22820607
227	0xbd80246d	-0.06256948
228	0x3dd57e09	0.1042443
229	0x3dfbf293	0.12302127
230	0xbf19195d	-0.59804326
231	0x3e67df11	0.22643687
232	0xbf00835f	-0.50200456
233	0xbde29f92	-0.11065592
234	0xbe976ec3	-0.29576692
235	0xbedd6cba	-0.43247014
236	0xbef536a8	-0.47893262
237	0xbe0ce6e8	-0.13759959
238	0xbf362148	-0.71144533
239	0xbeaf9194	-0.34290755
240	0x3d9aa089	0.07550151
241	0x3f3daa5c	0.7408807
242	0x3e221afa	0.15830603
243	0x3cd36176	0.025803309
244	0xbc770385	-0.015076523
245	0x3e7b6ef6	0.24554047
246	0x3edb6455	0.42849985
247	0x3e2eae58	0.17058694
248	0xbdbb394b	-0.09141787
249	0xbdec67b6	-0.11543219
250	0x3e46c4a5	0.19410951
251	0x3e960260	0.29298687
252	0x3f5e00f2	0.8672019
253	0x3efb083a	0.49029714
254	0x3e125db2	0.14293554
255	0xbe23b019	-0.15985145

network_body._body_endoder.seq_layers.0.bias f4 [256]
0	0x3d4005e2	0.04688061
1	0x3d3811bb	0.044938784
2	0xbcf19246	-0.029488694
3	0x3d344911	0.044014994
4	0xbce5e5e2	-0.028063718
5	0x3d6cb9d5	0.05779441
6	0x3d2c0d68	0.042004973
7	0xbb1094eb	-0.0022061418
8	0x3d26d92a	0.040734448
9	0x3d88b87a	0.06675811
10	0x3d6435cc	0.055715367
11	0x3d3a78a4	0.045525208
12	0x3d55e996	0.052224718
13	0x3d32022c	0.043459103
14	0x3d2968e0	0.041359782
15	0xbcde8163	-0.027161306
16	0x3d13673c	0.035987124
17	0xbcb9f6ac	-0.02270063
18	0xbc9eccd9	-0.019384788
19	0xbd3af136	-0.045640193
20	0x3d6017dd	0.054710258
21	0x3d4f6862	0.050636657
22	0x3d4b7fb1	0.049682323
23	0x3bde8c66	0.006791639
24	0x3b4a3ce4	0.0030859048
25	0x3d6c4a2d	0.057687927
26	0x3d8d7ac9	0.06908185
27	0x3cf61ec1	0.030043961
28	0x3d23212a	0.03982655
29	0x3cd9ce34	0.026587583
30	0x3d4ea7dc	0.050453052
31	0x3d849e45	0.064755
32	0x3d4703f4	0.048587754
33	0x3b3ad8fc	0.002851068
34	0x3d77c06b	0.06048624
35	0x3d494511	0.049138132
36	0x3d0b51fa	0.034013726
37	0x3d3345ce	0.043767743
38	0xbbcb2e86	-0.0062006144
39	0x3d6d949a	0.058003046
40	0xbd44b218	-0.048021406
41	0x3d48eaa8	0.04905191
42	0x3d2a5058	0.041580528
43	0xbc23e5ff	-0.010003566
44	0x3d746cbb	0.059674006
45	0x3d2c6fef	0.042098936
46	0x3cc48756	0.023990314
47	0x3d741138	0.059586734
48	0x3d5158ca	0.051110066
49	0x3d6b696f	0.057473596
50	0x3d05e793	0.03269155
51	0x3d486215	0.048921663
52	0x3cb2dffd	0.021835322
53	0x3d80a163	0.06280782
54	0x3d13afa6	0.036056183
55	0xbab333b0	-0.001367202
56	0x3cace4a7	0.021105124
57	0xbc993396	-0.018701356
58	0xbd0d1ea0	-0.034453034
59	0x3d6a5147	0.05720642
60	0x3d2bfe0c	0.041990325
61	0x3d68d34a	0.056842126
62	0xbc0dc697	-0.008653305
63	0xbd331a29	-0.04372612
64	0x3cf0c4a6	0.029390644
65	0x3d5c412a	0.053773083
66	0xbd5d8059	-0.05407748
67	0x3c25ea90	0.010126725
68	0x3d5da230	0.054109752
69	0x3d494fa8	0.04914823
70	0x3d31a887	0.04337361
71	0x3d74078b	0.059577506
72	0x3c621b55	0.013800462
73	0x3d438b41	0.047740225
74	0x3d4a6e24	0.049421445
75	0x3d0ff530	0.03514594
76	0xbd8045ff	-0.06263351
77	0x3d1b5d77	0.037930932
78	0xbd1ba7f6	-0.038001977
79	0x3d41bc66	0.04729881
80	0x3d9fcc1a	0.07802601
81	0xbc869e55	-0.01643292
82	0x3cbcec35	0.023061851
83	0x3d3c093a	0.045907237
84	0x3ccfa41c	0.025346808
85	0x3d38ee91	0.04514939
86	0x3bb2989c	0.0054503214
87	0x3d2d2adb	0.0422772
88	0x3d42e5b1	0.047582332
89	0x3d0c33a8	0.03422895
90	0xbd079314	-0.03309925
91	0x3d8cc507	0.068735175
92	0xbd2cefe0	-0.04222095
93	0xbcd1cc9e	-0.025610264
94	0xbd3d3ad9	-0.0461987
95	0xbc7fabd0	-0.015604928
96	0x3d2aa84f	0.041664418
97	0xbb65f613	-0.0035089299
98	0x3d78f658	0.060781807
99	0x3b958c93	0.004563877
100	0x3d6f1a03	0.058374416
101	0x3ccddd76	0.025130015
102	0x3d170cad	0.036877323
103	0x3d7c9a11	0.061670367
104	0x3d24f83a	0.04027579
105	0x3d7cb42e	0.06169527
106	0x3d5b78af	0.05358189
107	0x3d0bf5ed	0.03417008
108	0x3d1e6648	0.03867176
109	0x3ceeb3f4	0.029138543
110	0x3d290b7c	0.041270718
111	0x3d50f656	0.051016174
112	0x3d3d0cd3	0.04615481
113	0x3d5ae894	0.05344446
114	0x3c93e3fa	0.018053044
115	0x3d2d2768	0.04227391
116	0x3d2d32da	0.042284824
117	0x3c111908	0.008856066
118	0x3d8072b7	0.0627188
119	0x3d27ee08	0.04099849
120	0x3d2572ce	0.04039269
121	0xbc8d4ca8	-0.017248467
122	0x3d4d5f15	0.050139505
123	0x3d50b535	0.050954062
124	0x3d213cd2	0.039364643
125	0xbc0e525e	-0.00868663
126	0x3d2b7fd2	0.041869946
127	0x3d172a02	0.036905296
128	0x3d2241fb	0.039613705
129	0x3d7cbc5e	0.06170308
130	0x3d5cf6c4	0.05394627
131	0x3d7c103f	0.06153893
132	0x3d833a18	0.06407565
133	0x3d2da00a	0.042388953
134	0x3d6870f9	0.056748364
135	0x3d38dd25	0.045132775
136	0x3d1ed7e1	0.038780097
137	0xbd0d7ae4	-0.034541026
138	0x3d44ab58	0.04801497
139	0x3d0ffd7a	0.035153843
140	0x3d5072ed	0.05089085
141	0x3d4b6c4a	0.04966382
142	0x3b34bca0	0.002757825
143	0x3d1a9f27	0.037749436
144	0x3d84011f	0.06445526
145	0x3d57e489	0.052708182
146	0xbc8b0d94	-0.016974248
147	0xbcbc5f66	-0.022994708
148	0xbc8702ab	-0.016480764
149	0x3d5b97fa	0.053611733
150	0x3d058229	0.032594834
151	0xbc6d1964	-0.014471386
152	0x3d256e11	0.04038817
153	0x3d7452b2	0.059649177
154	0x3d41d8f7	0.047326054
155	0x3d8512f9	0.06497759
156	0xbd2577de	-0.040397517
157	0xbc23eae9	-0.010004737
158	0x3d5196b6	0.05116912
159	0x3cdca427	0.026933743
160	0x3d0f15b5	0.03493281
161	0x3d237fab	0.039916676
162	0x3d55fe78	0.052244633
163	0x3d452563	0.048131358
164	0x3d804cb2	0.062646285
165	0xbc9732bc	-0.01845681
166	0x3d41749c	0.047230348
167	0x3d31d408	0.0434151
168	0x3d536ef3	0.05161948
169	0xbd343b67	-0.044001963
170	0x3c80f0af	0.015739767
171	0x3d6de97a	0.05808399
172	0x3d56f567	0.052480128
173	0x3d78d947	0.060754087
174	0x3d5bc48e	0.053654246
175	0x3d41dba3	0.047328603
176	0xbcfa3eb7	-0.030547483
177	0x3cb71069	0.022346692
178	0x3d6a5b47	0.057215955
179	0x3bee3b79	0.0072702733
180	0x3d35a392	0.044345446
181	0xbc964336	-0.018342596
182	0x3d4961ad	0.049165417
183	0x3d15d747	0.036582258
184	0x3d13d77a	0.036094166
185	0x3d6dc5d4	0.05804999
186	0x3d23d486	0.0399976
187	0xba6f26e7	-0.00091229234
188	0x3d812b3f	0.06307077
189	0x3d51eb89	0.051250014
190	0xbd2531d8	-0.040330738
191	0x3d603473	0.05473752
192	0x3d09b948	0.033623964
193	0xbabe97bf	-0.0014541073
194	0x3cd6b80e	0.026210811
195	0x3c47156a	0.012151102
196	0x3d4d8107	0.05017188
197	0x3d5cb0f9	0.05387971
198	0x3d418799	0.047248457
199	0xbd3802b4	-0.044924453
200	0x3d37022c	0.044679806
201	0x3d3dd6fe	0.04634761
202	0x3d60e076	0.054901563
203	0x3d83bdf2	0.064327136
204	0x3b1b27bb	0.0023674804
205	0x3d3a9110	0.0455485
206	0xbd022877	-0.03177687
207	0xbd70373a	-0.05864642
208	0x3cf32051	0.029678496
209	0xbc968354	-0.018373169
210	0x3d659ddc	0.05605875
211	0x3d34de4a	0.044157304
212	0x3c60a156	0.0137103405
213	0x3d557aad	0.052118946
214	0x3d0cc64d	0.0343688
215	0x3d3316ca	0.043722905
216	0x3d92f606	0.071758315
217	0x3d537e81	0.051634315
218	0x3d07d3b5	0.033160884
219	0x3d08f62d	0.033437897
220	0x3cb4130c	0.021981739
221	0xbc9db6c9	-0.019252198
222	0xbd847f81	-0.06469632
223	0x3ce30441	0.02771199
224	0x3d296138	0.04135248
225	0x3d631eee	0.05544942
226	0x3d45afa0	0.048263192
227	0x3d938430	0.07202947
228	0x3cd346f2	0.025790665
229	0xbcb25a43	-0.021771556
230	0xbaf7c409	-0.0018903028
231	0x3d4c98f8	0.04995057
232	0x3c471bcc	0.012152623
233	0x3d181032	0.03712482
234	0x3d3d225f	0.046175357
235	0x3bdd2167	0.0067483666
236	0xbbf4e36c	-0.0074734
237	0x3cc7da14	0.02439598
238	0x3d30600c	0.043060347
239	0x3d809262	0.0627792
240	0xbb337d46	-0.0027387901
241	0x3d3768b4	0.044777587
242	0x3d3d9014	0.04627998
243	0x3ccf0332	0.025270078
244	0x3ccb0387	0.024781955
245	0x3d18aba2	0.037273057
246	0x3d1db9f9	0.038507435
247	0xbd2fa298	-0.04287967
248	0x3d12cbed	0.03583901
249	0x3d474334	0.048648074
250	0x3c029668	0.00797043
251	0x3cab7595	0.02093009
252	0xbc170be4	-0.009219144
253	0x3cb62a77	0.022237046
254	0x3d7b2f0d	0.061324168
255	0x3d5f07ae	0.054450683

network_body._body_endoder.seq_layers.2.weight f4 [256, 256]
0	0x3c9853a5	0.018594572
1	0x3ccac597	0.024752421
2	0xbdf009b3	-0.117206
3	0x3d4951b3	0.04915018
4	0xbd853d65	-0.06505851
5	0xbdba8e3d	-0.09109161
6	0x3cc89704	0.024486072
7	0x3d101d2a	0.035184063
8	0x3c082fd0	0.008312181
9	0xbc00d90c	-0.007864248
10	0x3d85cef9	0.065336175
11	0xbcd3e041	-0.025863769
12	0xbdae32de	-0.08505796
13	0xbc05185f	-0.008123486
14	0x3d168c80	0.036755085
15	0x3cc6695a	0.024220157
16	0x3b80af0e	0.003927118
17	0x39def282	0.00042523822
18	0x3c223b50	0.0099018365
19	0xbd47c455	-0.04877122
20	0xbda8a3ec	-0.082343906
21	0x3dedf705	0.11619381
22	0xbdbe2980	-0.09285259
23	0x3c09d9af	0.008413716
24	0xbd31dfa7	-0.043426182
25	0x3dc9801e	0.098388895
26	0xbd3cba58	-0.04607615
27	0x3cb6a986	0.022297632
28	0xbc6390c5	-0.013889496
29	0x3c2aff5c	0.010436859
30	0xbbb4ae34	-0.0055139307
31	0xbc92c18f	-0.017914562
32	0x3d73e52f	0.05954474
33	0xbdba3004	-0.090911895
34	0x3d5cee35	0.05393811
35	0x3bfe3e90	0.007758923
36	0x3c3bec61	0.011469931
37	0x3d34d06c	0.04414408
38	0xbd5c339a	-0.05376015
39	0xbb251e26	-0.0025194972
40	0x3c8281cd	0.015931034
41	0xbd8c825d	-0.06860802
42	0xbbd50dbc	-0.0065018814
43	0xbd35d944	-0.044396654
44	0xbd052f64	-0.0325159
45	0x3d960f08	0.07327086
46	0xbdcf6da0	-0.10128331
47	0x3dff085d	0.12452767
48	0x3da78a8e	0.08180724
49	0x3d821d48	0.06353241
50	0x3bf35db3	0.0074269413
51	0x3d9e353a	0.07724996
52	0x3dca36de	0.09873746
53	0xbd0fe14a	-0.03512696
54	0xbd3f3cee	-0.046688966
55	0xbd3e9a1d	-0.046533693
56	0xbdc6b404	-0.09702304
57	0xbdb1c721	-0.08680559
58	0xbbd4c478	-0.0064931475
59	0xbdd9999e	-0.10625003
60	0xbd67e53a	-0.05661509
61	0x3db30fc2	0.0874324
62	0xbcd78280	-0.026307344
63	0xbd741b70	-0.05959648
64	0x3cf99a20	0.030469
65	0xbd4d1eb5	-0.050078113
66	0x3d0fb888	0.035088092
67	0xbe0ae8d3	-0.13565378
68	0xbbde9549	-0.0067926985
69	0x3ab3961a	0.001370135
70	0xbba2c47c	-0.0049672704
71	0xbb9eca8e	-0.0048459237
72	0xbe0d7d4d	-0.1381733
73	0x3d61c6bb	0.055121165
74	0x3d980fe2	0.074249044
75	0xbc0c88b7	-0.008577517
76	0xbdff2845	-0.12458853
77	0x3d7b452e	0.06134527
78	0xbac082d6	-0.001468743
79	0x3d3b3820	0.04570782
80	0x3d193490	0.037403643
81	0x3cf5c764	0.030002303
82	0x3d95009b	0.07275506
83	0xbdd33dc1	-0.10314513
84	0xbd29d763	-0.041465174
85	0xbc997605	-0.018733034
86	0x3d3c15a6	0.045919083
87	0xbe029cac	-0.12755078
88	0xbd4b277c	-0.049598202
89	0xbcf7d69c	-0.0302537
90	0xbad09f8a	-0.0015916687
91	0x3c639543	0.013890567
92	0x3d1b8e48	0.037977487
93	0x3ce08f81	0.027412178
94	0x3d0e18de	0.034691684
95	0xbc109186	-0.008823758
96	0xbd664244	-0.05621554
97	0x3de98bc9	0.11403615
98	0x3e0c1e34	0.13683397
99	0x3c9bc100	0.019012928
100	0x3d81e799	0.06343002
101	0x39f4dd47	0.0004670417
102	0x3cefb9c4	0.029263385
103	0x3cbe16cb	0.023204228
104	0xbdb1d310	-0.08682835
105	0xbb48b591	-0.00306258
106	0xbd67037b	-0.056399804
107	0x3d2cfcc8	0.04223326
108	0x3b57d6ff	0.0032934544
109	0xbd122822	-0.035682805
110	0xbd8fcfec	-0.0702208
111	0x3cd130c8	0.025535956
112	0x3d2bd7e9	0.041953955
113	0x3e0e2708	0.13882077
114	0x3c6466a3	0.013940486
115	0x3cbe2b8e	0.023214128
116	0xbd935177	-0.071932726
117	0xbcfe9dd4	-0.031081118
118	0x3d6d88c9	0.057991777
119	0x3d799e60	0.060942054
120	0xbc204b60	-0.009783596
121	0x3b690f49	0.003556209
122	0x3ddb925c	0.10721275
123	0xbd5ba455	-0.053623516
124	0xbd6d6a32	-0.057962604
125	0x3deff9cc	0.11717567
126	0xbcdbe032	-0.026840303
127	0xbc11fd83	-0.00891054
128	0x3cc3af4b	0.023887297
129	0xbcc0b42b	-0.02352341
130	0x3d17722a	0.03697411
131	0x3c11a20c	0.008888733
132	0xbd87cc91	-0.06630815
133	0x3d49d4c1	0.049275164
134	0xbc9fd3ea	-0.019510228
135	0x3c87f205	0.016594896
136	0x3de2e1a5	0.110781945
137	0xbd700f31	-0.058608238
138	0x3d1e72d5	0.03868373
139	0x3d34bb37	0.044123854
140	0x3c02eacc	0.00799055
141	0xbbe2745c	-0.006910844
142	0xbbbaa20f	-0.0056955884
143	0xbc673062	-0.014110656
144	0x3bfd25b7	0.007725443
145	0xbbc56644	-0.006024154
146	0x3bef2c74	0.0072990004
147	0xbbadae20	-0.0053002983
148	0xbdba5dbc	-0.0909991
149	0x3cf1f1e0	0.02953428
150	0x3c27057f	0.010194181
151	0x3c3fba6f	0.011702164
152	0xbc018b87	-0.007906801
153	0x3daf3501	0.085550316
154	0xbd88b7a7	-0.06675654
155	0xbc8813d0	-0.01661101
156	0xbd569fb2	-0.05239839
157	0x3d85a6ad	0.065259315
158	0xbcc45072	-0.02396414
159	0xbcca789c	-0.024715714
160	0x3dc453f2	0.09586324
161	0x3ad2627e	0.0016051081
162	0x3d9498c1	0.07255698
163	0xbcb47373	-0.022027707
164	0xbd489a20	-0.04897511
165	0x3c054d72	0.00813614
166	0x3dbc3cb3	0.09191265
167	0xbd7b3b19	-0.061335657
168	0x3c4bf53c	0.012448605
169	0x3d482edb	0.04887281
170	0xba50b5ef	-0.00079616805
171	0x3c26f80d	0.010190976
172	0x3ceb907a	0.028755415
173	0xbc03e2dd	-0.008049694
174	0x3d9bf28d	0.07614622
175	0x3d6a16e8	0.05715075
176	0x3d1e27a6	0.03861203
177	0x3cf2458c	0.029574178
178	0xbd60d208	-0.0548878
179	0xbd97d9fc	-0.07414624
180	0xbded9535	-0.116007246
181	0xbc95f1c9	-0.018303769
182	0x3d89454f	0.06702673
183	0x3cf64ff6	0.030067425
184	0xbd740f0f	-0.059584673
185	0x3d2b1653	0.041769337
186	0xbd9bdbe8	-0.07610303
187	0xbdb0b329	-0.08627922
188	0x3d21ed4d	0.03953295
189	0xbd2a9b7a	-0.04165218
190	0xbd4cf8ee	-0.050042085
191	0xbd98c6ca	-0.07459791
192	0xbdbcb5a9	-0.092143364
193	0xbd4eff09	-0.05053619
194	0x3da4e4e1	0.08051468
195	0x3d63a93b	0.055581313
196	0x3c4de942	0.01256782
197	0xbd5cf458	-0.05394396
198	0xbc1068ad	-0.008814019
199	0x3d30f15f	0.04319894
200	0x3da8578f	0.082198255
201	0x3d9b3ed7	0.07580345
202	0xbc827d21	-0.015928807
203	0xbb01b5a3	-0.0019792102
204	0x3d7dcaee	0.061961107
205	0x3cf7eeba	0.0302652
206	0xbcae1c38	-0.02125369
207	0xbc1e34bb	-0.009656127
208	0x3ddc6d12	0.10762991
209	0x3c44175d	0.011968461
210	0xbcc0fcc2	-0.023558024
211	0xbd879141	-0.06619502
212	0x3a863ee8	0.0010242136
213	0x3dee15e5	0.1162527
214	0xbc94c84b	-0.018161913
215	0x3d183d1f	0.037167665
216	0x3d9db706	0.077009246
217	0x3d4b9755	0.04970487
218	0x3ce4944a	0.027902741
219	0x3acf9a89	0.0015838902
220	0x3c9d73bb	0.019220224
221	0xbd28ceda	-0.041212894
222	0xbcd3a6ef	-0.025836436
223	0x3bb06ac4	0.005383821
224	0x3d07460e	0.033025794
225	0xbc8b5ee5	-0.017013023
226	0xbc8c9e46	-0.017165314
227	0xbd3abd60	-0.04559076
228	0x3da34309	0.0797177
229	0xbc0fba8e	-0.008772505
230	0x3d577d77	0.052609887
231	0xbd3f4746	-0.04669883
232	0x3d5ab980	0.053399563
233	0x3dddaf5e	0.10824464
234	0x3d9e6634	0.077343374
235	0xbb9a81a3	-0.004715161
236	0xbe2c37be	-0.16818139
237	0xbb4142d5	-0.0029489298
238	0xbd99d5ee	-0.07511507
239	0x3e0af6a6	0.13570651
240	0xbcc734a8	-0.0243171
241	0xbd53fff2	-0.05175776
242	0xbbc0358a	-0.0058657574
243	0x3d506a64	0.050882712
244	0xbdb0f745	-0.08640913
245	0x3cec0b29	0.028813915
246	0x3b340b6a	0.0027472624
247	0xbdfd43c9	-0.123664446
248	0x3d1b0495	0.037846167
249	0x3d77f64a	0.060537614
250	0xbc956bee	-0.018239941
251	0x3d703b4b	0.058650296
252	0x3db158b1	0.08659495
253	0x3c1d45d8	0.009599172
254	0x3ce43d9c	0.027861409
255	0x3cb25cd8	0.021772787

network_body._body_endoder.seq_layers.2.bias f4 [256]
0	0x3d2fe8e1	0.0429467
1	0x3cf5ea81	0.030019047
2	0x3d32a582	0.04361487
3	0x3d32e4bd	0.043675173
4	0xbd4d9067	-0.05018654
5	0x3d193df5	0.037412602
6	0x3d04445d	0.03229176
7	0xbd05a1c1	-0.032624964
8	0x3cffadf6	0.03121088
9	0x3d260291	0.04052979
10	0x3d24ef51	0.040267292
11	0xbd8044ec	-0.06263146
12	0xbd565ae1	-0.052332763
13	0x3d0631cd	0.032762337
14	0xbbe3a56f	-0.0069472115
15	0x3cfa3ce7	0.030546619
16	0xbd70c605	-0.058782596
17	0xbc3f7bcf	-0.011687233
18	0x3c8eb5fc	0.017420761
19	0x3d1f8c9c	0.038952455
20	0x3d30d0dd	0.043167938
21	0x3d0c0cd5	0.034191925
22	0x3d5d8aef	0.054087576
23	0xbd4cee42	-0.050031908
24	0xbd79a2fe	-0.060946457
25	0x3d1bab55	0.03800519
26	0x3d1393bc	0.036029562
27	0x3c610cab	0.01373593
28	0x397e5e4e	0.00024258459
29	0x3d37661c	0.044775113
30	0x3d15322c	0.0364248
31	0x3baf742f	0.0053544263
32	0x3d0d6c3a	0.03452704
33	0x3cbede9c	0.023299508
34	0xbcc0410c	-0.023468517
35	0x3d6f4307	0.05841353
36	0x3d414a41	0.047189955
37	0xbd4ee691	-0.050512854
38	0x3d60aa44	0.054849878
39	0x3d1a3bac	0.037654564
40	0x3d302bf7	0.04301068
41	0xbd491eab	-0.049101513
42	0x3d015dc1	0.03158355
43	0xbc279b0c	-0.010229837
44	0x3cd5ca44	0.026097424
45	0xbd61da87	-0.055140045
46	0x3ceec4dc	0.029146604
47	0xbcc8d94c	-0.024517678
48	0x3d333d9c	0.043759927
49	0xbd487ecd	-0.04894905
50	0xbba7602c	-0.0051079
51	0xbd23cbc9	-0.039989267
52	0x3d32ebfd	0.043682087
53	0x3d34ab71	0.04410881
54	0xbd0c1ee8	-0.034209162
55	0x3d17bcb5	0.0370452
56	0x3d0727a9	0.032996807
57	0x3d33c52c	0.04388921
58	0x3ca59730	0.020213693
59	0xbd5c4b09	-0.053782497
60	0x3cb35fc7	0.021896256
61	0xbd0a654f	-0.03378802
62	0xbd1dd787	-0.03853562
63	0xbd35330c	-0.044238135
64	0xbcf923cf	-0.030412583
65	0x3d2d5e3e	0.042326204
66	0xbcc49b4b	-0.02399983
67	0x3c90d921	0.01768166
68	0xbc620cf8	-0.013797037
69	0x3d0bdf83	0.034148704
70	0x3d5f93c3	0.054584276
71	0x3d09e340	0.033663988
72	0xbd3614e4	-0.044453517
73	0xbc9e7afb	-0.019345751
74	0xbd5ad9d3	-0.05343039
75	0xbcd4b437	-0.02596484
76	0x3d174ccc	0.036938474
77	0x3cf18106	0.029480468
78	0x3d397a43	0.045282613
79	0x3ca755bd	0.020426625
80	0xbcfe9aea	-0.031079728
81	0xbd4e8536	-0.05042001
82	0x3ce31dad	0.027724111
83	0x3cb8fb65	0.022580812
84	0x3d473957	0.048638668
85	0x3d41a514	0.04727657
86	0x3c8e5908	0.017376438
87	0xbd1cd5a5	-0.038289685
88	0x3d028b67	0.031871226
89	0x3cca5060	0.024696529
90	0xbd3db41a	-0.046314336
91	0xbd2aeed4	-0.04173167
92	0x3cd62754	0.0261418
93	0x3ca86e7d	0.020560497
94	0xbd3db357	-0.04631361
95	0x3d065dae	0.032804184
96	0xbc31200e	-0.010810865
97	0x3d16426f	0.03668445
98	0x3d14aae7	0.036295798
99	0x3d187f39	0.037230704
100	0xbd20093d	-0.03907131
101	0xbd5ceaeb	-0.053934973
102	0x3c290a58	0.010317408
103	0x3d14ed0f	0.03635889
104	0x3d390463	0.0451702
105	0x3caeee09	0.021353738
106	0x3d2f33a0	0.042773843
107	0xbb730b93	-0.0037085756
108	0xbca7e0a1	-0.020492854
109	0x3bc0d717	0.0058850157
110	0x3cfc20f8	0.03077744
111	0xbd4cc268	-0.049990088
112	0x3d1d5204	0.038408294
113	0x3d2b095b	0.04175697
114	0x3d343af7	0.044001546
115	0xbd676f26	-0.056502484
116	0x3d2e2919	0.042519663
117	0x3d467c72	0.048458524
118	0xbd209c76	-0.039211713
119	0x3d169015	0.0367585
120	0xbd3223b0	-0.043491066
121	0x3d459317	0.04823598
122	0xbd1711e0	-0.03688228
123	0xbd2fca67	-0.042917635
124	0xbcccd2eb	-0.025002917
125	0xbd4abe32	-0.04949779
126	0x3cddce52	0.02707592
127	0x3d447bee	0.04796975
128	0x3d5aa3ce	0.053378873
129	0xbd73eaae	-0.05954998
130	0xbd4afc92	-0.049557276
131	0x3d459e9f	0.048246976
132	0x3d1058c2	0.035240896
133	0xbd260282	-0.040529735
134	0x3b1817a8	0.002320746
135	0xbc56a023	-0.013099703
136	0xbd11b0da	-0.03556905
137	0x3d2e09ff	0.04249
138	0x3d3e84a9	0.046513233
139	0xbd1c77fe	-0.03820037
140	0x3d012f42	0.03153921
141	0x3cde6da4	0.02715189
142	0x3d292ee9	0.041304503
143	0x3cf407f3	0.029788947
144	0x3d55a382	0.052157886
145	0xbd4497c4	-0.047996297
146	0x3d0ed309	0.034869228
147	0x3ca5cea7	0.020240141
148	0x3c22da7a	0.009939784
149	0x3d25f012	0.040512152
150	0x3d4e7062	0.050400145
151	0x3d32afa8	0.04362455
152	0x3d2c08c2	0.04200054
153	0x3bba1c51	0.005679645
154	0x3d238334	0.039920047
155	0xbd0d8e50	-0.034559548
156	0xbcdc7c90	-0.026914865
157	0x3d06579c	0.032798395
158	0xbd607e1c	-0.054807767
159	0x3d2cfe94	0.042234972
160	0x3d12d51d	0.035847772
161	0x3c8937e1	0.016750278
162	0x3cc58374	0.024110533
163	0x3d4f559d	0.050618757
164	0xbcc865ec	-0.024462663
165	0x3d1b61cc	0.037935063
166	0xbd5ea1fb	-0.054353695
167	0x3c926940	0.017872453
168	0x3d49e346	0.04928901
169	0xba6e7597	-0.0009096502
170	0x3c1bb18c	0.00950278
171	0x3d2da601	0.04239464
172	0xbd5c42f7	-0.0537748
173	0x3cd0d076	0.025490027
174	0xbb5300fc	-0.0032196632
175	0xbd3176b5	-0.0433261
176	0x3cebfe07	0.028807653
177	0x3d50dbd5	0.0509909
178	0xbd634054	-0.05548127
179	0x3d425680	0.047445774
180	0x3cc03a73	0.02346537
181	0x3d271021	0.040786866
182	0x3d1e7c2b	0.038692635
183	0x3c6ec17e	0.014572499
184	0xbd69a8ba	-0.057045676
185	0xbc8122e9	-0.015763717
186	0xbd37d1f1	-0.04487795
187	0x39623f23	0.0002157656
188	0x3d2614fd	0.04054736
189	0x3d10dcb1	0.035366718
190	0x3d3fea5e	0.04685437
191	0x3d39c38e	0.04535251
192	0xbca53cd9	-0.020170616
193	0xbd4f0efb	-0.050551396
194	0xbcd6bb06	-0.026212227
195	0x3d333f0d	0.0437613
196	0xbd3df6f7	-0.046378102
197	0xbd5b489d	-0.053536046
198	0x3be10770	0.0068673417
199	0x3cd20588	0.025637403
200	0x3971abc3	0.00023047537
201	0x3d074d10	0.033032477
202	0x3d337dbc	0.04382108
203	0x3ccb3d50	0.02480951
204	0xbcdd15e5	-0.02698798
205	0x3d235010	0.039871275
206	0xbca7ca00	-0.020482063
207	0xbb554d5f	-0.0032547337
208	0xbccb084c	-0.02478423
209	0xbd5cbd11	-0.053891245
210	0xbba5316d	-0.0050412924
211	0xbd5766df	-0.05258834
212	0x3c6a335c	0.014294472
213	0x3d22986b	0.03969614
214	0xbd167abc	-0.036738142
215	0x3c767f8a	0.015045056
216	0x3c4cd690	0.012502328
217	0x3d3d61f0	0.04623598
218	0xbd284457	-0.0410808
219	0xbca6aab6	-0.020345073
220	0xb9899000	-0.00026237965
221	0x3c81d6b4	0.015849449
222	0x3d340ece	0.04395943
223	0x3ccb0bb2	0.02478585
224	0x3d2eb028	0.042648464
225	0xbcd92571	-0.026507111
226	0x3d333d4f	0.04375964
227	0xbd5ecba3	-0.05439342
228	0x3ce31062	0.027717773
229	0x3d05f564	0.032704726
230	0x3d2932c6	0.041308187
231	0x3d4eedfa	0.05051992
232	0xbc600249	-0.01367242
233	0xbd3b64e5	-0.045750517
234	0x3d017c0d	0.031612445
235	0xbced18e2	-0.02894253
236	0x3d112417	0.03543481
237	0x3d42b4d6	0.04753574
238	0x3d327b2c	0.043574497
239	0x3cb5e579	0.022204148
240	0x3b2fe789	0.0026840887
241	0x3d0368b7	0.032082286
242	0xbcdd6c76	-0.027029257
243	0xbd4a5a1a	-0.049402334
244	0x3d00eff6	0.031478845
245	0x3d098abd	0.033579577
246	0xbc912d0c	-0.017721675
247	0x3d1ea331	0.03872985
248	0x3be896c3	0.0070980503
249	0x3d19236b	0.037387293
250	0xbd48d06b	-0.049026888
251	0xbd469a18	-0.0484868
252	0x3a52e438	0.00080448715
253	0x3d1393c7	0.036029603
254	0x3d331e15	0.04372986
255	0x3d20263c	0.039098963

network_body._body_endoder.seq_layers.4.weight f4 [256, 256]
0	0xbe2d98fd	-0.16952892
1	0x3c3c7b39	0.011503988
2	0x3d59d1db	0.05317865
3	0xbd991b14	-0.07475868
4	0x3c1ce0fd	0.009575126
5	0x3d924fa4	0.071440965
6	0xbc15ab00	-0.009135008
7	0x3db25f58	0.087095916
8	0x3d31ba26	0.043390416
9	0xbb4bdeaa	-0.003110806
10	0xbd9a6460	-0.07538676
11	0x3da4cda0	0.08047032
12	0xbd0a944e	-0.03383284
13	0x3c5799e4	0.013159249
14	0x3bd7bd45	0.006583842
15	0xbd8f176f	-0.069868915
16	0x3ccae049	0.02476515
17	0x3cd549ed	0.026036227
18	0xbd22e406	-0.03976824
19	0xbcaae109	-0.020859258
20	0xbc3538be	-0.011060892
21	0x3cffca03	0.031224256
22	0xbb56823e	-0.003273144
23	0xbd9d1123	-0.07669284
24	0xbc1a4047	-0.009414739
25	0xbcafee7f	-0.021476028
26	0x3d7539f0	0.059869707
27	0x3c8899d0	0.016674906
28	0xbd005a13	-0.0313359
29	0xbd0365e1	-0.03207958
30	0xbda35a3e	-0.07976197
31	0x3dad0880	0.08448887
32	0xbd2fd297	-0.042925444
33	0xbc037265	-0.008022879
34	0x3cea5a9c	0.028607659
35	0x3c492c8b	0.012278686
36	0xbd4fc295	-0.050722677
37	0x3b9bc77a	0.004754004
38	0x3c0a6cf9	0.008448833
39	0xbc330447	-0.010926313
40	0xbd79796f	-0.060906824
41	0x3cfae8ac	0.030628525
42	0xbdd3ee15	-0.10348145
43	0x3b50684c	0.0031800447
44	0xbdcbfbc6	-0.09960131
45	0x3dd62364	0.10455969
46	0xbd18cf90	-0.037307322
47	0xbdd182dd	-0.10230038
48	0xbdfaa0d7	-0.12237709
49	0x3baa18c5	0.005190941
50	0x3ce99802	0.028514866
51	0x3d488d9f	0.048963185
52	0x3d6c0fe4	0.057632342
53	0x3e0a9fda	0.13537541
54	0xbd71365e	-0.05888974
55	0x3d8226dd	0.06355069
56	0xbc91bd62	-0.0177905
57	0x3c8df499	0.017328547
58	0x3b8618a1	0.0040922915
59	0x3d19c8e7	0.03754511
60	0x3daa28b8	0.08308548
61	0xbd425d09	-0.047452006
62	0x3c0c2184	0.008552913
63	0x3d402370	0.046908796
64	0xbdb55036	-0.0885319
65	0xbcc4c469	-0.024019437
66	0xbdec4d2e	-0.11538158
67	0x3d439ee6	0.04775896
68	0x3d8493b6	0.06473486
69	0xbd6399dd	-0.055566657
70	0x3d1f9cb7	0.038967814
71	0x3d2ace96	0.041700922
72	0xbbbebaa8	-0.005820591
73	0xbd5e43f8	-0.05426404
74	0xbd131474	-0.035908177
75	0xbd644d18	-0.055737585
76	0x3cf6e0ae	0.030136432
77	0xbcef2778	-0.029193625
78	0xbd8600fa	-0.06543155
79	0xbd71e2c0	-0.059054136
80	0x3e140308	0.14454281
81	0xbd1519d4	-0.036401585
82	0x3e13c3b8	0.1443013
83	0xbd2fb15a	-0.042893745
84	0xbd0ca1ad	-0.034333874
85	0xbd943094	-0.07235828
86	0x3c911083	0.017708069
87	0x3d3ca31d	0.046053994
88	0xbe332296	-0.17493662
89	0x3b809be5	0.003924834
90	0x3c620364	0.013794754
91	0xbde3a16f	-0.111147754
92	0xbcc5bfb4	-0.024139263
93	0xbc9d8d2f	-0.01923236
94	0x3d9941ab	0.07483228
95	0xbbfd37d3	-0.007727602
96	0x3d7b3023	0.061325204
97	0xbc2e6654	-0.010644514
98	0x3db7c456	0.08972995
99	0x3dea2d30	0.114344
100	0xbd0a7587	-0.03380349
101	0xba95be79	-0.0011424563
102	0xba935782	-0.0011241289
103	0x3cf20b85	0.029546509
104	0xba61ad7a	-0.0008608919
105	0xbca167b6	-0.019702774
106	0x3dbdfdf0	0.0927695
107	0xbc689c46	-0.014197415
108	0x3d74cbb0	0.059764564
109	0x3cb9adb8	0.022665843
110	0x3d0febcb	0.03513698
111	0x3a707788	0.0009173085
112	0x3d426e41	0.047468428
113	0x3cbb443d	0.022859687
114	0xbe1775e7	-0.1479107
115	0x3da36747	0.07978683
116	0x3dfb8f84	0.12283233
117	0x3df8e8e8	0.12153798
118	0xb93e345c	-0.00018139317
119	0x3dbc8557	0.0920512
120	0x3c32460a	0.010880956
121	0xbba2b153	-0.0049649864
122	0x3cbc256a	0.02296706
123	0xbde6a962	-0.11262776
124	0x3d8ce76c	0.06880078
125	0x3d520dcb	0.051282685
126	0xbd152be0	-0.036418796
127	0xbddbf79f	-0.10740589
128	0xbe0cfe16	-0.13768801
129	0x3d0a629a	0.03378544
130	0xbc8cb408	-0.01717569
131	0x3df26260	0.1183517
132	0x3d84f13e	0.06491326
133	0x3d4a6f37	0.04942247
134	0xbd6f5426	-0.05842986
135	0x3bfe9c70	0.0077701136
136	0x3ca5564f	0.020182757
137	0x3d05be6a	0.032652296
138	0xbd959767	-0.07304268
139	0xbccb211c	-0.024796061
140	0xbcc5fb03	-0.024167543
141	0xbd1a25f7	-0.037633862
142	0xbd85d5cf	-0.065349214
143	0x3d1e2095	0.03860529
144	0xbe0f8fcb	-0.14019696
145	0xbccef107	-0.025261415
146	0xbbd41478	-0.0064721666
147	0x3a7257c8	0.0009244648
148	0xbd8eeb7e	-0.0697851
149	0x3c0a1ddd	0.0084299715
150	0xbc9e384a	-0.01931395
151	0x3ccf729a	0.025323201
152	0xbcbc8e17	-0.023016972
153	0xbd3a9407	-0.045551326
154	0x3deaec9c	0.11470911
155	0xbc9f5bf7	-0.019453032
156	0xbd30f019	-0.043197725
157	0x3d66c474	0.056339696
158	0xbd61c5de	-0.05512034
159	0x3dcc2be6	0.099693105
160	0x3d9d26ef	0.076734416
161	0xbdebe84a	-0.11518915
162	0xbd2f6d55	-0.042828877
163	0x3e062d2f	0.13103174
164	0x3d8ba106	0.06817822
165	0x3b70d7f3	0.003674981
166	0xbd886d13	-0.06661429
167	0x3bda3279	0.006658849
168	0x3df6c43f	0.1204915
169	0x3bf704ad	0.007538399
170	0xbdcc9636	-0.09989588
171	0x3cd015f5	0.025401095
172	0x3d9ef74c	0.07762012
173	0x3d87b545	0.06626371
174	0x3d4c960b	0.04994778
175	0x3b789877	0.0037932673
176	0x3d871487	0.06595712
177	0x3dc8cce3	0.09804704
178	0xbc9ddb02	-0.01926947
179	0xbcd8282d	-0.026386345
180	0x3ccc9edc	0.024978094
181	0x3ac4a7f9	0.0015003673
182	0xbc85f069	-0.016349988
183	0x3d1199bc	0.035547003
184	0xbde0ca81	-0.109761246
185	0x3dba5eb4	0.091000944
186	0x3daac2e5	0.083379544
187	0x3db4c4d2	0.08826603
188	0x3d511aa4	0.051050797
189	0x3da5919a	0.08084412
190	0xbd5aed8c	-0.0534492
191	0xba21d5c0	-0.0006173514
192	0x3d971c03	0.0737839
193	0xbc951f7e	-0.018203493
194	0xbda62709	-0.08112914
195	0x3dcc3b4a	0.09972246
196	0xbc6e0852	-0.014528351
197	0xbc90c1d8	-0.017670557
198	0x3d5d6c8d	0.0540586
199	0x3c9aec21	0.018911423
200	0xbd90c5b9	-0.070689626
201	0x3c6840fd	0.014175651
202	0x3e04decc	0.12975615
203	0xbde5747e	-0.1120386
204	0xbd1a1595	-0.03761824
205	0xbdaa2f8e	-0.083098516
206	0xbc8ff41a	-0.017572451
207	0xbbae8508	-0.005325917
208	0x3d6ecd40	0.05830121
209	0xbdd07149	-0.101778574
210	0x3df281f1	0.118411906
211	0x3b32e825	0.0027299013
212	0xbdade55f	-0.08491015
213	0xbccd9ce3	-0.025099223
214	0xbd01cc36	-0.03168889
215	0xbdaf22bb	-0.08551546
216	0x3c146cb9	0.009059125
217	0xbd4793ff	-0.048725124
218	0xbd9fd72d	-0.078047134
219	0x3d9d241b	0.07672902
220	0xbdc6b300	-0.0970211
221	0xbd8bc21e	-0.06824134
222	0x3d134da3	0.035962712
223	0xbd719306	-0.058978103
224	0x3d272483	0.040806305
225	0xbc98f59c	-0.018671803
226	0xbddc2a1d	-0.1075022
227	0xbdac344e	-0.08408414
228	0x3e16a66b	0.14711921
229	0xbcb9f166	-0.022698116
230	0x3ca5f136	0.02025662
231	0xbb24eb9a	-0.0025164844
232	0xbc8780c7	-0.016540898
233	0x3cc23979	0.023709046
234	0xbd4455c3	-0.04793335
235	0x3c1f0af4	0.009707201
236	0x3d100d4e	0.03516894
237	0xbcb2df02	-0.021834854
238	0x3d3e5eac	0.046477005
239	0x3daac83d	0.08338974
240	0x3cc13c72	0.023588393
241	0x3cdd8727	0.027041985
242	0x3d56bf86	0.052428745
243	0xbd9f70d6	-0.077851936
244	0xbc935ad8	-0.017987654
245	0x3d6855ef	0.056722578
246	0xbd6b3b72	-0.05742974
247	0xbdf71058	-0.12063664
248	0xbc6f8201	-0.014618398
249	0x3d3153fa	0.043292977
250	0xbd9ee70d	-0.07758913
251	0xbdc457e6	-0.09587078
252	0x3d9f082e	0.07765232
253	0x3c9a3cc4	0.018827803
254	0xbd9a12e7	-0.075231366
255	0xbe1313e0	-0.1436305

network_body._body_endoder.seq_layers.4.bias f4 [256]
0	0x3cc7d109	0.024391668
1	0xbd06a275	-0.032869775
2	0x3d18cb4d	0.037303258
3	0xbcb8b879	-0.0225489
4	0xbbd9a9aa	-0.00664254
5	0x3c82dd0b	0.015974542
6	0x3c05cc31	0.008166359
7	0x3c5c3ea1	0.013442666
8	0xbd12db5b	-0.035853725
9	0x3cbb44ee	0.022860017
10	0xbd38011d	-0.044922937
11	0xbc87fd12	-0.016600166
12	0xbc390293	-0.011292118
13	0x3c886a6a	0.016652305
14	0xbc4fc585	-0.01268137
15	0x3c86d43c	0.016458623
16	0xbd0b5007	-0.034011867
17	0x3c0b7a60	0.008513063
18	0xbd35e6be	-0.044409506
19	0xbd159a9a	-0.036524393
20	0x3d1d223b	0.038362723
21	0xbd200ff4	-0.039077714
22	0xbc62ecd5	-0.0138504105
23	0x3cc67e9a	0.02423029
24	0x3cdb8dbe	0.026800986
25	0x3cd9fc46	0.026609551
26	0x3cb9d0ad	0.022682512
27	0xb9b66b6f	-0.0003479379
28	0xbcdaef4c	-0.026725434
29	0x3cc5b37e	0.02413344
30	0xbcdf7211	-0.02727607
31	0x3c4fa2f8	0.012673132
32	0xbd11216f	-0.035432275
33	0x3ce8d598	0.028422162
34	0x3d137021	0.035995606
35	0x3cca2a78	0.024678454
36	0x3cbaaa19	0.022786187
37	0x3ccbfbb5	0.024900297
38	0xbc9cabbf	-0.019124864
39	0xbd1ebf29	-0.038756523
40	0x3c45ef0c	0.012080919
41	0xbd1e3c2c	-0.038631603
42	0x3c890b0a	0.016728897
43	0xbd4097a5	-0.04701962
44	0x3d024ffe	0.031814568
45	0xbced55fd	-0.028971666
46	0x3cb42aac	0.021993004
47	0x3cc89456	0.024484795
48	0x3d0cebcc	0.03440456
49	0xbd2a24e7	-0.0415391
50	0xbd267a4d	-0.04064398
51	0xbcb7cc7e	-0.022436377
52	0xbcc4d555	-0.024027506
53	0x3c6db71d	0.01450899
54	0xbd08754b	-0.033314984
55	0xbd277ffe	-0.040893547
56	0xbd16cc7c	-0.036816105
57	0xbb1e7f41	-0.0024184736
58	0xbcd80861	-0.026371183
59	0xbd1883f1	-0.037235204
60	0xbd200c15	-0.039074022
61	0xbd14814e	-0.036256127
62	0xbcea6152	-0.028610859
63	0xbd18ab37	-0.03727266
64	0xbcf5348d	-0.029932285
65	0xbb713221	-0.003680356
66	0xbcb8b079	-0.022545086
67	0x3d1afd57	0.03783926
68	0x3cc4b11d	0.024010235
69	0x3cced772	0.025249217
70	0xbc758713	-0.0149858175
71	0x3cf87482	0.030328993
72	0xbcd3c867	-0.025852395
73	0xbcd4283d	-0.025898093
74	0x3c40dad7	0.0117709255
75	0x3c30136e	0.01074682
76	0xbd192d3a	-0.037396647
77	0xbc775736	-0.015096476
78	0xbd0e49c8	-0.034738332
79	0x3c73fd6b	0.0148919625
80	0x3bc358e1	0.005961523
81	0xbd2c4bff	-0.042064663
82	0xbcf0b46b	-0.029382905
83	0xbcf29f15	-0.029616872
84	0xbd0385b1	-0.03210992
85	0xbcc6fe27	-0.024291111
86	0xbd2126c3	-0.039343607
87	0xbc26fe93	-0.010192531
88	0xbd08b028	-0.03337112
89	0x3bd6fd92	0.0065609897
90	0xbcfb68c2	-0.0306896
91	0x3c9ab12f	0.018883316
92	0xbd172b92	-0.036906786
93	0xbd0d5704	-0.034506813
94	0x3cac41ac	0.021027409
95	0x3c8dcab9	0.01730858
96	0xbd06b3bc	-0.03288625
97	0xbd0c3987	-0.03423455
98	0x3b9477b3	0.004530871
99	0xbcdf6703	-0.0272708
100	0x3cc48a0d	0.023991609
101	0x3baa1099	0.005189967
102	0xbd0b8e4e	-0.03407126
103	0x3cdb7c92	0.026792798
104	0xbd327c18	-0.043575376
105	0xbd440512	-0.047856398
106	0xba493795	-0.0007675824
107	0xbd0e811e	-0.034791104
108	0xbd1037bc	-0.035209402
109	0xbd2cc9e9	-0.042184744
110	0xbd22f281	-0.03978205
111	0x3b8f4d7b	0.00437325
112	0xbd08a9ea	-0.033365168
113	0xbd26ff95	-0.040771086
114	0xbd2cc4cb	-0.042179864
115	0xbc906046	-0.017624032
116	0xbd1a0cf0	-0.037609994
117	0xbd084983	-0.03327323
118	0xbccc2652	-0.024920616
119	0xbc80b4e5	-0.015711257
120	0x3ccc4a83	0.024937874
121	0x3cdaaf29	0.026694851
122	0x3cc3334a	0.023828167
123	0xbd1c8a50	-0.038217843
124	0xbd170f5b	-0.03687988
125	0xbd002394	-0.03128393
126	0xbd0bf331	-0.034167472
127	0x3d176d9b	0.036969762
128	0x3cb689dd	0.022282535
129	0x3cb4773b	0.02202951
130	0x3c040ec9	0.008060166
131	0x3d022c97	0.031780805
132	0x3c587073	0.013210404
133	0x3cd30739	0.02576028
134	0xbc92381e	-0.017849024
135	0x3cc08f0c	0.02350571
136	0x3ce4f1f9	0.027947413
137	0xbcdae344	-0.026719697
138	0xbc84bba7	-0.01620276
139	0xbd17b344	-0.037036195
140	0x3cd840a9	0.02639802
141	0x3c9eb20f	0.019372014
142	0xbd037af5	-0.032099683
143	0x3c5a0a39	0.013308101
144	0x3cb7a865	0.022419164
145	0xbc0e7f89	-0.008697399
146	0x3cbec6fd	0.023288244
147	0xbd365b98	-0.044520944
148	0x3caa878f	0.020816592
149	0xbd302449	-0.043003354
150	0x3c139208	0.0090069845
151	0xbd11d79b	-0.035606008
152	0x3c80796f	0.015682904
153	0xbd172824	-0.036903515
154	0x3cf789b4	0.03021703
155	0xbbd39fc1	-0.006458253
156	0x3cddc1c7	0.02706994
157	0xbcf2327c	-0.029565088
158	0xbd161e8a	-0.036650218
159	0x3d20b05a	0.039230682
160	0x3cd6cdc8	0.026221171
161	0x3cf714b5	0.030161241
162	0xbd1ecc4d	-0.038769055
163	0x3cd02c01	0.025411608
164	0xbc7da8c0	-0.015482128
165	0x3d2d5a59	0.04232249
166	0x3cab34bc	0.02089917
167	0xbd033092	-0.032028742
168	0x3a8ca782	0.0010731074
169	0xbacdf3c6	-0.0015712909
170	0x3d01cf56	0.03169187
171	0xbcbc2592	-0.022967134
172	0xbd13fbf8	-0.036128968
173	0x3c0aeb8f	0.008479013
174	0xbcde8186	-0.027161371
175	0x3cf4f3c4	0.029901393
176	0xbd08903d	-0.03334068
177	0xbb448273	-0.002998498
178	0x3ccea9d8	0.025227472
179	0xbd122b20	-0.03568566
180	0x3cc95d52	0.024580631
181	0x3c8de497	0.017320914
182	0xbd7b85c8	-0.06140688
183	0xbc0b7efc	-0.008514162
184	0xbcf19cfd	-0.029493803
185	0x3cb61842	0.022228364
186	0xbcc559fa	-0.024090756
187	0x3cc988f3	0.024601435
188	0x3cd1df87	0.025619281
189	0xbd299256	-0.041399322
190	0x3cc3117f	0.023812054
191	0x3cf85dda	0.03031819
192	0x3cf5b5c3	0.029993897
193	0x3cac06f2	0.020999406
194	0xbd366972	-0.044534154
195	0x3cd705d0	0.026247889
196	0x3c1414cd	0.009038162
197	0x3c8131a2	0.015770737
198	0xbbecc24c	-0.0072253104
199	0xbd04bd0b	-0.032406848
200	0x3cd78427	0.026308132
201	0x3c3384c4	0.010956947
202	0x3cae7a6c	0.02129861
203	0xbd2d13c4	-0.042255178
204	0x3a270622	0.00063714583
205	0xbca88c21	-0.020574631
206	0xbccc0bbb	-0.024907937
207	0x3ca1c909	0.019749181
208	0xbd0dfa44	-0.0346625
209	0xbd07ed32	-0.03318519
210	0xbce53750	-0.027980477
211	0x3d197945	0.037469167
212	0xbd265de2	-0.040616877
213	0x3ccc8a27	0.02496822
214	0xbd12ee8d	-0.03587203
215	0x3ca43b23	0.02004773
216	0x3c9f66a1	0.019458117
217	0x3c8f1b6d	0.017469132
218	0xb73117e6	-1.0555586e-05
219	0x3cd35284	0.025796182
220	0x3ce2e555	0.027697245
221	0x3cb4f23e	0.022088166
222	0x3b3b1eaf	0.0028552224
223	0xbd2ea15d	-0.042634357
224	0xbcff1923	-0.031139916
225	0x3ca055fd	0.019572252
226	0xbd098a47	-0.033579137
227	0x3cd2ede7	0.025748206
228	0x3ce08b54	0.027410187
229	0xbce9fdc0	-0.02856338
230	0xbcc95497	-0.024576468
231	0x3ce8f5c3	0.0284375
232	0xbd31b5bd	-0.04338621
233	0x3c093c10	0.008376136
234	0x3c1df564	0.009641025
235	0x3cc16f36	0.0236126
236	0x3cbf19f7	0.02332781
237	0x3cd8c2fc	0.026460163
238	0x3ca95bbc	0.020673625
239	0x3ce1e8c2	0.027576808
240	0x3cc35380	0.023843527
241	0x3d0df784	0.034659877
242	0xbb56859a	-0.0032733441
243	0xbb89778e	-0.00419516
244	0x3c8a8c94	0.016912736
245	0xbcae64a4	-0.021288224
246	0x3cad7f57	0.021178884
247	0x3cb7c53a	0.022432912
248	0xbc3dd3a7	-0.011586106
249	0xbd161542	-0.036641367
250	0xbc33235a	-0.010933721
251	0x3c554a3f	0.01301819
252	0xbd239c2b	-0.039943855
253	0xbcf795e1	-0.030222835
254	0xbcd5e94a	-0.026112217
255	0xbc3e9e8c	-0.01163448

action_model._continuous_distribution.mu.weight f4 [2, 256]
0	0x3c0c0f44	0.0085485615
1	0xba8a2929	-0.0010540831
2	0xbaf6b56e	-0.0018822381
3	0x3809b6f5	3.2833737e-05
4	0x3b8b0712	0.004242786
5	0x3bf06941	0.007336766
6	0x3b97c86e	0.0046320474
7	0x3b86547e	0.0040994277
8	0x3c215a12	0.009848135
9	0x3b51f505	0.0032036912
10	0xbb60b867	-0.00342896
11	0xb9d32ace	-0.00040276948
12	0xbc1f3442	-0.009717049
13	0x3bbdae7b	0.005788622
14	0xbc3d07b9	-0.011537486
15	0xbb7bd3a3	-0.0038425706
16	0xbc507819	-0.012723946
17	0xbcb46615	-0.022021333
18	0x3b581597	0.0032971853
19	0x3c8ef16d	0.017449105
20	0xb9304328	-0.00016809686
21	0xbc9e86f6	-0.019351464
22	0x3c95cffb	0.01828765
23	0xbc5717b9	-0.0131282145
24	0x3c2a3509	0.010388621
25	0xbbe6e28e	-0.0070460504
26	0x3bcd1275	0.0062583038
27	0xbb41a3a6	-0.0029547005
28	0x398aa04c	0.00026440842
29	0x3a976d09	0.0011552881
30	0x3c1cc2f1	0.009567962
31	0xbc707c27	-0.014678038
32	0x3ba0819b	0.0048982627
33	0x3b1d7efe	0.0024031992
34	0x3b3b8ae2	0.0028616716
35	0x3ab23202	0.0013595226
36	0xbb79439a	-0.0038034678
37	0xbc08b9f5	-0.008345117
38	0xbbb87617	-0.005629312
39	0xbc991a44	-0.018689282
40	0x3c20efeb	0.009822826
41	0x3c3cf2c5	0.01153249
42	0xbc8b1049	-0.016975539
43	0x3bb169fe	0.0054142466
44	0xbb95b88c	-0.004569119
45	0xbca1af42	-0.01973689
46	0x3c8edff0	0.017440766
47	0xbbd3033d	-0.006439595
48	0x3b5685b2	0.0032733497
49	0xbb9a21ee	-0.0047037518
50	0x3cc9232e	0.024552908
51	0xbc8de1cd	-0.017319584
52	0x3ce872a4	0.028374977
53	0xbb671ca5	-0.0035264876
54	0x3c2c110c	0.010502111
55	0xbc45e242	-0.01207787
56	0x3c5babd9	0.013407671
57	0x3bbee6cb	0.0058258525
58	0xbc305753	-0.010763007
59	0xbc5d5e84	-0.013511304
60	0xbbd137ff	-0.006384849
61	0x3a68808b	0.0008869252
62	0xbc3aa385	-0.011391525
63	0xbc39174e	-0.01129706
64	0x3c922997	0.017842097
65	0x3b8715ed	0.004122487
66	0x3ba509ae	0.0050365543
67	0x3bfdfe2f	0.0077512483
68	0xbc4cad7c	-0.012492534
69	0x3b68de8a	0.0035533034
70	0x3b8beff1	0.0042705466
71	0xbb5fc096	-0.003414189
72	0xbca05481	-0.019571545
73	0x3c5ce997	0.0134834265
74	0xbada7006	-0.0016665466
75	0xbc355801	-0.011068345
76	0x3ae29ba5	0.0017288817
77	0xbc8e055c	-0.01733654
78	0x3c1044df	0.008805483
79	0xbc231d97	-0.009955785
80	0xbaa104cc	-0.0012284755
81	0x3bfc011e	0.007690563
82	0xbb9f369a	-0.004858804
83	0x3c5b4897	0.013384006
84	0x3c02f356	0.007992586
85	0xbc0ac710	-0.008470312
86	0x3c3e5798	0.011617564
87	0x3c8dbc90	0.017301828
88	0xbaec3c2c	-0.0018023304
89	0x3ba4e373	0.005031997
90	0xbc4ffa9b	-0.012694026
91	0x3ca0586d	0.019573415
92	0xbac283e7	-0.0014840335
93	0x3d11753b	0.03551219
94	0x3b8fbc2d	0.004386446
95	0x3af5946e	0.0018736252
96	0x3b2d7b2c	0.0026471121
97	0x3a9b98d3	0.0011871107
98	0x3b3dbb07	0.0028950588
99	0x3bc6b5f7	0.0060641724
100	0x3b613880	0.0034365952
101	0x3b9c1775	0.0047635385
102	0x3ac822c8	0.0015269155
103	0x3c01e452	0.007927971
104	0xba8cda52	-0.0010746217
105	0xbc1593d6	-0.009129485
106	0x3c832018	0.016006514
107	0xbbfddf38	-0.007747557
108	0xbace05a7	-0.0015718237
109	0xba951a93	-0.0011375718
110	0x3ba51c2b	0.0050387583
111	0xbc70d990	-0.014700308
112	0xbc385a69	-0.011252024
113	0xbbe1d50f	-0.0068918536
114	0x3aee4f01	0.0018181504
115	0xbbbfc793	-0.0058526485
116	0xbb814796	-0.0039453013
117	0x3a4143d1	0.0007372471
118	0xbbe14da9	-0.006875713
119	0xbb3e021c	-0.0028992957
120	0xbb8f57fb	-0.0043745018
121	0xb9c5fbd4	-0.00037762395
122	0xbc0e57e5	-0.008687948
123	0x3c1a1800	0.009405136
124	0xbbe1dfaa	-0.006893118
125	0x3b6269c0	0.0034547895
126	0xbc47c9b2	-0.012194084
127	0xbbd68836	-0.0065469993
128	0xbcd357b0	-0.025798649
129	0x3a83661d	0.0010024939
130	0xbbc35068	-0.005960513
131	0x3c3029a2	0.010752114
132	0xbbc52a45	-0.006017002
133	0x3c48be41	0.012252391
134	0x3c3dc230	0.011581942
135	0x3c760574	0.015015949
136	0x3c4b527b	0.012409802
137	0xbcc5ec3b	-0.024160495
138	0x3c3ee8ea	0.011652211
139	0xbc773ca8	-0.015090145
140	0xbbfbad19	-0.007680547
141	0x39233393	0.00015564104
142	0x385a069b	5.1981402e-05
143	0x3c8eae43	0.017417079
144	0x3a00ae17	0.0004908754
145	0xbb3de1d1	-0.0028973708
146	0x3c545d32	0.012961673
147	0xbc0ef72c	-0.008725923
148	0xbc34c774	-0.011033881
149	0x3bf20cea	0.0073867934
150	0xbc68d6a2	-0.014211329
151	0xbb7eceda	-0.0038880617
152	0xb9c25c25	-0.00037071217
153	0x3c618dcc	0.013766717
154	0xba3bf8d9	-0.0007170565
155	0xb9123036	-0.00013941605
156	0xbc1369ee	-0.008997424
157	0xbbd36b10	-0.006451972
158	0x3b54d69f	0.0032476557
159	0x3b2f9cf8	0.0026796442
160	0x39f50229	0.0004673165
161	0x3b4b62f3	0.003103432
162	0x3ac5da37	0.001509494
163	0x3b9c5183	0.004770459
164	0x38a88b92	8.036861e-05
165	0xbb65b55c	-0.0035050726
166	0xbb9d81ca	-0.004806732
167	0x3b90bbcd	0.004416919
168	0xbc7971bf	-0.015224873
169	0x3b81179c	0.003939582
170	0x3bea77bc	0.0071553867
171	0xbc3cdb26	-0.011526858
172	0x3bce21f6	0.0062906696
173	0x3a9a78ec	0.0011785305
174	0xbb4e1532	-0.003144574
175	0x3a59535e	0.0008290316
176	0xbc422ee2	-0.011851998
177	0xbbc9c58b	-0.006157582
178	0xbc37ccc3	-0.011218253
179	0x3c722ca2	0.014781149
180	0xbbc00848	-0.005860362
181	0x3bd208f3	0.0064097582
182	0x3b08dd6e	0.0020883936
183	0xbb65db41	-0.0035073312
184	0xbbcf4e06	-0.00632644
185	0xbc15f07b	-0.009151573
186	0x3ccd80b4	0.025085784
187	0xbaee9979	-0.0018203697
188	0xbbb02b09	-0.005376224
189	0xbcaaeb0a	-0.020864028
190	0x3cb289be	0.021794196
191	0xbbc5c37d	-0.006035267
192	0x3b0c9869	0.0021453148
193	0xbc7ac19c	-0.015304949
194	0x3c0094d6	0.007847985
195	0x3c761516	0.015019676
196	0xbbf12227	-0.0073588076
197	0x3b326773	0.0027222305
198	0xbc1564f6	-0.009118309
199	0x3bb9f99d	0.005675508
200	0xbb911341	-0.004427344
201	0xbbd7a866	-0.006581354
202	0xbc36a62c	-0.011148017
203	0x3b0cbc06	0.0021474375
204	0xbc347171	-0.011013375
205	0x3ba8465e	0.0051353415
206	0xbb7919ab	-0.0038009684
207	0x3bebe2b5	0.0071986564
208	0x3badb685	0.005301299
209	0x3c234df8	0.00996732
210	0xbcbfe847	-0.023426188
211	0xbb877bdf	-0.0041346396
212	0x3adab0f7	0.001668482
213	0xbbd3c104	-0.0064622182
214	0xbbd3f364	-0.0064682234
215	0x3ba1c94c	0.0049373265
216	0x3c2a7109	0.010402926
217	0x3c921558	0.017832443
218	0x3c820f4f	0.01587644
219	0xbc47db75	-0.012198319
220	0x3aa1029f	0.0012284106
221	0xbc8bb3db	-0.017053535
222	0x3afa400f	0.0019092577
223	0x3caffd76	0.021483164
224	0xbb12e72a	-0.0022415617
225	0xba86f74e	-0.0010297091
226	0xbb944a01	-0.0045254235
227	0xbbff8956	-0.007798354
228	0xbb7784f6	-0.003776846
229	0xbc0f9c30	-0.008765265
230	0x3ba2ceeb	0.004968514
231	0x3bfc80c1	0.0077057783
232	0x3b63133a	0.003464891
233	0xbc308680	-0.010774255
234	0xbbbea364	-0.0058178175
235	0xbb12b1ce	-0.0022383812
236	0xbab5b0e1	-0.0013861918
237	0xbc955631	-0.018229576
238	0x3c9f539a	0.019449044
239	0x3bf39b6a	0.0074342983
240	0x3c0836bf	0.008313834
241	0x3c161b48	0.009161778
242	0x3a81854a	0.0009881642
243	0xbc7caca9	-0.015422025
244	0xbcb96851	-0.02263275
245	0x3c97627e	0.018479582
246	0x3b89b1bd	0.0042020963
247	0xbbf25a92	-0.0073960507
248	0xbc89a87b	-0.01680397
249	0xb8b59597	-8.658616e-05
250	0x3b80744b	0.003920113
251	0x3d07ce43	0.03315569
252	0x3c1b5913	0.009481686
253	0x3c4c12b1	0.012455628
254	0x3b1297d9	0.002236834
255	0xbac2711f	-0.0014834738

action_model._continuous_distribution.mu.bias f4 [2]
0	0x39a10cbd	0.00030717804
1	0x3b08af61	0.0020856487
