Assets/Results/DefenderAgent 1.onnx (onnx, 566922 bytes, 17 tensors)

discrete_act_size_vector f4 [1, 2]
8.0 8.0
00000000: 0000 0041 0000 0041

network_body.observation_encoder.processors.0.normalizer.running_mean f4 [8]
-211.3464 0.0 0.5647545 -219.24617 0.0 -0.45284143 7.8997865 0.0
00000000: ae58 53c3 0000 0000 c093 103f 053f 5bc3
00000010: 0000 0000 d5da e7be 0dcb fc40 0000 0000

network_body._body_endoder.seq_layers.0.weight f4 [256, 8]
-0.111081116 0.0709719 0.2822366 -0.38824213 0.40136003 -0.12929226 0.22401336 -0.612615
-0.024142807 0.15619019 0.26488453 0.023059856 -0.6051705 -0.10038186 0.092095144 0.50820434
-0.13464133 0.33106604 -0.054310814 0.17447631 0.049266063 0.1985755 0.2506772 0.37494823
-0.24901353 -0.98954433 0.4060213 -0.039091654 -0.34615532 0.41153976 -0.15922551 0.22447678
0.20981406 0.16309214 -0.011498513 0.054306533 0.3229856 -0.09389274 -0.21628842 -0.056590352
-0.34905103 0.3166202 -0.1086476 -0.20549373 0.33520034 -0.32585385 -0.24505514 0.09669941
-0.21426404 -0.47027057 0.2886967 0.21470219 0.8044072 0.6533099 0.21613243 -0.18984987
-0.24241686 -0.49017158 -0.060549147 -0.29709283 -0.29529986 0.02773314 0.16862097 0.01453604
0.5028779 0.6745847 -0.18923156 -0.4619406 -0.16781098 -0.5909405 0.5951995 0.11234396
0.123667486 -0.19665098 -0.41170058 -0.37736887 0.1355063 -0.16509834 -0.23772624 -0.5956527
-0.2275646 0.038053468 -0.4621694 -0.043627914 0.16303474 -0.30538985 -0.274026 -0.38419765
0.56941384 0.4847179 0.24378121 0.29527155 -0.24411374 -0.52623737 0.25957492 0.05142039
-0.13591646 -0.1283579 -0.32016468 0.005907424 0.90925103 -0.10037777 -0.44062877 0.10738314
-0.53006446 -0.056322835 -0.05791324 0.08943128 0.4531694 0.42408606 0.7919263 -0.12435686
0.4091684 0.03217677 0.38733122 -0.10856261 0.046546545 0.40011105 -0.6828814 0.65529615
-0.1837897 0.15291713 0.32705718 -0.19341107 -0.1158639 -0.059975896 -0.045289878 -0.45641133
0.26297006 0.33876082 -0.047168173 -0.5944076 -0.17137489 -0.19809464 -0.36780265 -0.5488648
-0.41935855 0.1511335 0.20256111 0.18467242 -0.1392322 -0.019958021 0.31734374 -0.16057123
-0.11333448 0.24106441 -0.5981812 0.113379546 0.13139398 0.10054388 0.15797801 0.049362436
0.25060716 -0.026500642 -0.29707584 0.33060575 -0.15591393 -0.08486545 -0.3025158 0.64107674
0.0343501 0.3894503 -0.13940656 0.10471088 0.040437054 0.07708472 -0.2136542 -0.28105515
-0.5264653 -0.012828571 0.50768787 0.5808904 -0.39367685 0.47923017 0.006071345 -0.4323084
0.89682317 -0.12593572 0.39038178 0.010608206 -0.4108935 0.52579325 -0.31766045 0.1091909
-0.42166355 0.35938123 -0.204877 -0.8847612 0.4264448 0.28532505 -0.0012151903 0.011452892
0.03817148 0.08772942 0.0793442 -0.48825547 -0.08767236 0.08732977 -0.080356374 -0.25485936
0.29316837 0.12475151 -0.27652374 -0.5045516 0.46747455 0.03743276 0.35950544 0.32158867
0.028658161 0.27638018 0.56834805 0.18979923 0.17830743 -0.10878445 -0.5024167 0.0790822
-0.27971497 -0.26785535 -0.28979754 0.34541187 0.18305396 -0.021104896 -0.1439774 -0.084538825
-0.13969825 0.40969235 0.27798718 0.5700791 0.06557419 0.57467437 0.12179139 -0.38550958
0.77085567 -0.26555815 -0.41785723 -0.21111266 -0.3674892 0.51105887 -0.16375712 0.031018965
0.64787835 -0.3589404 -0.35969612 0.092454396 -0.15635245 -0.2864143 -0.7126117 -0.63635343
-0.29463646 -0.48126516 0.29122603 0.35340104 0.22578096 0.18577696 -0.8674426 -0.79499197
00000000: 7f7e e3bd b759 913d 5181 903e acc7 c6be
00000010: 107f cd3e 3165 04be c263 653e 56d4 1cbf
00000020: 23c7 c5bc 52f0 1f3e f29e 873e 06e8 bc3c
00000030: 74ec 1abf 0195 cdbd 619c bc3d ae19 023f
00000040: 6bdf 09be 7d81 a93e 0475 5ebd eba9 323e
00000050: 36cb 493d 6057 4b3e c358 803e 37f9 bf3e
00000060: 67fd 7ebe c752 7dbf 06e2 cf3e 921e 20bd
00000070: 453b b1be 57b5 d23e 030c 23be 3edd 653e
00000080: 7fd9 563e a001 273e 4264 3cbc 8770 5e3d
00000090: 5e5e a53e d64a c0bd b67a 5dbe 49cb 67bd
000000a0: d1b6 b2be 0b1c a23e a282 debd f36c 52be
000000b0: 619f ab3e 51d6 a6be bcef 7abe 570a c63d
000000c0: 0868 5bbe 4ec7 f0be 0ed0 933e e4da 5b3e
000000d0: a1ed 4d3f 513f 273f d251 5d3e 0168 42be
000000e0: 203c 78be c5f7 fabe 6202 78bd 8d1c 98be
000000f0: 8b31 97be 9c30 e33c faaa 2c3e 9228 6e3c
00000100: 9bbc 003f 95b1 2c3f ebc5 41be 7a83 ecbe
00000110: a4d6 2bbe e047 17bf ff5e 183f 9714 e63d
00000120: 6145 fd3d e05e 49be 6bca d2be 7e36 c1be
00000130: 2ac2 0a3e 8a0f 29be 826e 73be b27c 18bf
00000140: b206 69be f4dd 1b3d 78a1 ecbe 2fb3 32bd
00000150: 94f2 263e 0f5c 9cbe 234d 8cbe 8eb5 c4be
00000160: 1bc5 113f f22c f83e c8a1 793e d52d 973e
00000170: f4f8 79be 7eb7 06bf 01e7 843e 309e 523d
00000180: af2d 0bbe 4170 03be a0ec a3be 1093 c13b
00000190: adc4 683f dc92 cdbd 189a e1be b1eb db3d
000001a0: 4eb2 07bf c6b2 66bd 6f36 6dbd bf27 b73d
000001b0: d205 e83e cf21 d93e afbb 4a3f cfae febd
000001c0: 857e d13e cacb 033d 4750 c63e 1356 debd
000001d0: 97a7 3e3d 5bdb cc3e 51d1 2ebf 7dc1 273f
000001e0: 5e33 3cbe 4f96 1c3e 0a74 a73e 8d0d 46be
000001f0: 0d4a edbd 49a9 75bd e181 39bd bfae e9be
00000200: 03a4 863e 0f72 ad3e 6a33 41bd 192b 18bf
00000210: e67c 2fbe 52d9 4abe a150 bcbe 6782 0cbf
00000220: 2ab6 d6be bdc2 1a3e 2e6c 4f3e c41a 3d3e
00000230: e392 0ebe 017f a3bc e17a a23e c96c 24be
00000240: e81b e8bd 97d9 763e 6722 19bf 8933 e83d
00000250: 258c 063e f3e9 cd3d fdc4 213e 4430 4a3d
00000260: 954f 803e e017 d9bc 531a 98be 2845 a93e
00000270: e7a7 1fbe f0cd adbd 5ae3 9abe 9b1d 243f
00000280: b1b2 0c3d 0866 c73e 98c0 0ebe a872 d63d
00000290: 53a1 253d 98de 9d3d 2bc8 5abe 76e6 8fbe
000002a0: 6ec6 06bf ed2e 52bc d5f7 013f 3cb5 143f
000002b0: 0390 c9be a85d f53e 22f2 c63b 8757 ddbe
000002c0: 3496 653f 4bf5 00be 1fe0 c73e 0ace 2d3c
000002d0: a260 d2be 639a 063f 64a4 a2be 7b9f df3d
000002e0: 49e4 d7be d100 b83e 47cb 51be b67f 62bf
000002f0: f956 da3e 2016 923e 0547 9fba e9a4 3b3c
00000300: b359 1c3d 7bab b33d 367f a23d 9ffc f9be
00000310: 918d b3bd f3d9 b23d e291 a4bd ed7c 82be
00000320: 2a1a 963e b87d ff3d 8594 8dbe 4b2a 01bf
00000330: d358 ef3e 1853 193d 1911 b83e 45a7 a43e
00000340: 85c4 ea3c b481 8d3e 427f 113f bb5a 423e
00000350: 3996 363e 62ca debd 619e 00bf d9f5 a13d
00000360: cd36 8fbe 5624 89be 5860 94be d3d9 b03e
00000370: 7f72 3b3e 2de4 acbc d06e 13be b122 adbd
00000380: 0f0d 0fbe 32c3 d13e 5654 8e3e b4f0 113f
00000390: c34b 863d dc1d 133f c46d f93d 8361 c5be
000003a0: cc56 453f 3df7 87be 62f1 d5be eb2d 58be
000003b0: 8b27 bcbe c1d4 023f f2af 27be 7c1b fe3c
000003c0: 5bdb 253f 09c7 b7be 172a b8be bb58 bd3d
000003d0: db1a 20be e5a4 92be b86d 36bf 0fe8 22bf
000003e0: 97da 96be 6368 f6be 941b 953e fbf0 b43e
000003f0: 2033 673e 513c 3e3e b810 5ebf 9884 4bbf

network_body._body_endoder.seq_layers.0.bias f4 [256]
-0.0063640727 0.05139154 0.06582526 0.060833946 0.05207319 -0.034187358 0.059790295 -0.03034575
0.05397048 -0.050506562 0.026856253 0.074011706 0.016420778 0.038409356 0.037769716 0.021184932
0.018711189 0.06658574 0.05614007 -0.053117175 -0.027636081 0.045854054 0.032458648 0.045798536
0.03752288 0.029948998 0.06342563 -0.002238204 0.047134735 0.053604092 0.067750156 -0.049856707
0.04436978 0.02015546 -0.022413395 0.031109065 0.016074888 0.031544782 0.053602405 0.050492562
0.0550186 0.06899583 0.045010068 -0.029357474 0.02481888 0.06164527 -0.026211416 0.035756107
0.061060328 0.07446341 0.05659325 0.019372985 0.04273082 0.06060805 0.04727437 0.024954889
0.055472095 0.04561375 0.056404058 -0.02219739 -0.019342521 0.060974326 0.035305817 0.05664531
0.02972804 0.03747243 0.00070341513 -0.05927085 -0.041264936 0.026838807 0.067465924 0.07246491
-0.039472185 0.055734284 -0.042565677 0.05568211 -0.031633116 0.06812178 -0.046637874 0.020002786
0.0627796 0.05290065 -0.012880558 0.022127215 0.049861427 0.051097754 0.045928776 0.060601763
0.024493227 0.06550985 0.01563441 0.046150293 0.030975893 0.06087455 0.06538826 -0.035148688
0.047945276 0.044536218 -0.061595734 0.038874935 0.054141287 -0.036351267 0.036406428 0.020930363
0.0022388855 0.046094723 0.0629542 0.05025883 0.05621441 0.05471029 0.065307915 0.024781013
-0.055163987 -0.022720093 0.017500717 0.03139085 0.023578746 -0.04989543 0.030080143 -0.045874964
0.03926066 0.0038897325 0.029862637 -0.048678346 0.0018971276 0.04300112 -0.03990852 0.043121148
0.055532422 0.055110402 0.022203637 0.06606889 0.05764704 0.047009237 0.066876754 0.06885697
0.051502842 0.051709786 0.022251496 0.058095407 0.060694784 0.056932393 0.03374479 0.037525635
0.02508368 0.051090766 8.440407e-05 0.053242505 -0.04758773 0.02401299 0.07107887 0.0667041
0.009499833 -0.015388578 0.022007395 0.051802095 0.016597604 -0.04831583 0.043123465 0.048797023
0.052840494 -0.04973455 0.054368082 0.05071366 0.049591813 0.04304061 -0.022929074 -0.058578163
-0.028250601 0.047407992 0.051529136 -0.02894126 -0.039025716 -0.0071613817 0.033260256 0.025695292
0.052039623 0.026025236 0.033172913 0.06458012 0.056773618 0.04914262 0.08643887 0.06311997
0.064592585 0.037729334 -0.02414807 0.046225704 0.035493612 0.039991453 0.057725724 0.044586774
0.048024222 0.024769481 0.051400747 0.049735513 -0.037985228 0.008421115 0.012418629 0.069218345
-0.024376288 0.04951741 -0.0010769765 0.037058618 0.058893386 0.051363092 0.035076614 0.07773172
0.0533786 0.056055095 0.034113016 0.031682614 -0.0646346 0.07448157 0.04618199 0.05730251
0.024848204 0.041184973 -0.027067525 0.053273585 0.038680024 -0.020112777 0.0059759356 0.04880563
0.05316421 0.05996268 -0.004237133 0.046490595 -0.013851453 0.010070909 0.053825755 0.03702525
0.019465892 0.057636388 0.030770628 -0.062763594 0.06147195 0.07061849 -0.0030154304 0.02466569
-0.014587294 0.04954189 -0.04468673 0.06576476 0.039596308 0.058701403 0.04160914 0.047302637
0.043784767 0.047276214 -0.025080603 0.04570102 -0.009057619 0.07291242 -0.042730648 0.036351956
00000000: b689 d0bb ef7f 523d 65cf 863d 042d 793d
00000010: b34a 553d 0b08 0cbd abe6 743d a697 f8bc
00000020: 2610 5d3d f8df 4ebd a501 dc3c 7393 973d
00000030: de84 863c 2153 1d3d 6bb4 1a3d 068c ad3c
00000040: 3548 993c 1b5e 883d 21f3 653d 6591 59bd
00000050: 1065 e2bc 76d1 3b3d 5cf3 043d 3f97 3b3d
00000060: 97b1 193d 9a57 f53c 4ce5 813d d5ae 12bb
00000070: 5a10 413d f78f 5b3d 98c0 8a3d 8c36 4cbd
00000080: 16bd 353d 101d a53c 4c9c b7bc 70d8 fe3c
00000090: 7caf 833c 1a35 013d 328e 5b3d 4ad1 4e3d
000000a0: 2f5b 613d b04d 8d3d 7a5c 383d 167f f0bc
000000b0: f750 cb3c c07f 7c3d 53b9 d6bc ff74 123d
000000c0: 651a 7a3d 4680 983d 53ce 673d 18b4 9e3c
000000d0: 8306 2f3d 2640 783d c5a2 413d 326e cc3c
000000e0: b536 633d 7cd5 3a3d f107 673d 4dd7 b5bc
000000f0: 3574 9ebc 37c0 793d d59c 103d ea04 683d
00000100: 3888 f33c b17c 193d 6465 383a fec5 72bd
00000110: 6c05 29bd 0fdd db3c 932b 8a3d 7c68 943d
00000120: 96ad 21bd a249 643d 5959 2ebd ed12 643d
00000130: ba91 01bd 6f83 8b3d 5b07 3fbd e2dc a33c
00000140: 9792 803d 5aae 583d fa08 53bc 2244 b53c
00000150: 7f3b 4c3d e14b 513d d01f 3c3d 8e39 783d
00000160: 05a6 c83c 072a 863d bc13 803c 1708 3d3d
00000170: 28c1 fd3c 9857 793d 48ea 853d 12f8 0fbd
00000180: 4462 443d 9c6b 363d cf4b 7cbd 533b 1f3d
00000190: 41c3 5d3d 11e5 14bd e81e 153d 2776 ab3c
000001a0: 44ba 123b d2cd 3c3d 22ee 803d 34dc 4d3d
000001b0: 1541 663d e617 603d 28c0 853d 8d01 cb3c
000001c0: a2f3 61bd 7d1f babc aa5d 8f3c b193 003d
000001d0: 3728 c13c 275f 4cbd a26a f63c 63e7 3bbd
000001e0: c9cf 203d e2ea 7e3b 7da2 f43c f262 47bd
000001f0: 0aa9 f83a f121 303d 1e77 23bd cd9f 303d
00000200: f775 633d 72bb 613d 67e4 b53c 204f 873d
00000210: 4d1f 6c3d c28c 403d aef6 883d e204 8d3d
00000220: a5f4 523d a4cd 533d c548 b63c 73f5 6d3d
00000230: 189b 783d f131 693d fa37 0a3d 7bb4 193d
00000240: 4a7c cd3c 8d44 513d 1702 b138 d014 5a3d
00000250: 5aeb 42bd e4b6 c43c cc91 913d 299c 883d
00000260: 30a5 1b3c 6020 7cbc da48 b43c 6f2e 543d
00000270: b3f7 873c d2e6 45bd 3ba2 303d 63df 473d
00000280: 466f 583d 75b6 4bbd 11b1 5e3d 20b9 4f3d
00000290: c920 4b3d 5a4b 303d c1d5 bbbc a8ef 6fbd
000002a0: ce6d e7bc e22e 423d 3710 533d 3916 edbc
000002b0: 6ed9 1fbd 06aa eabb e83b 083d ef7e d23c
000002c0: 8027 553d e032 d53c 52e0 073d 9542 843d
000002d0: 748b 683d c649 493d dd06 b13d 0b45 813d
000002e0: 1e49 843d 138a 1a3d 2cd2 c5bc 2a57 3d3d
000002f0: c061 113d 14ce 233d cf71 6c3d 9fa0 363d
00000300: 0cb5 443d 5ee9 ca3c 9789 523d 77b7 4b3d
00000310: 6696 1bbd b7f8 093c 8177 4b3c 59c2 8d3d
00000320: c8b0 c7bc c5d2 4a3d 5629 8dba c7ca 173d
00000330: 313a 713d 1b62 523d 7fac 0f3d cf31 9f3d
00000340: 85a3 5a3d 079a 653d 17ba 0b3d a1c5 013d
00000350: 255f 84bd cb89 983d 5429 3d3d 09b6 6a3d
00000360: 768e cb3c 93b1 283d b7bc ddbc 6735 5a3d
00000370: f26e 1e3d 8dc3 a4bc c8d1 c33b 6ae8 473d
00000380: b7c2 593d 6d9b 753d a6d7 8abb ec6c 3e3d
00000390: 34f1 62bc 7400 253c 6578 5c3d caa7 173d
000003a0: ef76 9f3c 2214 6c3d af12 fc3c 338a 80bd
000003b0: 03ca 7b3d 6da0 903d 879e 45bb b30f ca3c
000003c0: 8cff 6ebc 70ec 4a3d 6f09 37bd adaf 863d
000003d0: bd2f 223d e270 703d 586e 2a3d 69c0 413d
000003e0: a857 333d b4a4 413d d675 cdbc fe30 3b3d
000003f0: 6866 14bc 1b53 953d 5506 2fbd cae5 143d

network_body._body_endoder.seq_layers.2.weight f4 [256, 256]
-0.0006433932 0.040209915 -0.10492943 -0.12857865 -0.015583023 -0.017682105 0.07188801 -0.008540213
-0.03087656 -0.016033603 -0.02680834 -0.026187796 -0.055602696 -0.008213599 0.037360404 0.03652415
0.013727618 0.024703275 -0.06909792 0.10010573 -0.039128724 -0.089241296 -0.048326157 -0.015759721
0.07926482 0.24892187 -0.039282434 0.089085005 0.062233757 0.003801837 0.10492698 0.030053714
0.031372737 -0.024813555 -0.06436112 0.029013518 -0.023907704 0.00072563294 -0.13531303 -0.066381745
0.02732646 0.04820091 -0.013894317 -0.0794603 -0.15867788 -0.07454831 0.075219266 -0.028008731
-0.014140938 -0.023911182 0.07968587 -0.026858369 -0.011104192 -0.06882887 0.086741425 0.07651698
-0.1375104 0.04971021 0.12116271 0.032415517 -0.10202337 -0.058750726 -0.05789849 -0.029222177
-0.14123929 -0.021685863 -0.0832088 0.077501126 -0.07259747 -0.027300838 -0.03667127 0.11218821
0.127394 -0.035235394 -0.0074590966 0.0065654106 -0.012941072 -0.05819063 -0.007988881 -0.061700646
-0.0053933975 0.02045082 0.122839995 -0.033707116 -0.035878357 0.09643172 0.03852508 -0.033362515
0.0017845746 0.07649924 0.044476006 -0.051922422 0.020094475 0.016627852 -0.03630123 0.01315959
-0.08595133 -0.08500183 -0.08317532 0.04036433 -0.078336895 -0.06578647 0.07887449 -0.024643553
-0.0096117575 -0.007142376 0.043782026 0.17356281 0.09751254 -0.115209706 -0.027419217 -0.057374906
0.03479487 0.14246938 -0.09328533 -0.060490176 -0.045953482 0.07061742 0.111439936 0.00034557155
-0.025748892 -0.059295148 -0.031137694 -0.014340957 0.050409637 0.07351805 0.007911894 0.050802357
-0.03784473 0.029320717 0.021237228 0.024753133 0.00034427084 0.04592753 0.025833258 -0.042255376
0.03318043 -0.003943447 0.0066017862 -0.004012872 0.05674063 0.022588953 -0.022911755 -0.03318853
-0.038209584 0.046887867 0.1064574 0.10370654 -0.06841663 -0.06247708 0.06079336 -0.17042881
-0.011241128 -0.006582687 0.08935181 0.028194554 0.04141322 -0.034879103 0.020203874 0.12692633
-0.0005059461 -0.08602643 0.01241195 0.025967194 -0.024218509 0.046975393 -0.034077335 0.055561837
0.020906366 0.026603486 -0.10536421 -0.08282376 0.0017708847 0.006709096 -0.060827058 -0.08320458
0.0056099133 -0.020732913 0.01994263 -0.019958265 0.06699559 -0.007528622 0.059895314 -0.033901185
0.0046550888 -0.02466363 -0.14392206 -0.079894714 -0.011308476 -0.03314771 0.038460407 -0.18269381
0.039277952 -0.03468796 0.038102996 -0.019776002 0.040447515 0.0703378 0.03774634 -0.028629685
0.05378331 0.047394805 0.044044737 0.0029631348 -0.024616068 -0.13251874 -0.094691426 0.035849664
-0.07709728 0.066186376 -0.03346841 -0.0064650215 0.1111947 -0.03047769 0.02001069 0.02786392
-0.025516387 0.03924147 0.01788834 -0.034658495 0.044809334 -0.03877221 -0.059523497 -0.12715948
0.03317528 -0.04497935 -0.0025985008 -0.043778177 -0.024458371 0.030316135 0.006223294 0.07557934
0.06641971 -0.027012596 -0.106649555 -0.08726799 0.066061065 0.0042979745 -0.08903518 0.112741336
0.02617411 -0.06050585 0.0055806655 -0.041552454 0.04241893 0.038105767 0.06297753 -0.034658853
0.050834488 0.02727494 0.04290638 -0.07940742 -0.053923376 0.032889225 -0.02440029 0.04401171
00000000: 63a9 28ba 27b3 243d 3ee5 d6bd 1faa 03be
00000010: f04f 7fbc 10da 90bc 053a 933d 40ec 0bbc
00000020: d7f0 fcbc e758 83bc 2a9d dbbc ca87 d6bc
00000030: a7bf 63bd 5592 06bc 3907 193d 599a 153d
00000040: cee9 603c 865e ca3c 3683 8dbd 3c04 cd3d
00000050: 7145 20bd 24c4 b6bd a6f1 45bd 881a 81bc
00000060: 9855 a23d 60e5 7e3e 9ee6 20bd 3372 b63d
00000070: d3e8 7e3d 3e28 793b f5e3 d63d 3533 f63c
00000080: b380 003d cc45 cbbc c3cf 83bd c2ad ed3c
00000090: 17da c3bc 6738 3e3a 808f 0abe 27f3 87bd
000000a0: bedb df3c 516e 453d fda4 63bc 15bc a2bd
000000b0: 747c 22be c9ac 98bd 8f0c 9a3d 9172 e5bc
000000c0: 65af 67bc 62e1 c3bc 5832 a33d 1506 dcbc
000000d0: 5bee 35bc 27f6 8cbd 7da5 b13d efb4 9c3d
000000e0: 87cf 0cbe ef9c 4b3d 2824 f83d 22c6 043d
000000f0: a1f1 d0bd 9aa4 70bd f826 6dbd 5963 efbc
00000100: 08a1 10be 8da6 b1bc 6069 aabd e9b8 9e3d
00000110: fbad 94bd 02a6 dfbc 9d34 16bd efc2 e53d
00000120: 9373 023e fd52 10bd 706b f4bb a822 d73b
00000130: ca06 54bc 4c59 6ebd cce3 02bc d1b9 7cbd
00000140: 19bb b0bb 7a88 a73c 8993 fb3d 7910 0abd
00000150: 2ff5 12bd fe7d c53d 79cc 1d3d 22a7 08bd
00000160: 63e8 e93a a2ab 9c3d 792c 363d 9bac 54bd
00000170: 2b9d a43c 2237 883c 99b0 14bd 529b 573c
00000180: 4007 b0bd 7015 aebd d257 aabd 1155 253d
00000190: 186f a0bd 0fbb 86bd f388 a13d 47e1 c9bc
000001a0: a27a 1dbc 980a eabb c854 333d 73ba 313e
000001b0: a8b4 c73d 11f3 ebbd 449e e0bc f301 6bbd
000001c0: 1185 0e3d 7ee3 113e 610c bfbd 8cc4 77bd
000001d0: b839 3cbd de9f 903d 9f3a e43d d42d b539
000001e0: 57ef d2bc 78df 72bd 7a14 ffbc 55f6 6abc
000001f0: 567a 4e3d a290 963d e3a0 013c 2216 503d
00000200: 1303 1bbd 0032 f03c b2f9 ad3c 15c7 ca3c
00000210: 407f b439 811e 3c3d 45a0 d33c f913 2dbd
00000220: 34e8 073d 0838 81bb cc53 d83b 697e 83bb
00000230: dd68 683d 780c b93c 6fb1 bbbc b2f0 07bd
00000240: a781 1cbd 7e0d 403d 5606 da3d 1864 d43d
00000250: 051e 8cbd f7e7 7fbd 7502 793d e484 2ebe
00000260: b52c 38bc 95b3 d7bb 15fe b63d 44f8 e63c
00000270: e9a0 293d 64dd 0ebd 9882 a53c faf8 013e
00000280: 78a1 04ba a02e b0bd 7e5b 4b3c 27b9 d43c
00000290: e565 c6bc 4569 403d ad94 0bbd cf94 633d
000002a0: d443 ab3c 8eef d93c 31c9 d7bd 819f a9bd
000002b0: 081d e83a fad7 db3b cb25 79bd 2a67 aabd
000002c0: 5dd3 b73b 12d8 a9bc ba5e a33c 847f a3bc
000002d0: fc34 893d a9b2 f6bb ca54 753d f8db 0abd
000002e0: b789 983b 620b cabc 4e60 13be d79f a3bd
000002f0: 3047 39bc e5c5 07bd a988 1d3d 1614 3bbe
00000300: ebe1 203d f614 0ebd e311 1c3d 4801 a2bc
00000310: 4bac 253d 440d 903d e89b 1a3d cd88 eabc
00000320: e34b 5c3d 0e21 423d 4168 343d 2731 423b
00000330: a3a7 c9bc feb2 07be 94ed c1bd 19d7 123d
00000340: 2ee5 9dbd b98c 873d 2c16 09bd 88d8 d3bb
00000350: 0cba e33d 59ac f9bc 75ed a33c e042 e43c
00000360: be07 d1bc aabb 203d 918a 923c 11f6 0dbd
00000370: fe89 373d 9ccf 1ebd e9ce 73bd 1836 02be
00000380: cde2 073d 443c 38bd 9c4b 2abb bf50 33bd
00000390: ec5c c8bc 8b59 f83c c6ec cb3b 57c9 9a3d
000003a0: 0f07 883d 8549 ddbc 156b dabd 8fb9 b2bd
000003b0: 064b 873d 06d6 8c3b 1458 b6bd eee4 e63d
000003c0: 166b d63c fbd4 77bd 04de b63b e832 2abd
000003d0: 79bf 2d3d cb14 1c3d 5dfa 803d 71f6 0dbd
000003e0: d337 503d b26f df3c 9abe 2f3d 5ba0 a2bd
000003f0: c2de 5cbd dab6 063d 1ee3 c7bc 9f45 343d

network_body._body_endoder.seq_layers.2.bias f4 [256]
-0.04007127 0.010212619 -0.06124071 0.04732375 -0.04716158 -0.038653225 -0.056412566 -0.05455352
-0.031076906 0.043361966 -0.026541812 0.031301588 0.01892601 -0.03154341 0.03193401 -0.06620621
0.020166814 0.031638924 0.03863663 0.015575243 0.027969928 -0.045239024 -0.018640287 -0.06570645
-0.03438725 0.027596675 -0.05279161 0.031381533 0.028674839 -0.04158306 0.026134083 0.043161463
0.043610115 0.014387165 0.048593123 -0.059633695 0.032545842 0.056222755 0.025604477 0.0499729
-0.04732464 0.040274594 0.024145888 -0.035014 -0.06591821 -0.06896716 0.049512558 0.054356158
0.037743587 0.026830463 -0.065300934 -0.053186495 -0.041818276 0.025639663 -0.04671599 0.053367868
0.033503428 -0.008805321 -0.026234223 -0.028955007 -0.0074212532 0.038515918 0.03556709 -0.06392249
0.03413043 -0.011138444 0.02743758 0.03531225 0.031281535 0.030031726 0.027768968 -0.027964426
-0.049554437 -0.062322795 -0.008445672 0.04195691 0.032867745 0.044421263 0.029168526 -0.055018235
0.0443184 0.04767743 0.03743863 -0.05115403 -0.04384087 -0.07504218 0.046132706 -0.057819586
0.025546286 0.024382148 0.019887028 0.018450558 -0.050482053 -0.06685849 0.012214839 0.048818946
0.037913613 -0.06302885 -0.078411795 -0.045323692 -0.060109593 0.04023 0.057097517 -0.04009755
0.037653368 0.021509785 0.04388352 0.017009212 -0.07960018 0.03975717 -0.050671853 -0.04236596
-0.025471414 -0.03359773 0.02789612 0.055503704 0.051056523 0.050141707 -0.04703247 -0.012070996
-0.032214012 -0.042118963 -0.03523181 0.03922182 0.012290529 0.04856003 -0.031093955 -0.031535156
-0.07223133 0.003345136 -0.04884795 -0.006876186 0.035725474 0.046092417 -0.00075784326 0.058308072
0.027834767 -0.07818115 0.0435406 -0.008333279 0.04479016 -0.069315076 0.034270104 -0.012781544
0.05021846 0.020664176 0.034446012 0.016036665 -0.060140163 0.039074026 -0.02822048 -0.06132741
0.044572055 -0.027891053 0.037054963 0.03017879 -0.061715934 -0.0010057641 -0.02628923 0.039805003
-0.004453258 -0.047753293 -0.0061648125 -0.057006054 0.04642939 0.052326884 0.0425698 0.041534737
0.015146521 -0.0177092 -0.032280773 0.038106628 0.022712132 -0.030433897 -0.012045197 -0.06829552
-0.04566513 -0.010707688 0.018416626 0.025237158 -0.06495382 0.042082418 -0.025488745 0.04302109
0.049182296 0.029144049 0.04164226 0.0012079497 0.035085652 -0.0027478526 0.027400143 0.04401925
-0.034575474 -0.07802281 0.03694745 0.04198043 -0.019344298 -0.04339493 0.04138673 0.04672762
0.040316004 0.027008101 -0.064959064 0.008968938 -0.029611813 0.04933741 0.020392923 0.015023812
0.026239462 0.0543277 0.023090165 -0.052102834 -0.05856857 0.047854885 -0.017082889 0.033786595
-0.058861233 0.03945818 -0.022578645 -0.046974912 -0.039580468 0.0067974012 0.0034892424 0.020583825
0.03255665 -0.0080195 0.036518354 0.047285378 -0.0065547973 -0.054679856 0.058591634 0.028484771
0.05228319 -0.0038157203 -0.054823548 -0.014883842 0.03919598 0.039890613 0.039676886 -0.043313045
0.038206656 -0.015246437 -0.0540265 0.057332337 -0.074180916 0.060795635 0.042257234 0.056436073
-0.057488944 0.05424286 0.048651297 -0.037815902 0.05138145 0.024500985 -0.050463 0.0425106
00000000: c621 24bd d452 273c 8ad7 7abd 8cd6 413d
00000010: 802c 41bd d852 1ebd dd10 67bd 8373 5fbd
00000020: ff94 febc 519c 313d 376e d9bc 1836 003d
00000030: b80a 9b3c aa33 01bd 3dcd 023d 1f97 87bd
00000040: e034 a53c d197 013d 7141 1e3d 4e2f 7f3c
00000050: 3121 e53c 8e4c 39bd 84b3 98bc 1a91 86bd
00000060: a5d9 0cbd 6c12 e23c 043c 58bd ec89 003d
00000070: 7fe7 ea3c 0053 2abd 2517 d63c 13ca 303d
00000080: 85a0 323d 25b8 6b3c 9509 473d 7642 74bd
00000090: ca4e 053d d549 663d 7bc0 d13c 62b0 4c3d
000000a0: 7bd7 41bd f9f6 243d 99cd c53c d76a 0fbd
000000b0: 2000 87bd a83e 8dbd aecd 4a3d 90a4 5e3d
000000c0: 0599 1a3d 8fcb db3c 7fbc 85bd 15da 59bd
000000d0: a449 2bbd 450a d23c 4459 3fbd 4498 5a3d
000000e0: e43a 093d 3144 10bc 27e9 d6bc 0d33 edbc
000000f0: fc2d f3bb dec2 1d3d ccae 113d cbe9 82bd
00000100: 5acc 0b3d 057e 36bc c7c4 e03c 94a3 103d
00000110: 1121 003d 1805 f63c bf7b e33c a715 e5bc
00000120: 98f9 4abd 3046 7fbd b75f 0abc 02db 2b3d
00000130: 54a0 063d 12f3 353d d5f2 ee3c cd5a 61bd
00000140: 3687 353d 6949 433d 4059 193d e386 51bd
00000150: 7c92 33bd b7af 99bd a6f5 3c3d 3bd4 6cbd
00000160: 7246 d13c 12bd c73c 1fea a23c a025 973c
00000170: 45c6 4ebd 1bed 88bd c020 483c 60f6 473d
00000180: 4e4b 1b3d 4515 81bd 5d96 a0bd 56a5 39bd
00000190: 7a35 76bd 36c8 243d 16df 693d 543d 24bd
000001a0: 6b3a 1a3d 4a35 b03c 35bf 333d e756 8b3c
000001b0: 6b05 a3bd 6ad8 223d 4a8d 4fbd ee87 2dbd
000001c0: 6da9 d0bc c69d 09bd 6786 e43c da57 633d
000001d0: a520 513d 6461 4d3d 1fa5 40bd 6dc5 45bc
000001e0: d7f2 03bd ef84 2cbd 3b4f 10bd 0fa7 203d
000001f0: 375e 493c e2e6 463d c0b8 febc 022b 01bd
00000200: 05ee 93bd 123a 5b3b ca14 48bd a151 e1bb
00000210: e054 123d 67cb 3c3d 00aa 46ba 72d4 6e3d
00000220: bd05 e43c 701d a0bd a157 323d 4e88 08bc
00000230: e375 373d 10f5 8dbd cf5e 0c3d ae69 51bc
00000240: dfb1 4d3d eb47 a93c 4317 0d3d 535f 833c
00000250: 8855 76bd 160c 203d a32e e7bc 7332 7bbd
00000260: 3091 363d c77b e4bc f2c6 173d 8339 f73c
00000270: d9c9 7cbd d8d3 83ba 835c d7bc 920a 233d
00000280: a3ec 91bb f598 43bd 3202 cabb 2e7f 69bd
00000290: be2c 3e3d b754 563d ac5d 2e3d 5420 2a3d
000002a0: 1d29 783c e212 91bc d838 04bd b215 1c3d
000002b0: cb0e ba3c 8250 f9bc 3859 45bc 86de 8bbd
000002c0: 5c0b 3bbd 4c6f 2fbc 77de 963c 28be ce3c
000002d0: 8206 85bd 9d5e 2c3d c6cd d0bc e236 303d
000002e0: 6073 493d 80bf ee3c 1391 2a3d 1154 9e3a
000002f0: f9b5 0f3d 5115 34bb 4476 e03c 874d 343d
00000300: 039f 0dbd 6cca 9fbd 3656 173d acf3 2b3d
00000310: ef77 9ebc e2be 31bd 2285 293d 7665 3f3d
00000320: 6522 253d 1840 dd3c 4209 85bd 74f2 123c
00000330: 7994 f2bc 0616 4a3d 0f0f a73c 6f26 763c
00000340: 24f4 d63c b986 5e3d 9627 bd3c c869 55bd
00000350: 99e5 6fbd 7c03 443d 6af1 8bbc d063 0a3d
00000360: 7a18 71bd e79e 213d daf6 b8bc c468 40bd
00000370: 211f 22bd bcbc de3b c6ab 643b 699f a83c
00000380: 1f5a 053d 3964 03bc 4594 153d 50ae 413d
00000390: a0c9 d6bb fcf7 5fbd c8fd 6f3d e558 e93c
000003a0: e626 563d 2a11 7abb a88e 60bd 5cdb 73bc
000003b0: f78b 203d 5764 233d 3b84 223d 0569 31bd
000003c0: 957e 1c3d 31cc 79bc e44a 5dbd 50d5 6a3d
000003d0: 2aec 97bd d804 793d ec15 2d3d 8329 673d
000003e0: 8779 6bbd c32d 5e3d 9546 473d d9e4 1abd
000003f0: 5b75 523d 4ab6 c83c 4ab2 4ebd 981f 2e3d

network_body._body_endoder.seq_layers.4.weight f4 [256, 256]
-0.032253888 0.028030308 -0.041424032 -0.032726668 -0.024696246 -0.04270011 0.007882106 0.020293752
-0.085324906 0.032033622 0.04031551 -0.07149748 -0.07552228 -0.022991762 -0.0020694097 -0.015959408
0.05155273 0.07947346 0.025572544 0.0022943444 -0.03308405 -0.09139927 -0.031872235 -0.05388247
0.0033784774 -0.023349388 0.049198315 -0.029953364 0.018059945 0.024022385 -0.032560583 -0.07521168
-0.015519369 0.08679227 0.019198598 -0.0011448992 -0.00739641 0.08413515 0.047928408 0.035421677
0.031328414 0.046984017 -0.003310941 -0.014612625 0.050558683 0.10748163 -0.03558073 -0.009359845
-0.010027332 0.03226877 0.017538287 0.044751715 0.029104704 0.07089531 -0.0912193 -0.024504846
-0.027756298 0.06982071 0.04622015 0.033693634 0.049142625 -0.06138579 -0.08009708 -0.03476485
-0.0045248847 0.018344011 0.04882207 0.08157036 -0.10447237 0.03357347 0.05436441 0.00917264
-0.024604395 0.014951127 -0.04709048 0.09110171 0.09249441 0.0037188341 -0.026732344 -0.06804526
-0.001606324 0.011196257 0.059305307 0.017573303 0.051750183 -0.043792278 -0.0042827716 0.037530452
-0.06799158 -0.004225732 -0.012846755 -0.024019962 -0.13536492 -0.05520673 0.11881103 -0.06497992
-0.012960385 -0.115348026 -0.060337294 0.05212698 0.12375414 0.0705273 -0.054026477 -0.06963706
0.12670362 -0.015514055 0.08260472 0.045958072 -0.039518513 0.105212525 0.10975622 -0.047768015
0.013367491 0.00602504 0.009270054 -0.019273942 -0.014796771 -0.08220507 -0.020884704 -0.07268936
0.029245455 -0.091808125 -0.0012222239 -0.08301996 0.04549817 -0.0065184194 -0.02640788 -0.059691153
0.013397145 0.021094074 -0.019175883 0.0005668465 0.018844781 -0.034680977 -0.021455046 -0.064364694
-0.0026658038 0.0072403704 -0.029187893 0.056927748 -0.112383105 0.052193996 0.051483616 0.017907472
-0.018757911 0.062196523 0.019698577 0.0830646 0.087411545 -0.03923705 -0.084993206 0.053357974
0.13260698 -0.06624631 0.09265226 0.07583559 -0.09707143 0.05939392 0.04722913 0.15115988
-0.020342262 -0.052912712 0.063699275 0.06688657 0.008802196 -0.065502085 -0.033580873 -0.022792052
0.12215211 0.019597856 -0.04467671 -0.06668798 0.10379392 0.030195992 0.002186532 -0.036062036
0.049413785 -0.018428445 -0.019398635 0.01723227 0.0011867327 -0.19778955 0.015709974 0.017925985
0.029011158 -0.020503344 0.03731435 0.04854246 0.12003462 0.05434206 -0.07162155 -0.016721008
0.10792616 0.027737943 0.012501746 0.05852347 0.057429533 0.035693306 -0.0058393357 -0.06626388
0.057243906 0.016697126 -0.03747014 0.017146107 0.058205564 -0.052665584 0.018896775 0.0923527
-0.031159706 -0.018152611 0.017168064 -0.061504494 0.035742946 0.09758429 0.028313434 -0.03803975
-0.07781169 0.061237615 0.10983887 0.040601216 -0.12615955 -0.09350361 0.06707024 -0.025685538
-0.07014575 -0.04385871 0.09878758 -0.033222087 0.025989784 -0.10422763 -0.10360209 0.037077986
0.053799547 0.027736783 -0.0021158527 -0.05659995 0.028473353 -0.10084351 0.012008011 -0.086124435
0.094655216 -0.07970547 0.017471008 -0.031012556 0.033140767 -0.03766951 0.005009659 -0.032949034
-0.104177125 -0.009709256 0.051721565 -0.056590326 -0.05316339 0.06506137 -0.08846454 0.011759232
00000000: a71c 04bd d19f e53c 3fac 29bd 660c 06bd
00000010: c84f cabc 4fe6 2ebd f323 013c 153f a63c
00000020: d3be aebd b035 033d e021 253d 456d 92bd
00000030: 6dab 9abd 3859 bcbc ef9e 07bb 4ebd 82bc
00000040: f528 533d fbc2 a23d 837d d13c b65c 163b
00000050: 2483 07bd 8a2f bbbd 768c 02bd ddb3 5cbd
00000060: 7269 5d3b 3747 bfbc 2c84 493d c260 f5bc
00000070: 73f2 933c 98ca c43c 3f5e 05bd 9508 9abd
00000080: f444 7ebc 25c0 b13d 6146 9d3c 7110 96ba
00000090: 965d f2bb 0d4f ac3d 9450 443d 5216 113d
000000a0: 3952 003d 5072 403d 5ffc 58bb cb69 6fbc
000000b0: 9f16 4f3d 541f dc3d 19bd 11bd 095a 19bc
000000c0: ae49 24bc 422c 043d 74ac 8f3c 934d 373d
000000d0: fd6c ee3c 8f31 913d 2fd1 babd 63be c8bc
000000e0: 2d61 e3bc 29fe 8e3d 5751 3d3d 5602 0a3d
000000f0: c749 493d ab6f 7bbd f009 a4bd 9665 0ebd
00000100: 7c45 94bb 2e46 963c a7f9 473d 5c0e a73d
00000110: 9cf5 d5bd 5684 093d 37ad 5e3d d748 163c
00000120: 288f c9bc 92f5 743c f2e1 40bd 8993 ba3d
00000130: b66d bd3d afb7 733b cafd dabc 505b 8bbd
00000140: 4a8b d2ba 8170 373c 1fea 723d e3f5 8f3c
00000150: 00f8 533d 885f 33bd 7e56 8cbb 88b9 193d
00000160: 2b3f 8bbd 0278 8abb 327b 52bc 83c5 c4bc
00000170: 1a9d 0abe 7420 62bd 3353 f33d 3114 85bd
00000180: cb57 54bc 963b ecbd 3d24 77bd 1a83 553d
00000190: d072 fd3d 9e70 903d de4a 5dbd e09d 8ebd
000001a0: 98be 013e aa2e 7ebc aa2c a93d 883e 3c3d
000001b0: 2ade 21bd aa79 d73d dec7 e03d 65a8 43bd
000001c0: 5203 5b3c b36d c53b 6de1 173c 63e4 9dbc
000001d0: 286e 72bc 225b a8bd 6616 abbc 29de 94bd
000001e0: 2a94 ef3c e605 bcbd 0733 a0ba 5e06 aabd
000001f0: 4a5c 3a3d 7798 d5bb 5755 d8bc b67e 74bd
00000200: b37f 5b3c 7bcd ac3c be16 9dbc 6d98 143a
00000210: 5f60 9a3c a40d 0ebd 7ec2 afbc a3d1 83bd
00000220: c4b4 2ebb a140 ed3b 731b efbc 122d 693d
00000230: 1d29 e6bd 5fc9 553d 7ce0 523d b1b2 923c
00000240: 31aa 99bc c8c1 7e3d e95e a13c c61d aa3d
00000250: d304 b33d 07b7 20bd eb10 aebd e48d 5a3d
00000260: 20ca 073e 25ac 87bd 78c0 bd3d b14f 9b3d
00000270: 63cd c6bd 0a47 733d 5573 413d a8c9 1a3e
00000280: d1a4 a6bc 00bb 58bd c474 823d d3fb 883d
00000290: 1637 103c f525 86bd 198c 09bd 66b6 babc
000002a0: e32a fa3d af8b a03c edfe 36bd b593 88bd
000002b0: e891 d43d 965d f73c eb4b 0f3b c9b5 13bd
000002c0: 1c66 4a3d 40f7 96bc e3e9 9ebc b12a 8d3c
000002d0: 248c 9b3a 5889 4abe 34b2 803c 84d9 923c
000002e0: cfa8 ed3c a1f6 a7bc efd6 183d 75d4 463d
000002f0: b6d4 f53d c895 5e3d 52ae 92bd 7ffa 88bc
00000300: 6408 dd3d af3a e33c 20d4 4c3c 4eb6 6f3d
00000310: 3b3b 6b3d 2533 123d e657 bfbb 5bb5 87bd
00000320: 9678 6a3d 69c8 883c 4a7a 19bd fe75 8c3c
00000330: f568 6e3d deb7 57bd 69cd 9a3c 6a23 bd3d
00000340: a442 ffbc c9b4 94bc 0aa4 8c3c 23ec 7bbd
00000350: 3267 123d 46da c73d 93f1 e73c 92cf 1bbd
00000360: bc5b 9fbd 4bd4 7a3d 34f3 e03d 764d 263d
00000370: f82f 01be d27e bfbd 1f5c 893d 7a6a d2bc
00000380: 93a8 8fbd 31a5 33bd 2551 ca3d e213 08bd
00000390: 87e8 d43c 4c75 d5bd 552d d4bd 16df 173d
000003a0: ea5c 5c3d 4038 e33c 1eaa 0abb 59d5 67bd
000003b0: f340 e93c 0b87 cebd 40bd 443c 0262 b0bd
000003c0: 98da c13d 9f3c a3bd 5c1f 8f3c 0b0e febc
000003d0: 9dbe 073d 584b 1abd 1128 a43b 91f5 06bd
000003e0: d15a d5bd 9213 1fbc fed9 533d 42cb 67bd
000003f0: dbc1 59bd e53e 853d e62c b5bd cba9 403c

network_body._body_endoder.seq_layers.4.bias f4 [256]
0.005663076 0.030535756 -0.047002792 -0.056022093 0.026924301 -0.036368288 -0.060666088 0.014866114
-0.0077119763 0.033763293 -0.03235994 0.03237445 0.022456788 -0.051891662 0.03476246 -0.04675834
0.04828423 -0.0026553904 -0.0039266082 -0.053950056 0.030491007 -0.05316799 0.02633495 -0.04553378
0.021547154 0.018004863 0.014629944 0.010157442 -0.026563086 -0.027539467 -0.020001192 -0.04067182
0.023387946 0.0064032283 0.024199614 -0.052596178 0.017196642 0.005931455 -0.014725412 0.029737959
-0.028926987 0.02678604 0.032553937 0.02373345 0.026237952 0.031963233 0.040672656 0.025101664
0.0037553154 0.028899573 -0.0026056473 0.023124186 -0.040374506 0.03743186 0.01488737 -0.043394823
0.03604974 0.0317664 0.026192835 0.03981602 -0.027743967 0.03298914 0.04323564 0.033529088
0.0116866445 0.024634162 -0.031979583 -0.016116504 0.019662188 -0.033324298 -0.01919836 0.051098052
0.032094013 -0.04822895 0.031547412 0.046946175 0.00028322102 -0.05677434 0.01616124 -0.043862294
-0.021606568 -0.023637751 0.030704293 0.013878782 -0.05146594 -0.043203566 -0.020600049 0.017096419
0.019032877 0.024781166 -0.016984211 0.021303033 0.013483965 -0.025099719 -0.035744738 -0.05304545
-0.06218728 0.0309571 0.033490375 0.005633607 -0.052816752 0.018984495 -0.004288503 0.048936717
-0.046452783 0.030973064 0.046874397 0.035299867 0.022887696 0.02189559 -0.05284435 0.035801098
0.031034134 0.016239757 -0.02751826 0.03102055 0.025286673 -0.030354932 0.038111344 0.009367512
0.031189177 0.051502377 -0.029433884 0.039890468 -0.042611457 0.028974185 0.03510775 0.039807875
-0.05945469 0.043699205 -0.039537933 -0.0025139365 0.04998544 0.040566973 0.025944866 0.022997852
0.03036123 0.021772085 0.03198364 0.027370831 0.039494935 0.040225007 0.009281442 -0.025558291
-0.04217484 -0.027422063 -0.060939584 -0.048231777 -0.029458517 -0.008086538 -0.04424352 0.026760204
-0.0639877 0.032313745 0.037124958 -0.027423646 0.02525015 -0.044714045 0.0104731545 0.019918198
0.038532816 0.014701901 -0.0445559 0.02514833 0.03126393 -0.037595253 0.035991 -0.015849974
-0.03725234 -0.054712538 0.026815206 -0.04806136 0.020297188 -0.03702581 0.036017645 0.03506953
0.024016315 -0.010168165 -0.017977322 0.01190572 0.046798628 0.055748794 0.007039254 0.030534646
0.0058880453 -0.013575336 0.02129412 0.036380745 -0.04047529 0.023638885 0.023815617 0.03924755
0.041564155 -0.030858148 0.012413652 0.03258418 -0.040919326 0.0047350163 -0.030773608 0.031821877
-0.051486917 -0.036266558 -0.050383803 0.021488303 0.032608896 -0.03549885 -0.044995483 -0.0056926147
0.038917713 0.041681755 -0.04521149 -0.061087407 0.041090634 0.030432142 0.019546928 -0.04369388
0.014975192 -0.018387645 -0.01649338 -0.0316009 0.020975178 -0.054932393 0.030179169 0.0011555817
-0.044865634 0.026979027 -0.06315083 0.029892797 -0.027847122 0.033184804 0.016785812 -0.03953505
0.028429514 -0.044687174 0.035081726 0.018583326 -0.023628063 0.035596076 0.011132188 -0.05805351
-0.040904317 -0.041276634 -0.029081259 -0.038088832 0.0013827797 -0.036889315 -0.039216537 -0.021808382
-0.056314338 -0.010965335 -0.0002507026 0.01250068 -0.04816773 -0.042960536 -0.023590505 -0.045637388
00000000: 5391 b93b 1f26 fa3c 0086 40bd 6c77 65bd
00000010: 5a90 dc3c eaf6 14bd 017d 78bd 0091 733c
00000020: bfb4 fcbb 614b 0a3d db8b 04bd 129b 043d
00000030: 4cf7 b73c 5a8c 54bd 1563 0e3d ac85 3fbd
00000040: afc5 453d 0f06 2ebb c7aa 80bb bcfa 5cbd
00000050: 47c8 f93c aec6 59bd 65bc d73c a181 3abd
00000060: a883 b03c ef7e 933c 6fb2 6f3c 666b 263c
00000070: d49a d9bc 739a e1bc 8ad9 a3bc 7f97 26bd
00000080: 1498 bf3c 2cd2 d13b 453e c63c 176f 57bd
00000090: f9df 8c3c a75c c23b db42 71bc 059d f33c
000000a0: 4af8 ecbc 666e db3c 4757 053d a76c c23c
000000b0: f9f0 d63c e1eb 023d 5f98 263d 01a2 cd3c
000000c0: bd1b 763b ccbe ec3c 82c3 2abb ef6e bd3c
000000d0: bd5f 25bd 2652 193d 28ea 733c c5be 31bd
000000e0: e4a8 133d 7c1d 023d 5b92 d63c 1f16 233d
000000f0: 5147 e3bc 9f1f 073d db17 313d cc55 093d
00000100: 5779 3f3c 95cd c93c 06fd 02bd c206 84bc
00000110: 9912 a13c 0f7f 08bd e145 9dbc 314c 513d
00000120: 0375 033d b88b 45bd dc37 013d a24a 403d
00000130: 487d 9439 368c 68bd 9464 843c f3a8 33bd
00000140: 4200 b1bc f5a3 c1bc 9287 fb3c d563 633c
00000150: f3cd 52bd 39f6 30bd 6fc1 a8bc ca0d 8c3c
00000160: d6ea 9b3c df01 cb3c 7922 8bbc b383 ae3c
00000170: d9eb 5c3c ed9d cdbc 1369 12bd 3046 59bd
00000180: 17b8 7ebd bf99 fd3c 342d 093d 1f9a b83b
00000190: 6156 58bd 5f85 9b3c 9286 8cbb de71 483d
000001a0: 4645 3ebd 39bb fd3c 5eff 3f3d 9896 103d
000001b0: fa7e bb3c 615e b33c 5173 58bd 2ca4 123d
000001c0: 4c3b fe3c 3d09 853c f96d e1bc cf1e fe3c
000001d0: ff25 cf3c e8aa f8bc a41a 1c3d 317a 193c
000001e0: 7280 ff3c 28f4 523d 541f f1bc 3064 233d
000001f0: 5a89 2ebd 455b ed3c 25cd 0f3d 950d 233d
00000200: c386 73bd f0fd 323d 87f2 21bd dbc0 24bb
00000210: 88bd 4c3d 8e29 263d 548a d43c fe65 bc3c
00000220: 1db8 f83c 5f5b b23c 4701 033d cb38 e03c
00000230: 71c5 213d fac2 243d 3011 183c 9f5f d1bc
00000240: 86bf 2cbd 3ca4 e0bc c99b 79bd af8e 45bd
00000250: fd52 f1bc 667d 04bc b138 35bd 3738 db3c
00000260: fc0b 83bd 6b5b 043d 5710 183d 8ea7 e0bc
00000270: 67d9 ce3c 1326 37bd 9897 2b3c 7d2b a33c
00000280: 96d4 1d3d 3ee0 703c 3f80 36bd df03 ce3c
00000290: 9b0e 003d 7bfd 19bd 4c6b 133d ced7 81bc
000002a0: e995 18bd 411a 60bd 90ab db3c fddb 44bd
000002b0: 4a46 a63c 60a8 17bd 3d87 133d 11a5 0f3d
000002c0: ddbd c43c 6098 26bc 2d45 93bc 3610 433c
000002d0: ebaf 3f3d d958 643d 8ba9 e63b cb23 fa3c
000002e0: 81f0 c03b 166b 5ebc 0271 ae3c fa03 153d
000002f0: 6bc9 25bd 56a6 c13c f818 c33c 0ac2 203d
00000300: 2d3f 2a3d 3aca fcbc a162 4b3c fd76 053d
00000310: 069b 27bd 3228 9b3b ef18 fcbc a857 023d
00000320: f2e3 52bd 3e8c 14bd 3f5f 4ebd 3d08 b03c
00000330: e890 053d 3e67 11bd 2f4d 38bd 1d89 babb
00000340: 2e68 1f3d 7dba 2a3d af2f 39bd ca36 7abd
00000350: a74e 283d d44c f93c e120 a03c 5bf8 32bd
00000360: 825a 753c b0a1 96bc 201d 87bc f26f 01bd
00000370: 23d4 ab3c ca00 61bd 4e3a f73c e376 973a
00000380: 07c5 37bd 1f03 dd3c 3955 81bd bde1 f43c
00000390: a61f e4bc caec 073d 6682 893c 81ef 21bd
000003a0: 03e5 e83c e609 37bd dbb1 0f3d 0f3c 983c
000003b0: a48f c1bc 31cd 113d c863 363c 84c9 6dbd
000003c0: 498b 27bd b011 29bd d23b eebc 0903 1cbd
000003d0: 633e b53a 4019 17bd 85a1 20bd 7ea7 b2bc
000003e0: dda9 66bd f3a7 33bc bc70 83b9 a7cf 4c3c
000003f0: 874b 45bd 63f7 2fbd e040 c1bc 45ee 3abd

action_model._continuous_distribution.mu.weight f4 [2, 256]
0.0070578433 0.018466963 -0.012760997 -0.016016874 0.005123358 -0.0014559474 -0.0069008544 0.0010299182
0.012263325 -0.012145647 0.00085076643 0.0024488235 -0.0012890777 0.005397428 -0.005492282 0.025322188
0.005856491 -0.0063402704 0.0027254676 -0.010209738 0.0069179973 0.001082879 -0.009143216 -0.015566419
-0.014957769 0.0071442216 -0.0076181283 -0.00848452 -9.83834e-05 0.010369533 0.01887264 0.005508398
0.0020678781 -0.0071053156 -0.016405424 -0.00026170144 0.007622887 0.0045601414 0.0036192767 -0.00457096
-0.01698182 0.017150251 0.0052215685 -0.016026234 -0.025708536 -0.015563755 -0.0057526333 0.0019536666
0.010035523 -0.0018780183 -0.0046411455 0.027518205 0.009392655 -0.007331731 0.005202428 -0.013732416
-0.014870452 0.0025388561 0.015632128 -0.0011381877 -0.0020861202 -0.0049346606 -0.0022460197 -0.001513921
-0.010592848 0.0061007687 -0.0046422645 0.0055453647 -0.01174482 -0.0074122353 -0.005762762 -0.0050470703
-0.0017590423 0.009225694 0.018908441 -0.0019899264 0.0030768262 0.003626237 -0.007924631 0.0015448342
0.012157014 0.010950123 0.0073006577 -0.0012439926 0.0014194952 -0.02230303 -0.004445326 -0.00044768013
-0.021902645 0.002065685 0.00191452 0.005747216 0.015410476 0.010808829 0.02608506 0.010146506
0.0020982886 -0.0069628237 0.0074479366 0.00567412 0.006661206 -0.0034708846 -0.0028591892 -0.0050775
-0.009259003 0.007206178 0.0038039864 -0.002834176 0.015164142 0.0002427085 -0.0124021005 -0.002600253
0.010603266 0.009705562 -0.030509299 0.009155436 -0.026379839 -0.004327196 -0.002616057 -0.008622562
0.002351534 -0.00744779 0.0059030843 -0.013809958 -0.013080421 0.009072122 0.01057955 0.0066877133
0.0056107063 0.018008782 0.01745554 -0.010207294 -0.004842926 -0.00216407 -0.0049087093 -0.011002775
-0.0032405625 0.0073459954 -0.0070667276 -0.0205155 0.0056647705 -0.014484541 0.00056692126 0.0031452102
-0.0005396647 -0.013441689 -0.0054247524 0.0051360596 -0.014131734 0.0060472074 0.0052290815 0.0010109122
0.00049906067 -0.008032735 -0.011758208 -0.01207203 -0.0063856654 -0.0025960861 0.010516996 0.0036017902
0.010959578 -0.008102071 0.006229911 0.0071865353 0.00071491965 0.012732683 -0.020494975 0.0041822623
0.0044515817 -0.019122941 -0.0036362524 0.012589936 0.0032729914 -0.012343289 -0.0079900855 -0.009171247
-0.010443906 0.011542661 0.01358274 0.0063923434 0.0012371001 -0.0072679683 0.013587864 -0.018095586
0.013438477 -0.0026767242 -0.0026607807 -0.008874578 -0.0025212755 0.007889768 0.013184915 0.013106203
-0.0020098179 0.013259957 0.003963427 0.006838354 -0.021238301 -0.0033259664 -7.677884e-05 0.016826717
-0.017368834 -0.0026782658 0.0068219476 -0.006212706 2.2647047e-05 0.002431634 0.0062524136 0.005206488
0.008036861 -0.012994034 0.0043572015 -0.0063666254 -0.0077676903 -0.012058437 0.0116484435 -0.0015658753
0.0008472042 0.013300142 0.009757178 0.014828159 0.018166207 0.0010656754 -0.0031547393 0.0055039637
-0.009521543 -0.0007781064 0.0055562844 0.0022487266 -0.0011250473 -0.005369163 0.009502469 0.007718915
-0.013774442 0.011328331 0.0014640882 -0.0074227084 0.0017828135 -0.005763656 0.005042845 -0.0051284693
-0.0021631531 -0.0059044403 0.007974407 0.017280908 0.0005931697 -0.012394233 -0.0065872176 0.0010015345
-0.0010734318 -0.021779483 0.002371379 -0.01808852 0.006061026 9.794485e-05 0.0027612492 0.0030799445
00000000: 7b45 e73b 0748 973c 8013 51bc d235 83bc
00000010: d8e1 a73b 7dd5 beba 9020 e2bb 52fe 863a
00000020: 1dec 483c 89fe 46bc f805 5f3a 717c 203b
00000030: 45f6 a8ba e8dc b03b 9af8 b3bb 7a70 cf3c
00000040: cfe7 bf3b 0bc2 cfbb c29d 323b bf46 27bc
00000050: 5eb0 e23b 64ef 8d3a 6dcd 15bc 4b0a 7fbc
00000060: 6e11 75bc 131a ea3b 7ea1 f9bb a802 0bbc
00000070: 3053 ceb8 f9e4 293c cb9a 9a3c cb7f b43b
00000080: 3d85 073b b5d3 e8bb ab64 86bc f934 89b9
00000090: 69c9 f93b 3d6d 953b 6331 6d3b fec7 95bb
000000a0: 751d 8bbc af7e 8c3c b119 ab3b 7349 83bc
000000b0: b59a d2bc 1fff 7ebc 9680 bcbb 1609 003b
000000c0: 096c 243c d627 f6ba c014 98bb dc6d e13c
000000d0: a7e3 193c 043f f0bb 2179 aa3b edfd 60bc
000000e0: 32a3 73bc f062 263b f30e 803c 3e2f 95ba
000000f0: 4ab7 08bb efb2 a1bb f531 13bb c26e c6ba
00000100: a08d 2dbc f5e8 c73b 231e 98bb e4b5 b53b
00000110: 586d 40bc 56e2 f2bb 8dd5 bcbb e561 a5bb
00000120: aa8f e6ba 5e27 173c e0e5 9a3c 6d69 02bb
00000130: 94a4 493b 29a6 6d3b 50d6 01bc 097c ca3a
00000140: 362e 473c 2568 333c 5b3a ef3b 770d a3ba
00000150: 5b0e ba3a d8b4 b6bc 19aa 91bb 9cb6 eab9
00000160: 2d6d b3bc 7260 073b a2f0 fa3a 2453 bc3b
00000170: 397c 7c3c 8417 313c 56b0 d53c 883d 263c
00000180: 7183 093b 6628 e4bb d20d f43b f8ed b93b
00000190: 3f46 da3b c877 63bb 3c61 3bbb 2861 a6bb
000001a0: 13b3 17bc cd21 ec3b 4d4c 793b 95bd 39bb
000001b0: 0573 783c 917f 7e39 2e32 4bbc 0269 2abb
000001c0: 52b9 2d3c 1404 1f3c a3ee f9bc af00 163c
000001d0: 881a d8bc 27cb 8dbb 2772 2bbb a545 0dbc
000001e0: 321c 1a3b 970c f4bb a96e c13b 2943 62bc
000001f0: 434f 56bc 3da3 143c d955 2d3c 9b24 db3b
00000200: 04da b73b 2787 933c ecfe 8e3c 7e3c 27bc
00000210: 68b1 9ebb 12d3 0dbb 3dd9 a0bb fc44 34bc
00000220: 9e5f 54bb adb6 f03b 0290 e7bb 1f10 a8bc
00000230: 8a9f b93b 9150 6dbc 719d 143a df1f 4e3b
00000240: 4978 0dba 883a 5cbc 1fc2 b1bb 644c a83b
00000250: ca88 67bc a727 c63b b758 ab3b 9680 843a
00000260: 65d3 023a bc9b 03bc 80a5 40bc c4c9 45bc
00000270: d83e d1bb 1923 2abb 7a4f 2c3c 030c 6c3b
00000280: cd8f 333c 8cbe 04bc 4824 cc3b 077d eb3b
00000290: 7269 3b3a be9c 503c 14e5 a7bc 5c0b 893b
000002a0: 93de 913b b7a7 9cbc 314e 6ebb 0546 4e3c
000002b0: af7f 563b 823b 4abc d9e8 02bc ff42 16bc
000002c0: eb1c 2bbc 6e1d 3d3c 248a 5e3c dd76 d13b
000002d0: 3126 a23a 2328 eebb a29f 5e3c 323d 94bc
000002e0: 0f2d 5c3c fb6b 2fbb 7e60 2ebb ae66 11bc
000002f0: fc3b 25bb 1644 013c 8b05 583c 66bb 563c
00000300: 26b7 03bb 4a40 593c a3df 813b 4514 e03b
00000310: f2fb adbc 75f8 59bb 5304 a1b8 2fd8 893c
00000320: 1649 8ebc d885 2fbb a58a df3b f593 cbbb
00000330: 2afa bd37 0d5c 1f3b 0ce1 cc3b 309b aa3b
00000340: 0aad 033c eee4 54bc dbc6 8e3b 209f d0bb
00000350: 1c88 febb c090 45bc 1dd9 3e3c 0e3e cdba
00000360: e916 5e3a d7e8 593c 92dc 1f3c cef1 723c
00000370: 4cd1 943c 22ae 8b3a bebf 4ebb 985a b43b
00000380: 3f00 1cbc d6f9 4bba 7e11 b63b 5f5f 133b
00000390: 5376 93ba ceef afbb 3eb0 1b3c f4ee fc3b
000003a0: 32ae 61bc 779a 393c a6e6 bf3a 313a f3bb
000003b0: 4bad e93a 0ddd bcbb 733e a53b b80c a8bb
000003c0: b0c3 0dbb 097a c1bb 16a7 023c b190 8d3c
000003d0: f27e 1b3a 2e11 4bbc 96d9 d7bb ec45 833a
000003e0: 65b2 8cba e36a b2bc 2369 1b3b 602e 94bc
000003f0: 929b c63b be67 cd38 13f6 343b e5d8 493b

action_model._continuous_distribution.mu.bias f4 [2]
-0.0025409444 -0.000412535
00000000: f985 26bb 8349 d8b9
